Assignment_2/Task2/aann2.pth (torch, 12047 bytes, 8 tensors)

encoder.0.weight f4 [32, 24]
0	0x3ce15473	0.027506089
1	0xbe5da8fd	-0.21646495
2	0xbe24c125	-0.16089304
3	0x3d95926f	0.073033206
4	0xbd2637d2	-0.04058058
5	0x3e480cc0	0.19536114
6	0x3cf1c7ed	0.029514277
7	0xbda6f77b	-0.08152672
8	0x3cc5ed0e	0.024160888
9	0x3d93bbd6	0.07213561
10	0xbdafe8bc	-0.085893124
11	0x3df3a399	0.11896438
12	0xbd92a8e3	-0.07161119
13	0xbea195dc	-0.31559646
14	0x3e515435	0.20442279
15	0x3d4ea91f	0.050454255
16	0x3de53938	0.11192554
17	0x3e9dee78	0.30846
18	0x3dd9d4c4	0.10636285
19	0x3db76110	0.0895406
20	0xbc383967	-0.011244155
21	0xbd007617	-0.03136262
22	0xbe40d9d1	-0.1883309
23	0xbe696bd3	-0.22795038
24	0x3ecfe70b	0.4060596
25	0x3c3be4f6	0.011468163
26	0xbd8a7218	-0.06760043
27	0xbc69ddf9	-0.014274114
28	0x3e256ed5	0.1615556
29	0xbbeb2952	-0.0071765566
30	0xbdd86e6f	-0.105679385
31	0x3e19ba9c	0.15012592
32	0xbe086c34	-0.13322526
33	0xbd5f4ea8	-0.05451837
34	0xbe12f5e7	-0.14351617
35	0x3d1ffef0	0.039061487
36	0x3df16c87	0.11788278
37	0xbd9efb29	-0.07762749
38	0xbe20b9e5	-0.15695913
39	0x3e77de76	0.24205956
40	0xbe8dfbed	-0.27731267
41	0x3def46be	0.11683415
42	0x3e35dc71	0.17759873
43	0x3cff0e91	0.031134875
44	0x3e85215c	0.26002014
45	0x3dc3fc20	0.095695734
46	0xbd594827	-0.053047325
47	0x3d0dc361	0.034610156
48	0x3d84925b	0.064732276
49	0xbd984feb	-0.07437118
50	0xbe607dbb	-0.21922962
51	0x3da0acad	0.07845435
52	0x3c90734a	0.0176331
53	0x3db68c57	0.089134865
54	0x3e4428b2	0.19156149
55	0x3ee2559a	0.44205934
56	0xbd2e31ba	-0.04252789
57	0xbdcbcef6	-0.09951584
58	0xbc19f985	-0.009397869
59	0x3c3d7bbf	0.011565148
60	0x3e217c2b	0.15770023
61	0xbe2d2f81	-0.16912653
62	0x3e14d863	0.1453567
63	0x3c1de15d	0.00963625
64	0xbcffe497	-0.03123693
65	0x3d9c2934	0.07625046
66	0xbc63bcac	-0.013899963
67	0x3e6634c5	0.22481067
68	0x3da8ab9f	0.08235859
69	0x3e40135c	0.18757385
70	0xbea8b663	-0.3295165
71	0x3e7691fb	0.24079125
72	0x3ded7f36	0.11596529
73	0xbda75c62	-0.081719175
74	0x3d6c8fe6	0.05775442
75	0x3d6cd851	0.057823483
76	0xbe018955	-0.12650044
77	0xbe28cfd0	-0.16485524
78	0x3eae48f1	0.34040025
79	0xbe551113	-0.20807295
80	0xbdf6b811	-0.12046827
81	0xbd272276	-0.04080435
82	0x3d84cb8a	0.064841345
83	0xbe3543c8	-0.17701638
84	0xbe5e827f	-0.21729468
85	0xbd295489	-0.041340385
86	0x3e44361f	0.1916127
87	0x3e23730d	0.15961857
88	0x3e199b9d	0.15000768
89	0x3df8def9	0.12151904
90	0xbe205602	-0.1565781
91	0x3e316be2	0.1732631
92	0x3e1136db	0.14181082
93	0xbd76dda1	-0.060269956
94	0xbdec99bd	-0.11552761
95	0x3db1995b	0.08671828
96	0x3d551b6f	0.052028116
97	0x3c7a31db	0.0152706755
98	0x3dd52772	0.10407914
99	0x3ca6a6eb	0.020343265
100	0xbe55dbc8	-0.20884621
101	0xbd46952f	-0.048482116
102	0x3cf704cb	0.030153653
103	0xbd00bf9f	-0.031432744
104	0x3bb558b9	0.005534258
105	0xbe2ab5d9	-0.16670932
106	0xbeb5168e	-0.3536877
107	0x3e593cfe	0.21214673
108	0x3e861c4f	0.26193473
109	0xbe53c45c	-0.20680374
110	0x3e1c6d6b	0.15276115
111	0x3c862bfa	0.016378392
112	0x3d527deb	0.051389616
113	0x3e872bb9	0.26400545
114	0xbd0fd8dc	-0.035118923
115	0x3e8e8ed5	0.27843347
116	0x3b8a8fdc	0.004228575
117	0x3e7eb4d5	0.2487367
118	0x3ddb93f7	0.107215814
119	0x3dd3f525	0.10349492
120	0xbd88b0ed	-0.06674371
121	0xbe45c703	-0.19314198
122	0x3e3889a4	0.18021256
123	0x3eda96bf	0.42693135
124	0xbd2746a1	-0.04083884
125	0x3d5e8426	0.054325245
126	0x3d9afc4e	0.075676546
127	0xbdff3fe5	-0.12463359
128	0x3e86deb7	0.26341793
129	0x3eeabc74	0.45846903
130	0xbe30611c	-0.17224544
131	0x3e847028	0.25866818
132	0xbe94ecac	-0.29086816
133	0xbdbf5e57	-0.09344166
134	0x3e761058	0.24029672
135	0xbe026a6f	-0.12735914
136	0xbea7d2e8	-0.32778096
137	0x3eac1169	0.33607033
138	0xbe935b4b	-0.28780589
139	0xbdef9ebf	-0.117002
140	0x3e28e865	0.16494901
141	0x3dd5a16e	0.10431181
142	0x3e692a4a	0.22770038
143	0xbd417af4	-0.047236398
144	0x3e82a04e	0.25512928
145	0x398841ce	0.0002598897
146	0xbdb5328c	-0.08847532
147	0x3e4d40cb	0.20044248
148	0xbdbe382e	-0.09288059
149	0xbd8c8d78	-0.068629205
150	0x3ee3c0d7	0.44483063
151	0x3e3875de	0.18013713
152	0x3ccfa3a8	0.025346592
153	0x3ce624a8	0.028093651
154	0xbdfc3afd	-0.123159386
155	0x3d87272b	0.065992676
156	0x3e117280	0.14203835
157	0xbcd831f4	-0.026391007
158	0x3de79eb8	0.1130957
159	0xbe00ad4a	-0.12566105
160	0x3d660e27	0.05616584
161	0xbddba2b6	-0.10724394
162	0xbc762eb5	-0.015025784
163	0x3ea0fad3	0.31441364
164	0x3eb10aac	0.34578454
165	0xbe770740	-0.2412386
166	0x3dd9c939	0.10634083
167	0x3ce02284	0.027360208
168	0xbe0e5141	-0.13898183
169	0xbf8188c6	-1.0119865
170	0x3ec2c056	0.38037366
171	0xbe865e1a	-0.2624367
172	0xba852fa5	-0.0010161294
173	0x3d13c5d0	0.03607732
174	0x3ee5e2ba	0.4489954
175	0x3e647a83	0.2231236
176	0x3f71cf8d	0.9445732
177	0xbb6fb84e	-0.003657836
178	0x3edb46ff	0.42827603
179	0x3f26118b	0.6487052
180	0x3ee1f5fb	0.4413298
181	0xbdc90076	-0.09814541
182	0xbef68e8d	-0.48155633
183	0x3e3e2ffc	0.18572992
184	0xbf0a269c	-0.53965163
185	0x3ebd89cf	0.37019202
186	0x3da297a7	0.07939082
187	0xbeb4b279	-0.35292414
188	0x3e98ccc2	0.29843718
189	0xbf030bb2	-0.5118972
190	0xbf8188ea	-1.0119908
191	0x3db7c31a	0.089727595
192	0xbe88596a	-0.26630718
193	0xbdeeafc9	-0.11654622
194	0x3f0f1799	0.5589538
195	0x3ed9e32c	0.4255613
196	0xbc8de052	-0.017318878
197	0x3dffc373	0.12488451
198	0x3e795da6	0.2435213
199	0xbd1c270f	-0.038123187
200	0x3d8e0ae3	0.0693567
201	0xbf2dad88	-0.6784291
202	0x3e49d1d8	0.19708955
203	0x3eaa69a6	0.33283728
204	0x3d879a56	0.06621234
205	0xbdea6820	-0.114456415
206	0x3d68d650	0.05684501
207	0x3e2861c5	0.16443546
208	0x3e9c5c18	0.30539012
209	0xbdba67e6	-0.09101848
210	0xbcfb8e80	-0.030707598
211	0x3bea7738	0.0071553253
212	0x3de78be7	0.11305981
213	0x3e727dde	0.23680827
214	0x3d2e90c3	0.042618524
215	0xbebe8722	-0.37212473
216	0x3cc87767	0.024470998
217	0x3e2a94ee	0.16658375
218	0xbd7b6a06	-0.06138041
219	0x3d974383	0.07385924
220	0xbe6c1350	-0.23054242
221	0xbdc67bb7	-0.096915655
222	0x3d3b1eb7	0.04568359
223	0x3de798cb	0.1130844
224	0xbd79b3a6	-0.06096234
225	0x3df3c252	0.11902298
226	0x3cfbf789	0.030757682
227	0xbd859709	-0.06522948
228	0xbe0051f0	-0.12531257
229	0xbd7f5109	-0.06233314
230	0xbe421e6d	-0.18956919
231	0xbce314c6	-0.027719866
232	0xbda739ad	-0.08165298
233	0xbd44c284	-0.048037067
234	0xbab7eef1	-0.0014033002
235	0xbd844d79	-0.06460089
236	0xbde00d83	-0.10940077
237	0x3e63cb5b	0.22245543
238	0xbd5ef348	-0.05443123
239	0xbd34f4d8	-0.044178814
240	0x3cf76ad6	0.03020231
241	0x3e8412cd	0.25795594
242	0xbe04dced	-0.12974901
243	0xbd1738d3	-0.036919426
244	0x3d1646d5	0.036688644
245	0x3ea53fe1	0.32275298
246	0x3a10e632	0.0005527466
247	0xbe8b512b	-0.27210364
248	0x3e2515d8	0.16121614
249	0xbb83b8f2	-0.00401985
250	0xbe5d8de3	-0.21636157
251	0x3e537972	0.20651796
252	0xbdbd4cd4	-0.092431694
253	0xbd228bca	-0.039684094
254	0x3ca87ec0	0.020568252
255	0x3d9a5f0c	0.0753766

encoder.0.bias f4 [32]
0	0x3eb263d4	0.34841788
1	0x3e9d1ea1	0.3068743
2	0x3dd7443f	0.10511064
3	0x3e417f76	0.18896279
4	0x3e4b16e3	0.1983295
5	0xbbb09172	-0.005388432
6	0x3e8412ac	0.25795496
7	0xbe12f097	-0.1434959
8	0x3d3c26b7	0.04593536
9	0x3e1a4fcb	0.15069501
10	0x3e925f71	0.2858844
11	0x3e6d7980	0.2319088
12	0x3ea1ed92	0.31626564
13	0x3ebf08fd	0.37311545
14	0x3e4d2c08	0.20036328
15	0x3e4863de	0.19569346
16	0xbdcba8bb	-0.09944292
17	0x3ec2dd81	0.3805962
18	0x3eaad2b2	0.33363873
19	0x3e3afd86	0.18260774
20	0x3e85c1f7	0.26124546
21	0x3d3d50dc	0.04621969
22	0x3e1305c1	0.14357664
23	0x3dc18350	0.09448874
24	0x3e474d94	0.19463187
25	0x3e6302c0	0.22169018
26	0x3e7ff242	0.24994758
27	0xbe07929a	-0.13239518
28	0x3e14f8d1	0.14548041
29	0x3d768ccf	0.06019288
30	0xbdda58af	-0.10661446
31	0x3e60e2b3	0.21961479

encoder.2.weight f4 [12, 32]
0	0xbdff16be	-0.124555096
1	0xbd748967	-0.05970135
2	0xbecbc6ba	-0.39800054
3	0x3ebd2b61	0.36947158
4	0x3e11f43b	0.14253323
5	0x3d9856f9	0.07438464
6	0x3c45122b	0.012028257
7	0xbed8682c	-0.42266977
8	0x3e394f65	0.18096693
9	0xbc403497	-0.011731288
10	0x3e2372cb	0.15961759
11	0x3e1bc90c	0.15213412
12	0x3ce1bb19	0.027555035
13	0xbe398291	-0.18116213
14	0xbdd36923	-0.103227876
15	0x3d9ebf56	0.07751338
16	0xbda5d79f	-0.08097767
17	0x3e5704d7	0.2099794
18	0x3cb618b2	0.022228573
19	0x3d814471	0.06311882
20	0x3e5082bc	0.20362371
21	0x3eabf840	0.33587837
22	0xbe28ed92	-0.16496876
23	0x3deaff93	0.11474528
24	0x3e1bcf64	0.15215832
25	0xbee56bb5	-0.44808736
26	0x3dc9547c	0.09830567
27	0x3f0b6972	0.5445777
28	0xbe8d151a	-0.27555162
29	0xbee0d9f2	-0.4391628
30	0x3e908420	0.28225803
31	0x3c02af9e	0.007976441
32	0xbdabdd63	-0.083918355
33	0x3e66c845	0.22537334
34	0x3e5a0f0b	0.21294801
35	0x3d0ba181	0.03408957
36	0xbe3018cc	-0.1719696
37	0x3edef987	0.4354975
38	0x3e07e69b	0.13271563
39	0x3e113cab	0.14183299
40	0xbdad1f7c	-0.08453271
41	0x3db3cf2d	0.0877975
42	0xbe73325f	-0.23749684
43	0x3e425fc0	0.18981838
44	0xbe071470	-0.1319139
45	0x3e07d07f	0.13263129
46	0xbea6cd67	-0.32578585
47	0x3e99b920	0.30024052
48	0x3de4829d	0.11157725
49	0xbe3b5832	-0.18295363
50	0x3e90e989	0.28303173
51	0x3dbfde44	0.09368566
52	0xbcb75895	-0.022381106
53	0xbef764f7	-0.48319218
54	0xbd52c3b5	-0.051456172
55	0xbce0aacb	-0.02742519
56	0x3e2d1132	0.1690109
57	0xbe2e07cb	-0.1699516
58	0x3df53338	0.1197266
59	0xbe8eba6e	-0.2787661
60	0x3e8d2e0a	0.27574188
61	0xbf1ae720	-0.6050892
62	0x3eed651f	0.46366212
63	0xbe5ff470	-0.2187059
64	0xbeb161e3	-0.34644994
65	0x3ea7e197	0.327893
66	0xbdf15800	-0.11784363
67	0xbdaaaac3	-0.083333515
68	0x3c623ef2	0.013808953
69	0x3dd3baa3	0.103383325
70	0x3e575e85	0.2103215
71	0xbeb69c7c	-0.35666263
72	0xbe8e6687	-0.27812597
73	0xba92bffd	-0.0011196133
74	0xbca1480b	-0.019687673
75	0x3e310d04	0.17290121
76	0x3da5cc83	0.08095648
77	0x3d8c61a8	0.06854564
78	0x3e1425d9	0.14467563
79	0x3dcbaa1d	0.09944556
80	0x3e017850	0.12643552
81	0x3d9685dd	0.07349751
82	0x3d82dc7a	0.06389709
83	0x3da2966e	0.079388484
84	0xbea14316	-0.31496495
85	0x3ec65278	0.38734794
86	0x3d97ac0b	0.074058615
87	0xbe0a6e36	-0.13518605
88	0x3deb6d91	0.114955075
89	0x3e3aebe8	0.18254054
90	0xbe9a5bf9	-0.30148295
91	0xbceb37fb	-0.028713217
92	0xbe7e6963	-0.2484489
93	0x3e2d120d	0.16901417
94	0xbc1cf6bf	-0.009580313
95	0xbe227a94	-0.15867072
96	0x3e39678c	0.18105906
97	0x3e93814e	0.2880959
98	0xbc44eba2	-0.01201907
99	0xbe843757	-0.2582347
100	0xbdf568e3	-0.11982896
101	0x3d0cca11	0.034372393
102	0xbca7dadb	-0.0204901
103	0xbdf036cb	-0.11729201
104	0xbec57bc2	-0.38570982
105	0xbcc5bda7	-0.024138285
106	0x3da653fc	0.081214875
107	0xbe54cac7	-0.20780478
108	0xbe8e94e5	-0.27847973
109	0xbdc969e4	-0.0983465
110	0xbdd44cae	-0.10366188
111	0x3df5521a	0.1197855
112	0xbe919e87	-0.2844126
113	0x3e9ed410	0.31021166
114	0x3daee1da	0.085391715
115	0xbdcf5cc4	-0.101251155
116	0x3ea55956	0.3229472
117	0x3db0df02	0.08636285
118	0x3de756bd	0.11295841
119	0xbe61fa84	-0.2206822
120	0xbe9c4ceb	-0.30527434
121	0xba7fca40	-0.00097576156
122	0xbde80c2a	-0.11330445
123	0xbe0e22f7	-0.13880526
124	0xbca7442f	-0.020418255
125	0x3ebf6799	0.37383726
126	0x3ee02dd5	0.43784967
127	0x3e018a09	0.12650312
128	0xbc90f08a	-0.017692823
129	0x3dccaae6	0.09993534
130	0xbd897a03	-0.06712725
131	0x3e381127	0.17975293
132	0xbe12eac1	-0.14347364
133	0xbcc9a6c0	-0.024615645
134	0xbec3e52f	-0.3826079
135	0x3e59e34e	0.21278116
136	0xbdaa7572	-0.08323182
137	0x3d9e37aa	0.07725461
138	0x3e007bee	0.12547275
139	0x3e24093a	0.16019145
140	0xbe88753d	-0.26651946
141	0xbe143bbd	-0.14475913
142	0x3e3d4d2b	0.18486468
143	0xbe089ce0	-0.13341093
144	0xbdac8c9d	-0.08425257
145	0xbdcabee2	-0.09899689
146	0xbe0ccb04	-0.1374932
147	0x3ea93576	0.330486
148	0xbdeba2f0	-0.11505687
149	0xbd83ba31	-0.064319976
150	0x3da9f8cc	0.08299407
151	0x3dae49da	0.0851018
152	0x3e4e4f2f	0.20147394
153	0x3e07515a	0.13214627
154	0x3edfcc16	0.43710393
155	0xbbf880d0	-0.007583715
156	0x3e0f6403	0.14002995
157	0x3edc2bff	0.43002316
158	0x3e956ec2	0.29186064
159	0xbeb2b6a5	-0.34904972
160	0x3e2c07f1	0.16799904
161	0x3ce53806	0.027980816
162	0xbe13e0a0	-0.14441156
163	0x3e2e94ea	0.17048994
164	0xbd567acb	-0.0523632
165	0xbe9b0e3a	-0.30284292
166	0x3e6690fe	0.22516248
167	0x3f01e021	0.5073262
168	0x3d1d179a	0.038352586
169	0xbd8149d7	-0.06312912
170	0x3cbd4e9c	0.023108773
171	0xbc814348	-0.015779153
172	0xbdcce985	-0.10005478
173	0x3e2dc2c7	0.16968833
174	0xbdf560da	-0.119813636
175	0xbeaae680	-0.33378983
176	0x3e9e68f9	0.30939463
177	0x3e945ab1	0.28975442
178	0xbda8c871	-0.08241356
179	0xbd65abdc	-0.0560721
180	0xbe5b0aa2	-0.21390775
181	0xbd427e7f	-0.047483917
182	0x3e12780b	0.14303605
183	0x3e8c6a29	0.27424744
184	0x3e5b8aad	0.2143962
185	0xbd7691e0	-0.06019771
186	0xbcefd28e	-0.029275205
187	0xbf06af3e	-0.5261115
188	0x3c0f2c2c	0.008738559
189	0x3ee1d135	0.44104925
190	0x3e52ec9d	0.20598073
191	0x3e811adf	0.25215814
192	0xbe84b537	-0.25919506
193	0xbdfc3a12	-0.123157635
194	0x3cced7f5	0.02524946
195	0xbc0504c6	-0.008118814
196	0x3e9b12ef	0.30287883
197	0x3ea751ae	0.32679504
198	0xbe7f36a5	-0.24923189
199	0xbdb8eff8	-0.090301454
200	0x3e359868	0.1773392
201	0xbe0ffd8f	-0.14061569
202	0xbe00a0f5	-0.125614
203	0xbdc5e92b	-0.09663614
204	0xbeb49ea0	-0.3527727
205	0x3e0fbda1	0.14037181
206	0xbe68e9cb	-0.22745435
207	0xbc915300	-0.017739773
208	0x3c10d94f	0.008840873
209	0x3e51e63e	0.20497987
210	0x3eb41f75	0.3518025
211	0x3e9976a3	0.29973325
212	0x3e01f9e0	0.12692976
213	0xbe336a39	-0.1752099
214	0xbdc3ab16	-0.095541164
215	0xbda523c6	-0.08063464
216	0x3e147114	0.14496261
217	0xbd339a17	-0.043848123
218	0xbe089abf	-0.13340281
219	0xbd767aff	-0.060175892
220	0x3e0c30d7	0.13690506
221	0x3f0a1f9c	0.5395448
222	0xbe761a3f	-0.2403345
223	0xbcac1367	-0.021005346
224	0xbcc9d17d	-0.024636025
225	0xbe9abeb6	-0.30223626
226	0x3b7c41e8	0.0038491432
227	0x3dcd62d1	0.10028613
228	0xbcc2232c	-0.023698412
229	0x3e4572a3	0.19282012
230	0xbd0dba2e	-0.034601383
231	0xbe9bba7e	-0.3041572
232	0x3ec4f4c9	0.38468006
233	0xbcfbe10c	-0.03074696
234	0x3cc72d7d	0.024313683
235	0x3e1a657f	0.1507778
236	0xbe8075b4	-0.250898
237	0x3dc59545	0.096476115
238	0x3ef5fdde	0.48045248
239	0xbe23b9bd	-0.15988822
240	0x3e678727	0.2261015
241	0xbd880c76	-0.06643002
242	0x3f0647bd	0.52453214
243	0xbcbc28d1	-0.022968682
244	0xbe9709db	-0.29499707
245	0x3e46d283	0.19416241
246	0xbe43b261	-0.19111015
247	0x3deb6c09	0.114952154
248	0xbe847647	-0.25871488
249	0xbe504f65	-0.20342787
250	0x3d9fbea8	0.07800037
251	0xbe87078c	-0.26372945
252	0xbd4ebb10	-0.050471365
253	0x3e9e055c	0.30863464
254	0x3d968a07	0.073505454
255	0xbe168714	-0.14699966

encoder.2.bias f4 [12]
0	0xbd49b4d2	-0.04924471
1	0x3ce4364a	0.027857918
2	0xbcf4099d	-0.02978974
3	0x3db66f7b	0.08907982
4	0x3ac2846b	0.0014840489
5	0xbe0ce7b7	-0.13760267
6	0xbb67da8c	-0.0035378067
7	0x3e3906a4	0.1806894
8	0xbe05088d	-0.12991543
9	0xbe2fce0a	-0.17168441
10	0xbd9a68a9	-0.075394936
11	0xbdadc47d	-0.08484743

decoder.0.weight f4 [32, 12]
0	0x3d3296e4	0.04360093
1	0xbda3d315	-0.07999245
2	0x3ebf87d8	0.37408328
3	0xbe27b4ea	-0.16377607
4	0xbd80dfdd	-0.062926985
5	0x3e9c7238	0.30555892
6	0xbe54637e	-0.20741078
7	0x3e914b56	0.2837779
8	0xbdd3fb6c	-0.10350689
9	0xbcdad09a	-0.026710797
10	0xbdd4b588	-0.10386187
11	0xbdf75035	-0.12075845
12	0x3d00df92	0.031463213
13	0xbdbda5b4	-0.09260121
14	0xbe965cb6	-0.29367608
15	0x3e74ff13	0.23925428
16	0x3e97bda6	0.29636878
17	0xbf11183d	-0.5667761
18	0x3dfb6016	0.12274186
19	0xbec493dd	-0.3839406
20	0x3e7ae732	0.24502257
21	0x3eb870c0	0.3602352
22	0x3e21050a	0.15724578
23	0xbd615d63	-0.0550207
24	0xbd82bfe4	-0.063842565
25	0x3e0b5a49	0.1360866
26	0x3dad8a33	0.08473625
27	0x3c191012	0.00934221
28	0x3e1c6a05	0.15274818
29	0x3ea2449e	0.31692976
30	0xbdf683e8	-0.12036878
31	0x3d9cafc5	0.07650713
32	0xbdfdbe05	-0.12389759
33	0xbd336bd3	-0.043804
34	0x3ee27fb7	0.44238064
35	0xbe2c6d16	-0.16838488
36	0x3e57affc	0.21063226
37	0xbe15a4a5	-0.14613588
38	0xbf016a4c	-0.5055282
39	0x3e8e5fa6	0.2780735
40	0x3ee0b8b4	0.43890917
41	0xbc83cd6e	-0.016089167
42	0xbb38e7de	-0.0028214375
43	0x3e5a0ede	0.21294734
44	0xbd88840d	-0.06665812
45	0x3ebd9b1a	0.37032396
46	0xbe23c043	-0.15991311
47	0xbcd7585b	-0.026287248
48	0x3e20d2f6	0.15705475
49	0x3d868cdc	0.065698355
50	0xbe7f26b1	-0.24917103
51	0xbe4f45ac	-0.20241421
52	0x3dd8dc74	0.10588923
53	0x3eda7cc7	0.42673323
54	0xbe1024bf	-0.14076518
55	0x3ee9d0dd	0.45667163
56	0xbe5268f1	-0.20547844
57	0xbec376dc	-0.3817662
58	0xbeaeb9fc	-0.3412627
59	0x3d45ef79	0.048324082
60	0xbe78049e	-0.24220511
61	0x3ea9570c	0.33074224
62	0xbe0140df	-0.12622403
63	0xbc6d66fe	-0.014489887
64	0xbed9fb2a	-0.42574435
65	0x3ea2491a	0.31696397
66	0x3db0dc6c	0.08635792
67	0xbdeb41b2	-0.1148714
68	0x3e5ac979	0.21365918
69	0xbe106cb6	-0.1410397
70	0xbe299798	-0.16561735
71	0xbda609a9	-0.08107311
72	0x3d943427	0.0723651
73	0xbf1b13ec	-0.60577273
74	0xbe98fc81	-0.29880145
75	0xbd9861e0	-0.07440543
76	0xbd1cd701	-0.03829098
77	0x3e89c891	0.26910833
78	0xbf0c4da5	-0.54805976
79	0xbe4d2522	-0.20033696
80	0xbeb3d1b6	-0.35120934
81	0xbde62344	-0.11237195
82	0x3e2ab1b3	0.1666935
83	0x3bc6dc36	0.0060687317
84	0xbe6c998f	-0.23105453
85	0x3df9f8ad	0.12205634
86	0x3e2c919a	0.16852418
87	0xbebf4723	-0.3735896
88	0x3e77b187	0.24188815
89	0xbd57f98e	-0.05272823
90	0xbd6abf07	-0.057311084
91	0x3eb7400b	0.35791048
92	0xbece0c88	-0.40243936
93	0x3db7cb6a	0.08974345
94	0xbd7896ff	-0.060690876
95	0xbe388e54	-0.18023044
96	0xbd8ed4a0	-0.06974149
97	0xbec9e7a7	-0.3943455
98	0xbdd21140	-0.102571964
99	0xbe0657c9	-0.13119425
100	0x3ea5685f	0.3230619
101	0x3d298896	0.041390024
102	0xbe8c86b9	-0.27446535
103	0xbe2f0617	-0.17092167
104	0x3e6f5aee	0.2337453
105	0x3d5550d7	0.052079048
106	0x3e7cf007	0.24700938
107	0x3f10e197	0.5659422
108	0x3d7f8f9e	0.062392823
109	0xbeacff0d	-0.33788338
110	0x3d019e74	0.031645253
111	0x3d4804a4	0.04883255
112	0xbf0758d5	-0.5286992
113	0x3ea6e16c	0.32593858
114	0xbe816cc9	-0.2527831
115	0x3df6260e	0.12018977
116	0xbdc71614	-0.09721008
117	0x3eabf722	0.33586985
118	0x3d5924a5	0.053013463
119	0xbd24b25b	-0.040209156
120	0x3e9181ea	0.2841943
121	0x3e28959e	0.16463324
122	0x3e583c3f	0.21116732
123	0x3defa005	0.11700443
124	0xbddd1026	-0.10794096
125	0x3f290001	0.6601563
126	0xbda62a47	-0.081135325
127	0x3e7df606	0.24800882
128	0xbeab823b	-0.33497795
129	0xbeb1f9bc	-0.34760845
130	0xbea0823a	-0.31349355
131	0x3d466cb0	0.048443496
132	0x3e0923c6	0.13392553
133	0xbd05c856	-0.03266176
134	0x3db6fc15	0.089347996
135	0x3eb5ed6c	0.355327
136	0xbd148ddb	-0.036268096
137	0xbd6e9d18	-0.058255285
138	0xbe6a63ce	-0.22889635
139	0x3c96088e	0.018314626
140	0xbea58078	-0.32324576
141	0x3d95f421	0.073219545
142	0x3e2a1023	0.16607718
143	0xbe3d48bc	-0.18484777
144	0x3e1c4b96	0.15263209
145	0xbde5dff7	-0.112243585
146	0xbefcd77f	-0.4938316
147	0xbe48825b	-0.19580977
148	0x3e263bbb	0.16233723
149	0x3e04e5ef	0.12978338
150	0x3c1210c3	0.008915129
151	0xbdc70750	-0.097181916
152	0x3df45766	0.119307324
153	0x3d12d7d8	0.035850376
154	0x3e082a61	0.13297416
155	0x3e0e7170	0.1391046
156	0xbda57471	-0.0807885
157	0xbea2027c	-0.3164252
158	0x3e1d19c7	0.15341865
159	0x3ed54239	0.41652086
160	0xbd9099b9	-0.0706057
161	0x3e900e98	0.28136134
162	0x3ed80e59	0.42198446
163	0x3e3ab7f6	0.18234238
164	0xbe04ca6a	-0.1296784
165	0x3e18aa5b	0.14908735
166	0x3e0304b5	0.12794764
167	0xbd0e310b	-0.03471474
168	0x3e854118	0.26026225
169	0xbe3779d3	-0.17917566
170	0xbea60d5c	-0.32432067
171	0x3ea941fb	0.33058152
172	0x3e935f96	0.28783864
173	0x3e8ceac0	0.2752285
174	0xbe954483	-0.29153833
175	0x3edc34cb	0.43009028
176	0xbe99de0d	-0.30052224
177	0x3b97e0a6	0.0046349345
178	0xbee404bc	-0.44534862
179	0xbd116e8a	-0.03550581
180	0x3f1c748c	0.61115336
181	0xbe13daa1	-0.14438869
182	0x3c4978de	0.012296883
183	0xbea095e0	-0.31364346
184	0xbd08be2e	-0.033384494
185	0x3e8dac2c	0.2767042
186	0x3eef0355	0.4668223
187	0xbe6b74b8	-0.22993743
188	0xbc833ab2	-0.016019199
189	0xbc88ea1e	-0.016713198
190	0x3e658dbc	0.22417349
191	0xbe53cef1	-0.2068441
192	0xbd99336c	-0.07480511
193	0x3ccdc02c	0.025116049
194	0xbeb9f7d2	-0.36321884
195	0x3e503cad	0.20335646
196	0xbe653c61	-0.22386314
197	0x3e12e041	0.14343359
198	0x3d8a8e2a	0.06765397
199	0x3dbabf82	0.091185585
200	0xbc7ccb38	-0.0154293105
201	0xbe726e6c	-0.23674935
202	0xbe6a1942	-0.22861198
203	0xbea50f71	-0.32238343
204	0x3e7e6079	0.24841489
205	0xbd20cfc9	-0.03926066
206	0x3e5dde0e	0.21666738
207	0xbe4f02c1	-0.20215894
208	0x3e3f34b5	0.1867245
209	0x3dad4920	0.08461213
210	0xbf067ea4	-0.5253699
211	0x3e925425	0.28579822
212	0x3dad226c	0.08453831
213	0xbea3982a	-0.3195203
214	0xbb70961e	-0.003671057
215	0xbe9ec33e	-0.31008333
216	0x3d37b193	0.044847082
217	0xbda4d143	-0.08047726
218	0xbea81822	-0.32830912
219	0xbeb9c6ef	-0.36284587
220	0xbe0335a7	-0.12813435
221	0xbd55a32b	-0.052157562
222	0x3dc82060	0.097718
223	0x3ed57348	0.41689515
224	0x3e93209f	0.28735825
225	0xbe31b4d2	-0.17354134
226	0x3f10bc68	0.56537485
227	0xbe4aaca9	-0.19792427
228	0x3f052968	0.52016306
229	0x3f00227a	0.5005261
230	0xbdbf9be6	-0.09355907
231	0xbec62004	-0.386963
232	0xbeed51af	-0.46351382
233	0xbea2d2af	-0.31801364
234	0xbedac284	-0.4272653
235	0xbe1fd63c	-0.15609068
236	0x3e6a098c	0.22855204
237	0x3ed7035c	0.4199475
238	0xbdacea5d	-0.08443139
239	0xbab31ddf	-0.0013665518
240	0xbe8a8e15	-0.27061525
241	0x3f0658e6	0.524794
242	0xbf12eaa0	-0.5738926
243	0xbe731f0e	-0.23742315
244	0x3e147b0e	0.14500067
245	0x3e0c2f94	0.13690025
246	0x3e91b40e	0.28457683
247	0x3c1c57f2	0.009542452
248	0xbf3529ec	-0.7076709
249	0x3e4a4b32	0.19755247
250	0x3dcff35d	0.1015384
251	0x3e858e47	0.26085111
252	0x3e74651d	0.23866697
253	0x3eaf6cb1	0.34262612
254	0xbb091729	-0.0020918346
255	0x3e058abb	0.13041203

decoder.0.bias f4 [32]
0	0xbe7c8fd7	-0.24664246
1	0x3e93feab	0.28905234
2	0x3e96c5f1	0.29447892
3	0x3ddf5409	0.109047
4	0xbe5cf521	-0.21577884
5	0xbda8bc5b	-0.08239051
6	0xbd0af078	-0.033920735
7	0x3f01e65f	0.50742143
8	0x3e4f06ba	0.2021741
9	0x3ef643ee	0.480987
10	0x3ea0d8c7	0.31415388
11	0x3ed41f10	0.4142995
12	0x3f3d70b4	0.74000096
13	0x3dfeb394	0.124365956
14	0x3e9003c2	0.28127867
15	0x3ec95f96	0.3933074
16	0x3ecf6437	0.40506145
17	0x3eaa69b5	0.33283773
18	0x3dd00d8c	0.10158834
19	0xbcfc6029	-0.030807571
20	0xbe0e0e5b	-0.13872664
21	0xbe1e18d4	-0.15439159
22	0x3de86818	0.11347979
23	0x3ee90067	0.4550812
24	0xbda72c50	-0.08162749
25	0xbe7b2376	-0.24525246
26	0x3e930350	0.28713465
27	0x3f1450bc	0.5793569
28	0x3eb4ae7f	0.3528938
29	0x3ed8d092	0.42346627
30	0xbc4b1d1d	-0.012397078
31	0x3d9aeb8b	0.075644575

decoder.2.weight f4 [24, 32]
0	0x3c307a25	0.010771309
1	0x3de4c5a3	0.11170509
2	0x3f00f241	0.5036965
3	0x396dd3f6	0.00022681043
4	0x3d04f163	0.032456767
5	0xbdcb6fa3	-0.099334024
6	0x3e1bd1cd	0.15216751
7	0x3e4c4cbf	0.19951151
8	0xbd0af30a	-0.033923186
9	0xbd906a76	-0.07051556
10	0x3ecdb932	0.40180355
11	0x3e83ec61	0.2576628
12	0x3e0a45ff	0.13503264
13	0x3de3566a	0.111004665
14	0xbd4a0398	-0.049319834
15	0xbeb43b52	-0.35201508
16	0xbe81a822	-0.25323588
17	0xbf25bcae	-0.6474103
18	0x3ed9c48c	0.42532766
19	0x3e7fcab0	0.24979663
20	0x3d6e8725	0.058234353
21	0x3d4f627e	0.05063104
22	0x3d0f9eab	0.035063427
23	0x3f1ac4cd	0.60456544
24	0xbd06d6bd	-0.032919634
25	0x3cfa74b6	0.03057323
26	0x3e4b780c	0.19870013
27	0xbd9afec4	-0.07568124
28	0xbecb1d81	-0.39670947
29	0xbdfd6ff9	-0.12374873
30	0xbf00e340	-0.50346756
31	0x3ecec7da	0.4038685
32	0x3da3c860	0.07997203
33	0xbe4c151f	-0.19929932
34	0xbd5ddd51	-0.054166142
35	0xbd92d3eb	-0.071693264
36	0xbe82bbb3	-0.25533828
37	0x3d6ee1a1	0.058320645
38	0xbd87d4dd	-0.06632397
39	0x3df9b620	0.12192941
40	0x3e033dc8	0.12816536
41	0x3eab82ff	0.3349838
42	0xbd22a91d	-0.03971206
43	0xbd75c8f3	-0.060006093
44	0xbe998bd3	-0.2998949
45	0x3e224453	0.15846376
46	0x3dcac13f	0.0990014
47	0xbcf0bd09	-0.029387014
48	0xbe8d9ab2	-0.27657086
49	0x3e8fcd84	0.28086483
50	0xbddef8d9	-0.10887308
51	0x3c1b7075	0.009487261
52	0x3e76635d	0.24061342
53	0x3e82312c	0.2542814
54	0xbdbc58ce	-0.09196626
55	0xbe81e5ea	-0.25370723
56	0x3f5fab5f	0.87370867
57	0x3d0987fa	0.033576943
58	0x3e35b39a	0.17744294
59	0xbe94ec1f	-0.29086396
60	0xbdcdbdaa	-0.10045941
61	0x3eb2be3d	0.34910765
62	0xbe357d11	-0.1772349
63	0xbed873d0	-0.42275858
64	0xbe8ef772	-0.2792316
65	0xbe294539	-0.16530313
66	0x3e8a89fe	0.27058405
67	0xbe193560	-0.14961767
68	0x3efeb8c9	0.49750355
69	0xbe328cf4	-0.17436582
70	0xbe806877	-0.250797
71	0x3dfe2aad	0.124104835
72	0x3dcf0077	0.101075105
73	0x3e41cc83	0.18925671
74	0xbd0415a0	-0.032247186
75	0x3e1340d7	0.14380203
76	0xbb3f4e72	-0.0029191044
77	0x3e1cd4ed	0.153156
78	0xbe79a98a	-0.2438108
79	0x3ebab50a	0.36466247
80	0xbe4210e2	-0.18951753
81	0xbde888b7	-0.11354201
82	0xbc5cd27d	-0.013477919
83	0x3e461915	0.19345506
84	0xbee03d9e	-0.4379701
85	0x3e2c2ec6	0.16814718
86	0xbea9996b	-0.3312486
87	0x3e34ac0f	0.1764376
88	0xbcee37c8	-0.029079333
89	0xbdb74159	-0.08948011
90	0xbe2aa2dc	-0.16663688
91	0xbead3dbe	-0.33836168
92	0x3f1efbd8	0.62103033
93	0x3e0f243a	0.13978663
94	0x3d4ef9c6	0.05053117
95	0xbe3e0394	-0.18556052
96	0x3d9fc3df	0.07801031
97	0x3cf95232	0.030434702
98	0x3e025595	0.1272796
99	0x3d887908	0.0666371
100	0x3e11612d	0.14197226
101	0xbd1abadc	-0.03777586
102	0xbedecd16	-0.43515843
103	0x3e13fb6b	0.14451377
104	0x3e803eda	0.25047952
105	0xbb5422ba	-0.0032369331
106	0xbdc2911a	-0.09500332
107	0x3e4d301e	0.20037887
108	0x3e435ecc	0.19079131
109	0x3ecae791	0.39629796
110	0xbe421a20	-0.18955278
111	0x3dc27d83	0.09496596
112	0x3e96a89d	0.29425517
113	0x3ec08c2c	0.37606943
114	0xbd7f3509	-0.062306438
115	0x3ec9edde	0.3943929
116	0x3d736cba	0.05942986
117	0x3a060288	0.00051120715
118	0xbe085d6a	-0.13316885
119	0xbf367a78	-0.7128062
120	0xbea7710d	-0.32703438
121	0xbe40210f	-0.18762611
122	0x3e435971	0.19077088
123	0x3c66935c	0.014073219
124	0xbf2ab452	-0.66681397
125	0xbe751f49	-0.23937716
126	0xbdc085d9	-0.094005294
127	0xbea6ceb2	-0.3257957
128	0x3e2906dd	0.16506524
129	0xbec97948	-0.39350343
130	0x3d86c653	0.06580796
131	0xbdaa1001	-0.08303834
132	0x3e0e5619	0.13900031
133	0xbe63681c	-0.22207683
134	0xbdf45f67	-0.11932259
135	0xbde597d1	-0.11210597
136	0x3e9e3cb6	0.30905694
137	0xbe20402b	-0.15649478
138	0xbf04cea4	-0.5187781
139	0x3f1bff5c	0.6093652
140	0xbe8b9d8d	-0.2726864
141	0xbdbe7ecb	-0.093015276
142	0x3e6fde2e	0.23424599
143	0xbe9ee29e	-0.3103227
144	0x3e9a8fcb	0.3018783
145	0xbe8b86dc	-0.27251327
146	0x3eea473c	0.45757473
147	0xbee3e3b9	-0.44509676
148	0x3e708451	0.23487975
149	0x3ecfce86	0.40587252
150	0xbd6de798	-0.058082193
151	0x3d498428	0.0491983
152	0xbdc38283	-0.095463775
153	0xbd89fe6f	-0.067379825
154	0x3dd0cc08	0.10195166
155	0xbdbc15f7	-0.09183877
156	0xbe24d263	-0.16095881
157	0xbe55d4ee	-0.20882007
158	0x3d1ae6f7	0.03781792
159	0x3de43d3d	0.11144493
160	0xbe9de4ea	-0.3083871
161	0x3dbcac73	0.092125796
162	0x3e07735f	0.13227604
163	0x3ece9083	0.4034463
164	0x3e4332d9	0.19062366
165	0x3d8ac129	0.067751236
166	0x3e52e0f7	0.2059363
167	0x3e8d8335	0.27639166
168	0x3e1a7e9e	0.15087363
169	0x3ded1f4a	0.115782335
170	0xbc45e3c6	-0.012078231
171	0xbbfc7ca5	-0.0077052885
172	0xbdd148d9	-0.10218973
173	0x39c19f18	0.00036930363
174	0xbd1ca874	-0.038246587
175	0xbed9d698	-0.42546535
176	0xbe84b75d	-0.25921145
177	0x3ea04040	0.3129902
178	0x3db1f969	0.08690149
179	0xbe3dc503	-0.18532185
180	0xbf31230b	-0.69194096
181	0xbeb5b594	-0.35490096
182	0x3d8fb14f	0.07016241
183	0x3dba9a81	0.091115005
184	0x3eea2a9a	0.45735627
185	0x3e342d05	0.17595299
186	0xbe482c11	-0.1954806
187	0xbdf8e3ef	-0.1215285
188	0x3e830148	0.25586915
189	0x3d1f75c0	0.038930655
190	0xbdf836b7	-0.12119811
191	0x3f045c65	0.5170348
192	0xbe9dfd3a	-0.3085726
193	0xbf1044bc	-0.5635488
194	0x3e86fad8	0.26363254
195	0xbdf3e02d	-0.119079925
196	0x3df02306	0.1172543
197	0x3e2009d1	0.15628745
198	0xbc2c0521	-0.01049927
199	0x3ec711c4	0.38880742
200	0xbe590fba	-0.21197405
201	0xbdd704b3	-0.10498943
202	0xbcc21310	-0.02369073
203	0xbc930eff	-0.017951487
204	0x3e5a57ff	0.2132263
205	0x3cce5779	0.025188195
206	0x3da30be6	0.07961254
207	0xbd14b51c	-0.03630553
208	0x3e8e88db	0.27838787
209	0x3dfb15a5	0.12259988
210	0xbd834199	-0.06408996
211	0xbdf5a4fa	-0.119943574
212	0x3e685ca5	0.22691591
213	0x3e343f4c	0.17602271
214	0x3e01a679	0.1266116
215	0xbe18ae5d	-0.14910264
216	0x3ec66d83	0.38755426
217	0x3e77716d	0.24164362
218	0xbdcedeb2	-0.101010695
219	0x3e12339c	0.142775
220	0x3e46b051	0.19403197
221	0xbe925b28	-0.28585172
222	0xbe209b44	-0.15684229
223	0xbd1e4ca0	-0.038647294
224	0xbe0677b4	-0.131316
225	0xbe36ce90	-0.17852235
226	0x3ceb8937	0.028751953
227	0xbd29c818	-0.04145059
228	0xbd2da5b0	-0.04239434
229	0xbd024027	-0.03179946
230	0xbd4dbdb3	-0.05022974
231	0x3ea31b2a	0.31856662
232	0xbe139225	-0.14411218
233	0x3e737ee4	0.23778874
234	0xbdc431b1	-0.095797904
235	0x3e1a8ad0	0.15092015
236	0xbf40e392	-0.75347245
237	0xbd628d52	-0.055310555
238	0xbed2c206	-0.41163653
239	0xbe8b7338	-0.27236342
240	0x3dc0ba15	0.09410492
241	0x3eaee45a	0.34158593
242	0x3e26b62b	0.16280429
243	0x3e5612a3	0.20905547
244	0x3c8b6fa8	0.017021015
245	0x3e0dbd5a	0.13841763
246	0xbd062f2b	-0.032759827
247	0x3d8a7dff	0.06762313
248	0xbdc4e23d	-0.09613464
249	0xbe6c3f41	-0.23071004
250	0x3e844492	0.25833565
251	0x3effe8e5	0.49982372
252	0x3f4164f7	0.75544685
253	0x3c766c49	0.015040466
254	0xbe497158	-0.19672143
255	0x3e955842	0.29168898

decoder.2.bias f4 [24]
0	0xbdf07a34	-0.117420584
1	0xbe42e261	-0.19031669
2	0xbe81f1df	-0.25379845
3	0x3dacb7f8	0.08433527
4	0x3e65b075	0.22430594
5	0xbdf29c33	-0.11846199
6	0xbeb9607c	-0.36206424
7	0x3b264d97	0.0025375837
8	0x3d41d97e	0.047326557
9	0xbcdb4480	-0.026766062
10	0xbc5ef5d1	-0.013608412
11	0xbf24463e	-0.6416968
12	0x3ecf1cb0	0.40451574
13	0x3d2e8e79	0.04261634
14	0x3e0fa675	0.14028342
15	0x3d4cf79c	0.050040826
16	0xbda7faa3	-0.08202102
17	0xbe923e20	-0.28563023
18	0x3d87fac1	0.066396244
19	0x3cb7e8ac	0.022449814
20	0xbe072c20	-0.13200426
21	0x3e412971	0.18863465
22	0xbdd7e352	-0.10541405
23	0x3e3c4d8f	0.18388961
