Assignment_2/Task2/aann1.pth (torch, 40143 bytes, 8 tensors)

encoder.0.weight f4 [64, 48]
000000 17 30 0d 3e 78 5f f5 3d ad 83 c9 bd f6 18 1d bf
       0.13787876 0.119811 -0.09839568 -0.6136621
000010 57 75 9f be 95 4f 25 be 23 4b 78 3e 80 db bd 3b
       -0.3114421 -0.1614364 0.24247412 0.0057939887
000020 9d 83 0d bf 6f 8e 3e bf 07 95 e5 be 24 b9 ac 3e
       -0.5527895 -0.74436086 -0.4484026 0.33735
000030 f7 55 f2 3f b5 57 b2 3f 7f 63 2b 3f 81 fd 46 be
       1.8932484 1.3933016 0.66948694 -0.19432642
000040 af e8 8b bf 08 57 50 be eb 50 86 3d 53 f6 d6 3e
       -1.0930384 -0.203457 0.06558403 0.41984805
000050 cc fe f1 3e 45 3d 0f 3f 26 f2 4f 3c b6 b2 c8 be
       0.47264707 0.55952865 0.01269201 -0.39198846
000060 5c c7 91 be 73 6a 07 be ce 27 0b bf 91 a3 09 bf
       -0.28472412 -0.13224201 -0.5435761 -0.5376521
000070 e5 93 82 3f f3 b3 d3 3f 86 a3 9c 3f d8 52 fb bd
       1.0201384 1.6539291 1.2237403 -0.122716606
000080 5c 7f 31 3e b7 ee c4 3e 40 7c bb bd 21 e9 dc be
       0.1733374 0.38463375 -0.09154558 -0.43146613
000090 f8 9a c4 3e 61 af f2 3e 9c 25 9b bc e6 0e 9b be
       0.38399482 0.47399428 -0.018938832 -0.30284804
0000a0 f7 ba 4a bd bc 29 92 3e ad 47 c7 3e 9a b0 0f 3d
       -0.04949471 0.28547466 0.38921872 0.03508053
0000b0 75 ce 42 be 3a 26 e7 be 83 f8 c6 be 6f 28 01 3f
       -0.1902407 -0.45146352 -0.38861474 0.5045232
0000c0 11 60 27 bd 4e 37 d3 bb bf 5a 11 be 93 a1 1f 3c
       -0.0408631 -0.006445802 -0.14194773 0.009743112
0000d0 11 25 0e 3e 4d dc c5 bd a0 96 bf 3b b1 a3 f6 3d
       0.13881327 -0.0966116 0.0058468133 0.120429404
0000e0 c1 6a 0d be 4a fd 41 bc 80 bc db 3c 20 96 29 3d
       -0.13810255 -0.011840174 0.026823282 0.041402936
0000f0 46 c1 c3 3d 75 dd 89 bc 8d 12 9a 3b e6 85 93 3d
       0.09558348 -0.016829232 0.0047019185 0.072032735
000100 45 83 f4 bc b8 1b d0 3c 70 ce 15 bd 8c 48 ed bd
       -0.02984775 0.025403842 -0.036573827 -0.11586103
000110 dc 6b 81 3d 3c db b4 3d 8d 7f 98 bd 57 4e b2 bd
       0.06319401 0.08830878 -0.074462034 -0.087063484
000120 75 57 d5 bc 36 ec 0a be b6 aa 03 3e 93 b1 0a be
       -0.02604268 -0.1356667 0.1285809 -0.13544302
000130 4e 50 a1 3d 89 06 e8 bd 63 cc 11 be d2 93 be 3d
       0.07876645 -0.113293715 -0.14238124 0.09305538
000140 73 b8 02 bd 78 90 07 bd ec dd 69 3c 68 16 d4 3d
       -0.031914186 -0.03309676 0.014274102 0.10355836
000150 59 0e 86 bc fb 3d f8 3d eb 1d e9 bc 9c 62 e3 bd
       -0.016364263 0.12121197 -0.028456649 -0.111027926
000160 e2 46 5e bd d6 e7 c4 3c fd 4d 25 bd 65 b1 1c 3d
       -0.054266818 0.02403633 -0.04035758 0.038255114
000170 37 f7 e7 bc 79 f7 07 bd f8 b3 fb 3c 2d 67 8d 3c
       -0.028316123 -0.033194993 0.030725464 0.017261112
000180 0a 58 05 3f 31 d0 f4 bd 85 1e a9 bd ea 94 c3 be
       0.5208746 -0.11953772 -0.08257774 -0.3819955
000190 47 ff f3 bd 48 87 a3 be ba 9a f9 bd 3b 5a 03 3e
       -0.11913925 -0.3193915 -0.12187715 0.12827389
0001a0 95 a5 50 be 14 00 b6 be d9 c2 73 be fd 48 45 be
       -0.20375665 -0.35546935 -0.23804797 -0.19266124
0001b0 21 29 ba be 05 a2 94 be b4 af 2b 3d 50 a2 d8 3f
       -0.36359504 -0.2902986 0.04191561 1.6924534
0001c0 d0 d8 1a 3f b3 36 8d be dc ed 36 be e3 94 0d bf
       0.6048708 -0.27580795 -0.17864174 -0.5530531
0001d0 30 0b ce be 9b c7 7c bc 95 e0 5e 3e ef 5b ff be
       -0.4024291 -0.015428449 0.21765359 -0.49874827
0001e0 d8 ae d3 3d a7 ca 22 3f a4 9b 28 3f 7c 2e 45 be
       0.10336083 0.6359047 0.6586249 -0.19256014
0001f0 92 3b 4b 3f de 89 93 3f df 77 9c bd 51 e4 d3 3d
       0.7938777 1.1526449 -0.07640051 0.10346282
000200 8e b3 25 3f 24 09 72 3f 17 b9 13 3f 20 3a bc bd
       0.64727104 0.945452 0.577043 -0.09190774
000210 de 7a 07 3e 91 03 9c 3e 56 ef 8a 3d 58 43 2e 3f
       0.13230464 0.3047147 0.06783931 0.6807151
000220 97 a0 87 3f 0a 11 07 3f d8 60 0c bf c2 9f 51 bf
       1.0595883 0.52760375 -0.5483527 -0.81884396
000230 65 01 ba be 94 05 c9 be 61 f8 85 bf 4d 20 7a 3d
       -0.3632919 -0.39262068 -1.0466424 0.06106596
000240 51 86 26 3d 18 e0 a7 bd 17 45 b8 bc 1e de 62 3c
       0.040655438 -0.08197039 -0.022493882 0.013846902
000250 3f c2 09 3e 16 a6 af bd 2a 53 f0 3b 90 ed b3 3d
       0.13453005 -0.085766 0.0073341327 0.08785546
000260 d2 b6 e0 3d 34 25 31 bd 42 d6 eb bd 97 5f 4e bc
       0.1097237 -0.04324837 -0.11515476 -0.012596033
000270 f2 38 6a 3d 1c de 3d 3d 51 6a 0e 3e 8d 52 ae 3d
       0.057183214 0.046354398 0.13907744 0.08511839
000280 a2 b2 79 3d b1 62 19 3d 98 ab 5b bd 9b 7b 0e 3e
       0.060961373 0.037447635 -0.05363044 0.13914339
000290 cd 99 96 3d d5 55 ec bb e3 bb 07 3e 70 11 f1 bc
       0.07353554 -0.0072123804 0.13255267 -0.02942726
0002a0 25 ca a5 bd 04 5f 37 3d 24 ee 18 3d ee 1c d5 3d
       -0.08095197 0.04476835 0.037336484 0.104059085
0002b0 a0 e4 c1 bd d7 85 e7 bd 55 46 83 bc e9 35 80 3d
       -0.09467435 -0.11304825 -0.016024748 0.062602825
0002c0 a9 40 16 bc 2c 92 11 be a7 6d b0 bd 71 0d 07 be
       -0.00917069 -0.14215916 -0.086146645 -0.13188721
0002d0 02 14 b1 3d 67 41 e4 3c 56 cc 88 bc 79 65 f7 bd
       0.08646394 0.027863218 -0.016698997 -0.12079901
0002e0 22 22 44 bd c3 e5 92 3d 1d 8a 16 bd 08 db fa 3d
       -0.047884114 0.0717273 -0.03675281 0.12248808
0002f0 61 46 07 3e b3 1b a8 3d eb f9 06 3e e4 c1 0b 3c
       0.13210441 0.08208408 0.13181274 0.008530114
000300 67 3c 76 3f b3 48 3f 3f 12 fa e9 3e f0 ae 50 bb
       0.96185917 0.74720305 0.456986 -0.0031842552
000310 69 23 fd 3e 5d 48 c7 3e 48 35 74 be 05 94 75 bf
       0.49441078 0.38922396 -0.2384845 -0.95928985
000320 a6 07 77 bf b5 2d 42 bf 64 01 43 be 26 74 da be
       -0.96496046 -0.75850993 -0.19043499 -0.4266674
000330 60 a1 0c bf 0a 09 f5 be a7 ae eb 3d 01 b9 5f be
       -0.5493374 -0.4785846 0.11507922 -0.21847917
000340 51 bc bd bd 01 5e f1 3e 3e 11 34 bd 90 83 81 bf
       -0.09264434 0.47142032 -0.043961756 -1.0118275
000350 a9 59 1b bf 61 98 37 3f b4 82 98 3f 23 f0 e5 3e
       -0.60683686 0.71716887 1.1914887 0.44909772
000360 b6 6b 17 3f 14 7c 77 3f b0 c2 de 3b 94 05 2a bf
       0.5914873 0.96673703 0.006798111 -0.6641476
000370 59 f4 c9 bd 5a c7 86 be 1e 39 ec be 3d 76 ee be
       -0.09861059 -0.26323968 -0.46137327 -0.46574584
000380 7a 98 35 bf fc 5a 4c 3d fc 3d b2 3e a8 97 ff bd
       -0.70935786 0.049891457 0.34812915 -0.12480098
000390 e1 dd 92 be 1f c2 7a 3d 9a 1f 54 be 75 e6 e4 be
       -0.28684905 0.061220285 -0.2071518 -0.44707075
0003a0 3e 6e 7c bf 15 75 c3 be ac c4 82 3f 51 7f a7 3f
       -0.98605716 -0.38175264 1.021627 1.3085729
0003b0 50 09 4b 3f dc 4e b6 3e e3 87 de 3e 5f 96 c5 bc
       0.79311085 0.3560704 0.43463048 -0.024119554
0003c0 33 21 58 3f 71 29 42 3f 71 b3 bb 3e 73 9e cc 3d
       0.8442566 0.75844485 0.3666034 0.09991159
0003d0 33 01 24 bd 5e 8a 23 bc 0b a0 e8 be d2 3a eb be
       -0.040040206 -0.00998172 -0.45434603 -0.45943314
0003e0 29 93 73 be 12 7b 20 be c4 8f 53 bd 71 cc e0 be
       -0.23786606 -0.15671948 -0.051650777 -0.43905976
0003f0 84 4f 4a bf 68 fe bf bd c5 09 12 3f 6d 1f 09 3e
       -0.7902758 -0.09374696 0.5704616 0.13390894

encoder.0.bias f4 [64]
000000 4d b4 85 3e 8f 05 dc bd f7 9e 57 3e 49 f8 ed bd
       0.2611412 -0.10743248 0.21056734 -0.11619622
000010 03 82 72 3e 36 7d 5e 3e 40 0c 37 3e 84 2f aa bd
       0.23682408 0.21727452 0.17875767 -0.08309844
000020 ab 5b 15 bd fc 08 26 3e a8 72 78 3e 8e db 5f 3e
       -0.036464375 0.16214365 0.24262488 0.21861097
000030 59 7a 0c be 32 52 87 bc a1 9c 90 bd ee 31 ae bd
       -0.13718547 -0.016518686 -0.070611246 -0.08505617
000040 1a 80 33 3e e1 2d d2 bd c9 92 5e 3e e0 5f 6e 3e
       0.17529336 -0.10262657 0.21735682 0.23278761
000050 48 8f 45 3e f5 24 3d 3e 11 54 31 3e 93 da 77 bd
       0.19292939 0.18471129 0.17317225 -0.060511183
000060 8e 79 83 bd b8 f2 82 3e 7e f9 b6 bd 53 a5 b0 3d
       -0.06419669 0.25575805 -0.089343056 0.08625283
000070 33 41 62 3e 69 6e 13 be 68 1b 06 be 9d f5 a1 3d
       0.22095184 -0.14397587 -0.13096392 0.07908175
000080 37 8f dd bd fa 8d 73 3e 07 3c 18 bd ab 47 b9 bd
       -0.10818332 0.23784629 -0.03716662 -0.09046873
000090 39 0c 35 3e 3b b7 2c 3e 96 3b f2 bd fd 38 68 3e
       0.17680444 0.16866772 -0.11827771 0.2267799
0000a0 8c b1 8f bd 02 46 10 3e 01 04 81 3e 5d 85 4d 3e
       -0.07016286 0.14089206 0.25198367 0.20070405
0000b0 2c 82 c0 bd 26 2f 82 bd 50 2c 41 bd 1f 7b 66 3e
       -0.09399828 -0.06356649 -0.0471614 0.22507904
0000c0 47 48 9b 3c 21 a3 09 be 15 87 26 3e 3a 89 a2 bd
       0.018955363 -0.13441135 0.16262467 -0.0793633
0000d0 63 ec ca bd 3f 08 0c be cc db 66 3e e0 3f 0a be
       -0.099083684 -0.1367502 0.22544783 -0.13500929
0000e0 5b a9 f2 bd 73 ca 51 3e b9 3c 5a bd b7 9d 9d bd
       -0.11848708 0.20487384 -0.053280566 -0.07696097
0000f0 39 47 6e 3e 27 3d 32 3e a5 67 62 3e f0 5f 40 3e
       0.23269357 0.1740614 0.2210985 0.18786597

encoder.2.weight f4 [24, 64]
000000 90 ea 2e be d8 05 99 3c 20 3d 7e 3d cc 8e de 3d
       -0.17081666 0.018679544 0.062070012 0.1086708
000010 0b 6e 12 be d4 ef 87 bf 7c 5b b3 3c 8e d1 6d 3d
       -0.1429979 -1.0620065 0.02189421 0.058061175
000020 7a b5 9b 3e 2b 1d 11 3f e3 42 95 be 61 b8 95 bd
       0.30411893 0.5668513 -0.29152593 -0.07310558
000030 e0 84 59 bc 2e 5d 12 bf 64 54 89 3d 28 6d d7 bd
       -0.013276309 -0.5717343 0.06705549 -0.10518867
000040 65 7b a2 be 80 6d 41 bd 08 38 14 3f 35 79 4f 3f
       -0.31734768 -0.047223568 0.57897997 0.8104432
000050 c4 0f 0a 3e 5f ba dd 3e 97 a9 23 be 04 a2 0f bd
       0.13482577 0.43306252 -0.15982662 -0.03506662
000060 a0 6d 60 bd 0a d5 d9 3e 16 1c c7 3d 00 57 8c 3e
       -0.054792047 0.42545348 0.09722154 0.27410126
000070 ef 2d 07 3f a8 33 c1 3d fe cf 87 3d bb c5 87 be
       0.52804464 0.09433681 0.06631468 -0.26518044
000080 58 17 9b bd 49 b9 d9 be 0c f8 cc 3d fe b9 c9 bd
       -0.07572812 -0.42524174 0.10008249 -0.09849928
000090 d8 a8 8a be 91 d4 63 3e 38 2f 96 3d cc f7 9a bd
       -0.27081943 0.22249056 0.07333225 -0.07566795
0000a0 f0 f2 11 3d 9b 20 e8 be 05 48 c7 3e f7 0c 8d 3f
       0.035632074 -0.45337376 0.38922134 1.1019582
0000b0 d9 a7 6f bf 00 de 7f 3d b6 fa dc be 11 1e aa bd
       -0.9361549 0.062467575 -0.43160027 -0.08306516
0000c0 06 38 9c bd 8e 2f cc bd 31 a6 8c bf 84 4d 5b bd
       -0.07627873 -0.09970008 -1.0988218 -0.05354072
0000d0 20 3b 7a 3c 80 0f e1 bb ce 1c cc 3e 74 76 e9 3d
       0.015272886 -0.006868303 0.39865726 0.11399546
0000e0 d4 02 88 3d 95 ea e2 be d0 c2 f9 bd 0e 4d 30 bf
       0.066411644 -0.44319597 -0.12195361 -0.68867576
0000f0 7d 4b 3b 3c 6d 2e f4 bc 92 d5 dd 3e 3c 68 bd 3d
       0.011431572 -0.029807294 0.43327004 0.09248397
000100 f3 ee 64 3f a8 e4 cc bc fb 04 93 be 20 81 f1 3c
       0.8942711 -0.025011376 -0.28714737 0.029480517
000110 cf 0d e1 3e 5e 8e 03 3e 62 f0 fd 3c f6 89 0e bd
       0.43955848 0.12847278 0.030998413 -0.03479954
000120 9d 58 52 bf f6 e9 40 3f 79 eb 3c 38 b5 69 b0 bd
       -0.82166463 0.75356996 4.5041994e-05 -0.08613912
000130 2c 1b 5e 3d 2b 14 92 3e d0 d7 b5 bd bc c5 19 3d
       0.054225132 0.28531012 -0.088790536 0.03754209
000140 14 2d fe 3e 36 c3 ce 3d bc d4 bf 3e 0b f6 12 bf
       0.49643767 0.10095827 0.3746699 -0.5740668
000150 ee c1 4d 3e 9b 5d e7 3d 6d 51 23 bf 6e 2f 9f 3c
       0.2009351 0.11297151 -0.6379612 0.019431796
000160 60 35 db 3c 67 f8 05 bf 44 99 3d bd 93 1c 05 bf
       0.02675885 -0.52332157 -0.046288744 -0.51996726
000170 8b 29 cb 3e 28 07 5d bd d0 08 38 bd 8e f7 c0 3e
       0.39680132 -0.053961903 -0.04493028 0.3768887
000180 8e 91 ee 3d 63 81 e6 be 70 b0 e0 3d 24 c8 81 bd
       0.11648856 -0.4502059 0.10971153 -0.06337002
000190 8d f7 2c bf e3 6a c4 3e dc d4 9f bd 1a 98 79 3d
       -0.6756523 0.38362798 -0.078042716 0.06093607
0001a0 30 45 e5 bd bb c2 28 3f cd b6 34 bf fb b6 fb bd
       -0.11194837 0.65922135 -0.7059143 -0.1229076
0001b0 6f 1e 47 be 44 73 f9 3d 69 b6 7f be 82 b4 10 bf
       -0.19445203 0.12180188 -0.24971928 -0.56525433
0001c0 bb ff 4c be d8 0d b7 bd ac d6 1f bc e6 1a c4 3d
       -0.20019428 -0.08938187 -0.009755772 0.09575443
0001d0 30 04 d1 3d 64 05 22 bd 35 c1 0f 3e f8 01 e9 bc
       0.10205877 -0.039555922 0.14038546 -0.028443322
0001e0 d0 c0 cb bd 9d 42 d8 be 60 84 01 3d 15 7a 0e bf
       -0.099488854 -0.42238322 0.031620383 -0.5565503
0001f0 72 c9 00 3e cc ca e5 be e4 ce b5 3e a6 07 3b 3f
       0.12576845 -0.44881284 0.35509408 0.73058546
000200 dc 42 40 be 20 7d 01 bd 82 58 89 3e 90 7c ad bc
       -0.18775505 -0.03161347 0.2682534 -0.02117756
000210 f4 5b 2e be 69 2b 08 bf d1 5c 0e 3f 03 30 98 bd
       -0.17027265 -0.5319124 0.55610377 -0.074310325
000220 cf f4 87 bf 8f b6 f8 be 56 2d dd be df 86 e2 3e
       -1.0621585 -0.4857678 -0.4319865 0.44243523
000230 48 2c 1e bd 1f d0 4e 3e 00 44 22 bc f8 d4 48 3d
       -0.03861645 0.2019658 -0.009903908 0.049031228
000240 b2 a9 4a 3e 80 b8 3f bc aa 67 0f 3e 39 ce 6e 3e
       0.19791296 -0.011701703 0.14004388 0.23320855
000250 60 ba 1d 39 8d 07 94 3e c5 3f f4 bd cd ce 9d bd
       0.00015042117 0.2891201 -0.119262256 -0.0770546
000260 90 97 a0 bc ba 7e 2f 3f 5c 05 3d 3d da 4f 5c 3f
       -0.01960352 0.68552744 0.04614769 0.86059344
000270 3f 66 67 be a0 a4 23 3c e8 68 be bc 9b 5b ac 3e
       -0.22597598 0.00998798 -0.023243383 0.3366364
000280 96 19 a8 3d 9e ef b3 3e 28 80 ba 3d 40 f1 40 bc
       0.08208005 0.3514375 0.09106475 -0.0117762685
000290 ca a2 5f be 6a c4 ba 3e 50 0c 4e bd 46 12 e8 3e
       -0.21839443 0.36477977 -0.05030471 0.45326442
0002a0 b0 66 4d 3c 92 74 ad be 0b d8 44 bf a6 b9 ba be
       0.01253669 -0.33878 -0.76892155 -0.36469764
0002b0 d3 e8 73 bc b6 26 99 bd ba 74 65 be 37 15 22 bc
       -0.014887053 -0.07478087 -0.22407809 -0.009892753
0002c0 a8 6f a0 3e 82 c6 c8 3d b9 0c e4 3d 84 cb f3 3d
       0.31335187 0.09803487 0.11135239 0.11904052
0002d0 60 07 20 bd 98 10 9d bc a9 db 0e 3f 40 48 43 3b
       -0.039069533 -0.019172952 0.55803925 0.0029797703
0002e0 be f6 8c 3d ee 50 8e be c2 e9 bc bd 64 65 3a 3e
       0.06883 -0.2779612 -0.09224273 0.1820274
0002f0 66 3f a4 be 33 f3 0e bf c1 30 a7 3e 64 61 80 3e
       -0.3207962 -0.5583984 0.32654384 0.25074303
000300 23 5e 5a 3e 12 89 91 bd 27 94 a1 bd 04 5d fc bd
       0.21324973 -0.07106222 -0.07889586 -0.12322429
000310 03 93 0e 3f 04 a6 32 3b 8e 2a 0f be ec 10 67 3d
       0.5569307 0.0027259598 -0.13981077 0.056412622
000320 63 08 7a 3f cb da 92 be 8d a6 21 bf 39 1d 89 bf
       0.9766905 -0.2868255 -0.6314476 -1.0712043
000330 54 9f 8b bd e8 86 b7 be 5e 5b a9 3d 9c 29 5c bd
       -0.06817499 -0.35845113 0.0826938 -0.05375062
000340 d5 b8 c4 bd a8 b1 a4 bd 82 ef 3d 3e ee 65 02 be
       -0.096055664 -0.08041698 0.18548396 -0.12734196
000350 a2 6a 48 be 03 e6 40 3f 4f 13 06 3f 48 f2 cb bc
       -0.19571927 0.7535097 0.5237321 -0.024895802
000360 02 09 ae bd c5 1f a3 be 4c b1 4c 3d e4 92 b1 bd
       -0.08497812 -0.31860176 0.04997377 -0.08670595
000370 fa 63 4f bf 10 1f 53 3c 44 8f b7 bd d9 9d a0 be
       -0.8101193 0.012885824 -0.089628726 -0.31370428
000380 80 5b dc bc d5 cf d3 bc c2 46 e7 3d a0 02 6c 3d
       -0.0268991 -0.025855938 0.11292793 0.05761969
000390 65 c1 bd 3e c2 c4 e1 3e 70 2e 1f bd c6 e7 11 3f
       0.3706161 0.44095427 -0.038862646 0.56994283
0003a0 ec a4 ba 3d 66 30 2a 3f a5 24 7a be b4 29 1f bf
       0.091134876 0.664801 -0.24428041 -0.6217301
0003b0 9c a1 2b 3e 20 3d 33 bd 08 6a b7 be 22 af f8 3e
       0.16760868 -0.043759465 -0.35823083 0.48571116
0003c0 4a 3b 0b bf a8 0d ea 3d 65 83 33 3f d4 11 01 bd
       -0.5438734 0.11428386 0.7012237 -0.031511143
0003d0 c0 ac 2f bb 7c 5a ad 3d d8 6f a4 3e 66 f1 ce 3d
       -0.0026805848 0.08464524 0.3211658 0.10104637
0003e0 06 e9 a7 bd 10 99 35 3e 3c 47 80 bd 04 ba 92 bf
       -0.081987426 0.1773417 -0.06263587 -1.1463017
0003f0 eb 65 06 3f 3f 1c a4 bd 2c e0 d1 3e 37 29 df be
       0.52499264 -0.080132 0.40991342 -0.43586132

encoder.2.bias f4 [24]
000000 f5 5c b2 3d f6 4c 69 be 16 d4 54 be cd c7 7c bd
       0.087091364 -0.22783265 -0.2078403 -0.061713982
000010 e2 c4 c8 3e c5 4b 0f be 67 01 86 be 61 ee fa 3c
       0.3921271 -0.13993748 -0.26172945 0.030631246
000020 3b ab 32 3d 38 a8 5e 3e 49 4f 3c bd e0 56 4d 3e
       0.04362033 0.21743858 -0.04597405 0.20052671
000030 fa c7 6c be 4f cd bf 3e 52 5a 4a bd 62 bd 5d bd
       -0.2312316 0.37461326 -0.049402542 -0.054135688
000040 85 eb cb bd 59 e9 fe 3d 64 6a 23 bc 2b 49 00 bd
       -0.09957031 0.12446851 -0.009974096 -0.03131978
000050 0c 58 b1 be 9d 3c 08 3e 07 c0 cb 3e 09 e1 2a 3e
       -0.34637487 0.13304372 0.39794943 0.16687407

decoder.0.weight f4 [64, 24]
000000 c7 9a ad 3e 55 ab 34 3f ec ae bc 3d a7 88 a3 be
       0.33907148 0.7057393 0.09213051 -0.31940195
000010 80 78 0b be b6 01 a7 3e 17 37 a7 3e df cc 12 bf
       -0.13620186 0.32618493 0.32659218 -0.5734386
000020 9f f5 ed bd 94 da 7e 3e 6f 82 97 3f 4a 47 49 be
       -0.11619114 0.24888068 1.183668 -0.19656101
000030 f2 d3 be 3e 72 93 53 be 10 c7 b6 be dc 4c 33 bf
       0.37271076 -0.20661715 -0.35698748 -0.70039153
000040 7e ef 14 3f 47 f5 8e 3d d1 fa 53 bf 45 a3 a0 3c
       0.58177936 0.06980377 -0.8280459 0.019609103
000050 b7 5d fb 3e d9 89 20 3f 25 50 2c bc 17 17 28 be
       0.49094936 0.6271034 -0.010517155 -0.16415058
000060 45 09 98 be 62 fd 88 3e f9 cd 98 3e c9 78 a2 3e
       -0.29694572 0.26755816 0.29844645 0.31732777
000070 d7 93 4f 3e e8 3c 80 be 53 8e b4 be 50 3f f4 be
       0.2027124 -0.25046468 -0.35264835 -0.47704554
000080 2a ca cc 3e 47 37 3e bd 71 a1 aa bd ab bb 41 3e
       0.3999799 -0.046439435 -0.08331574 0.18919246
000090 17 2f be bd a9 c1 20 3f 32 ad a0 bf 0e 9f 2a be
       -0.092863254 0.627955 -1.2552855 -0.16662237
0000a0 ab 65 05 bf a8 d4 7d 3e 4a 4e cf ba 28 ca 53 3e
       -0.5210826 0.24788153 -0.0015816179 0.20682585
0000b0 e0 99 74 bd 07 dc 93 3e 96 f4 49 3e b2 3f bf 3e
       -0.05971706 0.28878805 0.19722208 0.37353283
0000c0 ed d0 10 be c0 f0 b9 bd ef 03 23 3d 84 4e 02 bf
       -0.14142199 -0.090791225 0.039798673 -0.50901055
0000d0 c4 27 93 3f d1 2b 90 3e d7 1b 2d 3e 3b d1 02 be
       1.149651 0.2815843 0.16905151 -0.12775128
0000e0 a4 8c 1f 3e 18 58 c6 3e 43 69 eb 3c 39 29 07 3f
       0.15580994 0.38739085 0.028736716 0.52797276
0000f0 83 36 3b 3f 18 aa a0 3e 77 42 de 3d a3 8c eb 3e
       0.73130053 0.3137977 0.10852521 0.46005735
000100 25 55 d3 be 67 71 f0 be 00 22 13 bf 33 f1 0e 3b
       -0.41275898 -0.4696152 -0.57473755 0.0021811246
000110 70 b6 52 bf 94 2b 85 3f 95 d7 39 bf ab 4f 1c 3e
       -0.8230963 1.0403924 -0.7259458 0.15264766
000120 e6 06 90 be 2d e6 fe be 6d b9 e6 be 47 69 29 3e
       -0.28130263 -0.49784985 -0.45063344 0.16544066
000130 0a af d2 be 21 68 58 3f e6 de 5a bd e7 a6 a3 3e
       -0.4114917 0.8453389 -0.05343523 0.31963274
000140 04 e2 d6 3e 4e 83 3c bf 8d 68 4f 3e df 5f cd be
       0.4196931 -0.73637855 0.20254727 -0.40112206
000150 67 5d ab be c9 78 8f be 5b 8a 04 3f 0a 19 b6 3e
       -0.33469698 -0.2802184 0.51773614 0.35565978
000160 68 0f bc 3e ce ac e2 bc 15 1c 21 bf 21 18 01 3f
       0.36730504 -0.02767029 -0.62933475 0.5042744
000170 7c 8b 80 bf 80 7b 02 3f 8e 32 13 3f de e6 4e 3f
       -1.0042567 0.50969696 0.57499015 0.80821025
000180 0c 9c 51 3e 83 06 5f bd 98 bf 61 3e 37 86 c2 3d
       0.20469683 -0.05444957 0.22045743 0.09498256
000190 88 45 a0 bb 1d 5c fc bd e9 9b 31 bc 2e e3 8a be
       -0.0048911013 -0.12322257 -0.0108403945 -0.2712645
0001a0 0d 60 12 3f be d1 b2 be 3d be 6a bd c5 9d 61 3e
       0.5717781 -0.34925646 -0.05731033 0.2203284
0001b0 70 d1 06 3f b4 79 62 3c 3c 98 08 3f 2d 11 8e be
       0.52663326 0.013822962 0.5335729 -0.2774748
0001c0 91 31 bd 3e 67 27 d4 3e 23 a2 28 3f b0 f4 e2 bd
       0.3695188 0.41436312 0.658724 -0.11081827
0001d0 70 f5 13 3f 58 33 14 be d8 6a 06 bf 88 4f f3 3e
       0.5779638 -0.14472711 -0.5250678 0.47521615
0001e0 96 2b a0 3d 43 7e bd be 4b e9 f1 3e af ac 35 bf
       0.07820813 -0.37010393 0.472483 -0.7096662
0001f0 55 1b 26 bf 09 7e 20 bf 25 b3 02 3f 60 43 c0 3e
       -0.64885455 -0.62692314 0.510546 0.37551403
000200 61 16 be be 67 e3 2d bd a2 76 25 3b b1 f4 30 3e
       -0.3712645 -0.042453196 0.0025247713 0.17280842
000210 8c 8f 9e 3e b2 9d d5 bd b3 dd a0 be 74 5c 64 3e
       0.30968893 -0.104304686 -0.31419143 0.22300893
000220 8e b2 8e be 67 cd 0f bd a1 49 c1 be e1 07 e3 3b
       -0.278706 -0.035107996 -0.37751487 0.0069284295
000230 c2 e6 71 3e 89 de fa 3d ad 9d eb 3d a1 34 5f 3c
       0.23623183 0.122494765 0.11504684 0.013623388
000240 79 f2 a7 3d 93 f4 22 bf 30 79 02 bd dc 3f 92 be
       0.08200545 -0.6365444 -0.031853855 -0.28564346
000250 ba df f6 3e 4c dd 31 3f 5e e8 b9 bf c6 68 36 3f
       0.48217565 0.694783 -1.4524038 0.7125362
000260 d9 9e 7b bd 93 d0 4f 3e 6a bb 01 3f a3 f8 1d 3f
       -0.061430786 0.20294409 0.50676596 0.61707515
000270 32 e2 71 3f db 7f e8 3e c7 ef 84 be 12 f6 5d be
       0.9448577 0.45410046 -0.25964186 -0.216759
000280 c6 7a 8d bf 5e a5 94 be 4f df b5 be dc a5 64 bf
       -1.1053092 -0.29032415 -0.35521933 -0.8931558
000290 cb fb 8a bf 48 7b 58 3f 13 63 17 bf d3 65 96 be
       -1.0858091 0.8456311 -0.5913555 -0.2937456
0002a0 28 b4 1c 3e 82 26 2d bd 5b 33 e6 be 3f 6e da be
       0.15303099 -0.042273052 -0.44961056 -0.42662236
0002b0 8c 1f 8d 3d 6c cf 8b 3e 9d cb 92 3e 61 0d dc 3d
       0.06890783 0.27306688 0.2867097 0.10744739
0002c0 cf 8f 33 3e ad 5e da 3e 31 15 0b be 7c ff 86 be
       0.17535327 0.42650357 -0.13582303 -0.26366794
0002d0 ba 8a 90 be 0d 38 e0 3e 8d 13 a7 be ad 0a f3 be
       -0.2823084 0.43792763 -0.32632104 -0.47469082
0002e0 75 48 cf 3c aa 5c 1e bd aa 84 65 3e 61 01 24 3e
       0.025303105 -0.03866259 0.22413889 0.16016151
0002f0 6f a1 c7 bd ce 85 5a be 91 df 24 bf db 25 91 3e
       -0.09747588 -0.21340105 -0.64403635 0.28349194
000300 9e b4 f2 3e 7d bd dc bc e0 b1 bd be 92 e1 05 3e
       0.47403425 -0.026945824 -0.3704977 0.1307433
000310 49 4a 31 3e 7a a9 68 3e bd 59 4e 3f 3b 8d 78 3d
       0.17313494 0.227209 0.8060568 0.060681563
000320 88 68 2e 3d c4 c9 0d bf 2b 25 2a 3e b6 45 31 3f
       0.042580158 -0.55385995 0.16615741 0.69246995
000330 45 bf 10 bf 0d 60 2b 3f 27 95 5c 3d 80 13 b7 3e
       -0.56541854 0.66943437 0.05385318 0.35757065
000340 fc 03 21 3e 9f e0 e8 3d a7 19 11 3f eb 67 35 bf
       0.15724176 0.11370968 0.5667977 -0.7086169
000350 00 29 56 bd c3 04 1c 3b 03 99 71 3e 7e 76 ae be
       -0.052285194 0.002380655 0.23593526 -0.34074777
000360 11 6b 01 3f 6f 08 81 bd 9d c5 6a bf 24 57 f0 be
       0.50553995 -0.06300437 -0.91707784 -0.46941483
000370 d3 6e cf bd 1b 5a 97 3e d0 b1 dc 3e 8d d6 61 3e
       -0.1012856 0.29560933 0.4310441 0.22054501
000380 ee c9 16 be 2b 4f 81 3f e2 6b b2 be ba ba 26 bf
       -0.14725468 1.0102285 -0.34847933 -0.6512867
000390 1e 78 38 bf 05 24 14 3f ec de f1 be f0 ff fd be
       -0.72058284 0.5786746 -0.47240388 -0.49609327
0003a0 79 17 e2 3d 5b b7 59 3e 8c ae 8b 3e 41 9b c1 3d
       0.11039633 0.21261351 0.27281606 0.094534405
0003b0 c1 02 86 be 54 7b b6 be 55 58 55 bf db 23 6d 3d
       -0.26173976 -0.35640967 -0.8333791 0.057895523
0003c0 97 69 0f 3f f7 3a 1e 3e 31 f1 0d bf eb 27 08 3f
       0.5602049 0.15452181 -0.55446154 0.5318591
0003d0 50 f8 5f bf a4 c0 f6 3d 48 a8 34 3e 42 11 87 be
       -0.8748827 0.12048462 0.17642319 -0.26380354
0003e0 7b 4b f9 be f3 59 59 be b3 c0 30 be 47 d7 49 3d
       -0.486904 -0.21225719 -0.17261009 0.04927757
0003f0 98 c6 8e be 13 36 c8 3c 29 3e e2 3e 05 4b b3 bd
       -0.2788589 0.024439847 0.4418805 -0.08754543

decoder.0.bias f4 [64]
000000 d5 0b 33 be d5 de 1d 3f 69 ea bf 3e c3 29 9f 3d
       -0.17484982 0.6166814 0.37483528 0.07771637
000010 13 ed fe be 69 48 8e 3e 9a da 03 bf f4 40 df 3e
       -0.49790248 0.2778962 -0.51505435 0.43604243
000020 64 5d 3f 3e 79 9b df be cd 16 e4 bb 21 47 d6 be
       0.1868797 -0.43673304 -0.006960726 -0.41851142
000030 5d d5 58 bf 81 9c a0 3e 57 e3 8a bf f1 2d 11 3c
       -0.84700567 0.31369403 -1.0850629 0.008861051
000040 93 91 00 bf b5 6d 24 bf fd 85 e4 be c4 95 83 be
       -0.5022213 -0.642299 -0.44633475 -0.257002
000050 3a 7b 56 bf 1c 0e 57 be c2 4f 9d 3e d1 42 1d 3f
       -0.8378178 -0.21001476 0.30724913 0.6143008
000060 ef 58 a3 3e b7 2f 1d bf f5 a5 13 3f a3 de 90 3e
       0.31903788 -0.6140093 0.57675105 0.28294858
000070 e2 35 ac 3d 19 ea 37 3e 77 6c bb be 0a fd 2d be
       0.08408715 0.17960395 -0.3660619 -0.16991058
000080 8f da 38 be 6f fe 24 3f fe 1a 14 bd 97 a1 0a bd
       -0.18052123 0.64450735 -0.036158554 -0.03384551
000090 3d d2 50 bf d5 36 29 3f e7 72 9b 3e 46 b5 3f 3e
       -0.815708 0.6609929 0.303611 0.18721494
0000a0 0f ac 6d 3f 09 6b 8d be 85 39 1f 3f 07 b2 aa 3e
       0.92840666 -0.27620724 0.6219714 0.3333895
0000b0 79 dc 84 bd 64 b5 88 bd 71 f8 87 3f e7 0e 24 3d
       -0.06487364 -0.066752225 1.0622693 0.040053274
0000c0 b8 7a 8d 3e eb f2 6f be 1f ab ff be 8a 4f 1b bf
       0.2763269 -0.2343251 -0.49935243 -0.6066824
0000d0 9a 82 fc 3d ce 8f d6 3e c3 8a 4b 3e ef 31 97 3e
       0.12329598 0.4190659 0.19877152 0.29530284
0000e0 3d 30 43 3f f7 c2 3f 3e 37 9f b1 be a7 ce 16 3f
       0.7624548 0.18726717 -0.34691784 0.58909076
0000f0 32 76 82 3e 6b fc 82 3e f6 e0 90 bd 5b 31 d0 3e
       0.254808 0.25583205 -0.07074158 0.40662655

decoder.2.weight f4 [48, 64]
000000 14 ec d9 bc 12 5d 8e 3c 4d bd 64 3d 15 bb 86 bd
       -0.026601829 0.017378364 0.055844594 -0.06578652
000010 09 ff aa 3d b9 24 c7 3d df ce 74 3e 86 b0 8f 3d
       0.08349425 0.09723801 0.2390704 0.07016091
000020 17 20 ba bd 14 86 05 3d 34 15 c3 3d 0c 00 41 bd
       -0.09088152 0.03259857 0.095255286 -0.047119185
000030 ab d1 91 3b e5 6b da 3d 6b 68 af 3e bd e8 ca be
       0.004450043 0.106651105 0.34259352 -0.3963069
000040 c5 49 68 bd de 43 94 bd 26 ef d1 3d ec e6 18 be
       -0.056710977 -0.07239507 0.10250692 -0.1493184
000050 eb 92 b1 3d 8c 6e 4e be 82 f8 01 3c 47 14 a7 3b
       0.086706005 -0.20159358 0.007932784 0.005098853
000060 0d ee 97 3d 3a 30 33 3e 50 c7 43 3e ef d1 b3 3d
       0.074184515 0.17498866 0.19119 0.08780276
000070 76 ed 35 bf e5 d7 cf 3d 65 e1 45 bd 2a 10 fb 3d
       -0.7106546 0.101486005 -0.048310656 0.122589424
000080 0b a1 6d 3d 16 b6 a4 3d 6b e4 07 be fb 80 22 3e
       0.05801491 0.08042543 -0.13270728 0.15869515
000090 84 cc 37 3e 8c 05 07 3d 67 01 af 3a 36 90 32 3b
       0.1794911 0.032964274 0.0013351858 0.00272466
0000a0 1e 16 c1 bc 03 ee 1a 3d 22 b1 7f bd 5b 90 3b 3d
       -0.023570117 0.037824642 -0.062424786 0.045791965
0000b0 db ed 54 3e f4 ed 8f bc b4 f4 6d 3e 34 9e 0f 3d
       0.2079386 -0.01756952 0.23237878 0.035062984
0000c0 a3 53 b6 bb fd 74 db 3d c7 20 d5 c0 2a 5c 1b 3d
       -0.0055641695 0.10715673 -6.660251 0.03792969
0000d0 cc be 1b 3e 84 d6 09 c0 13 7a 79 3e b7 d7 3e 3f
       0.15209502 -2.153718 0.24362974 0.74547905
0000e0 16 c6 18 3e d4 ae 3d be 21 c8 0e 3e 65 05 67 be
       0.14919314 -0.18523723 0.1394353 -0.22560652
0000f0 5c a1 df 3d 77 5a 72 be 8b cf a1 3e b2 4e f9 3b
       0.10919449 -0.23667322 0.31603655 0.007608258
000100 81 5d df 3c 3c 15 1c bd 89 7b b4 3d 24 4d df 3d
       0.027266266 -0.03810619 0.08812625 0.10903385
000110 61 f0 b6 bd b8 ab 33 3d f1 4c bf 3b 02 7d 3f 3c
       -0.089325674 0.043864936 0.0058380296 0.011687519
000120 50 a5 c0 bf 1c 01 93 3c 46 c3 cb be 56 c9 67 3d
       -1.5050449 0.017944865 -0.3979742 0.056588493
000130 ed 2d 46 3e 89 08 22 3d 97 50 9e be 6e 77 a3 3c
       0.19353457 0.03955892 -0.3092086 0.01995441
000140 f9 b2 2f 3d 40 15 2b 3e b3 c7 32 be b9 31 04 3f
       0.04289529 0.16707325 -0.17458992 0.5163837
000150 35 e4 d9 3e c6 6c 7f be 90 b1 45 3e c9 47 eb 3c
       0.4255692 -0.24943838 0.19306016 0.028720753
000160 95 86 e8 3d 58 67 06 3e dd a1 df bd 93 91 d7 bd
       0.113537945 0.1312536 -0.10919545 -0.10525813
000170 0d a0 a8 be 02 2f 58 3d 81 62 61 3d 02 2a 10 bf
       -0.3293461 0.052779205 0.05502558 -0.563141
000180 e8 c5 21 3c 80 e0 71 3e 2d a3 7d 3e ea 14 fc 3c
       0.009873845 0.23620796 0.24769278 0.030771691
000190 7e b1 63 3e 17 a7 4c 3d c9 1f 16 3e 75 11 fd 3d
       0.22235677 0.049964037 0.14660563 0.12356845
0001a0 d7 5a d7 3d fa 79 0a bd af d2 31 3d 74 f4 7a 3c
       0.10515373 -0.033807732 0.043413814 0.015317071
0001b0 e2 85 67 3e 19 2d d4 3c 7d 93 f2 bc 30 8b 02 bd
       0.22609666 0.02590041 -0.029611344 -0.03187102
0001c0 5c 87 0f 3f 8f 7e 81 3c c2 cd 07 c0 04 e5 22 3e
       0.56065917 0.015807418 -2.1219335 0.15907675
0001d0 9a 5b 95 bd 43 b3 8e be 99 ea c9 3d e3 85 b0 3d
       -0.07292862 -0.2787114 0.09859199 0.08619287
0001e0 c2 c6 f1 bd 82 2f c7 3d 71 d7 8f bc 76 6b 4e bf
       -0.11805488 0.09725858 -0.017558785 -0.8063272
0001f0 2d 9c c0 bf f3 d8 ee 3e e6 01 66 bd b7 5f 8c 3d
       -1.5047661 0.46649894 -0.056154154 0.06854194
000200 4f d0 ce bd 84 d9 65 3d e1 d7 0e 3d 53 6c 50 3e
       -0.100983255 0.056115642 0.034873847 0.20353822
000210 34 b3 cc 3d 74 3d 21 be 5c 7a 52 3e 35 85 86 bc
       0.09995118 -0.15746099 0.20554489 -0.01642094
000220 d5 cd 59 bf a2 0b b7 3d f8 76 5f be 8a 47 ad 3d
       -0.850797 0.08937766 -0.21822727 0.084609106
000230 c9 19 85 bd ee 2c 07 3e c9 e2 61 3e 9e f7 12 3e
       -0.06499059 0.13200733 0.22059168 0.14352271
000240 55 19 3f 3e a3 3f 2c 3e 5d fd d7 3e 54 fc bc 3d
       0.18662007 0.1682115 0.42185488 0.09227815
000250 39 6b 5b 3e 70 35 23 3e 21 82 37 be 87 4b 0b 3d
       0.21427621 0.15938354 -0.17920734 0.034007575
000260 c0 a3 d6 3c 3e 68 2a bf e6 2b 9a bd 84 77 01 bd
       0.026201129 -0.6656531 -0.07527904 -0.03160812
000270 5f 4d 19 be 4b ba 8d 3e 10 11 ce 3d 58 0f 07 3e
       -0.14970921 0.27681193 0.10061848 0.13189447
000280 79 30 5e 3c f6 c0 2c 3b 7c 8f 2e 3d c5 ee f5 3d
       0.0135613615 0.002636013 0.042617306 0.12008432
000290 6a 15 e5 3d 49 9e ab bc 56 bd 1a 3d ea ce 26 bd
       0.11185725 -0.0209495 0.03777822 -0.040724672
0002a0 a2 8a 33 be 49 4e 8d 3d 73 22 80 3d ec b1 7d bd
       -0.17533353 0.06899697 0.06256571 -0.061937258
0002b0 aa 64 04 3e fb 52 80 bf 19 e4 f9 bd dd ae d8 3b
       0.12929025 -1.0025324 -0.12201709 0.006612642
0002c0 d3 c1 07 3e b2 c0 80 3d 8b 0f 9d 3e ff ef 05 3e
       0.13257532 0.06286754 0.3067592 0.13079832
0002d0 3d 97 a5 3d 68 31 b5 3d 9d bc 8e 3d 46 74 04 be
       0.08085487 0.08847314 0.06969569 -0.1293498
0002e0 95 2c 67 3e 58 10 5f 3e 6c a5 03 3e 87 18 e3 be
       0.225756 0.21783578 0.12856072 -0.4435465
0002f0 b6 62 15 c0 71 1c 1b 3f 25 55 18 3d f7 a4 07 bd
       -2.3341498 0.60590273 0.037190575 -0.033116307
000300 6d f8 1b 3e 28 4c 91 3d 5f 81 e8 3d f7 27 5b 3d
       0.15231486 0.07094604 0.113528006 0.05350491
000310 9b 56 11 3d e7 19 c0 bd ec ac 0d 3e a4 3e 76 bc
       0.035482984 -0.093799405 0.13835496 -0.015029583
000320 49 d3 26 3e 19 eb 29 3e f4 d1 7f bd 03 43 8f bd
       0.16291536 0.16593589 -0.062456086 -0.06995203
000330 57 58 0c 3e 2b 4f 12 3e 95 69 ac 3d 37 45 db be
       0.13705574 0.14288013 0.08418576 -0.42826244
000340 b3 ab 85 bf 0c 53 0a 3d 16 e9 cc bc 9f 7a 46 be
       -1.0443023 0.033770606 -0.025013488 -0.19382714
000350 52 4b 5e 3e 0c 14 88 3e 06 1f 32 3c fd e7 cf bb
       0.2170842 0.26577795 0.010871654 -0.006344794
000360 f8 54 de 3c f1 5b 28 bf bf 97 20 bd ea 50 db 3d
       0.027140126 -0.6576529 -0.039207216 0.107087925
000370 bb 82 d6 3d 2e b1 09 3e 71 2f a1 bd eb c4 96 3e
       0.104741536 0.13446495 -0.07870377 0.2944711
000380 73 66 11 3e 38 18 af 3d 38 c3 4a bd c9 9d 24 3e
       0.14199238 0.08549541 -0.04950258 0.16075815
000390 3a 20 82 3d 2d 01 83 3d d9 f4 40 3d cb ee 0f ba
       0.06353803 0.06396709 0.047108505 -0.00054906
0003a0 db f3 2a be ea ea 01 3e 1a 54 ab 3d 3e f7 37 3d
       -0.16694586 0.12687269 0.083656505 0.044913523
0003b0 55 0a 23 bd 13 15 95 bf d8 ed ef bd 89 d1 a3 bd
       -0.039804775 -1.1647056 -0.11715287 -0.0799895
0003c0 4b 07 70 be e3 c9 41 bd 78 6d 38 bd 6f 94 d2 bc
       -0.23440282 -0.047311675 -0.045026273 -0.025705544
0003d0 7d 57 a7 bb 10 60 55 be 53 f6 84 be a1 28 4f be
       -0.005106865 -0.20837426 -0.2596918 -0.20230342
0003e0 29 b4 37 3f 0a 01 9e 3d ce 5e 2b 3e 86 43 f6 3d
       0.7175928 0.07715042 0.16735384 0.12024598
0003f0 8d 4c ea bf 52 74 cc 3e ca 8c a8 bd 4c 0e 19 bd
       -1.8304611 0.39932495 -0.082299784 -0.03736715

decoder.2.bias f4 [48]
000000 d2 9e ac 3d ad fb 8b 3d 2a db 0f bf 52 58 86 3d
       0.0842873 0.06835113 -0.5619379 0.065598145
000010 56 90 03 3f 51 12 a7 3e 2e a3 83 be e1 2f 19 bf
       0.51392114 0.32631162 -0.25710434 -0.5983868
000020 ee b8 ce 3d 3b e9 b1 3f dc c0 91 3f 9c 63 2e 3e
       0.10093866 1.3899301 1.1386981 0.17030185
000030 e6 ca 7a be f5 e9 a9 3e e2 ea 5d 3e 8b 6d 25 bf
       -0.24491462 0.33186308 0.21671632 -0.64620274
000040 0e 5f 56 3d fd e8 e2 3e 41 cd 27 be 1e f3 94 3e
       0.052336745 0.4431838 -0.16386892 0.29091734
000050 cb ff 41 3d 29 a0 e0 be 2a a2 08 bf 6e 54 8c 3e
       0.047363084 -0.43872193 -0.5337244 0.27408165
000060 cb f1 bd 3d d5 da 2c bf e2 9f 33 bf e1 ea 82 3e
       0.09274634 -0.6752141 -0.70165837 0.25569823
000070 eb ec 6f be 24 4f 55 bf 80 7d 88 3e 15 fa 87 3f
       -0.23430221 -0.83323884 0.2665825 1.0623194
000080 66 63 0f bf 83 ef 66 bc 2c 9e b3 be 03 29 98 3e
       -0.56011045 -0.01409519 -0.35081613 0.2971879
000090 f4 95 be 3d 18 0f dc be 9c e5 a6 be 41 fb 92 3e
       0.09305945 -0.42980266 -0.32597053 0.28707317
0000a0 84 80 17 3f c9 0e 33 3f b7 24 35 3e 22 3f f3 be
       0.59180474 0.69944435 0.17689787 -0.47509104
0000b0 57 62 5e bf 54 16 ad be 3e 10 43 bd 4a e1 48 3d
       -0.86868805 -0.33806098 -0.04762291 0.049042977
