Assignment_2/Task2/aann3.pth (torch, 5455 bytes, 8 tensors)

encoder.0.weight f4 [18, 12]
0.17939597 0.2488366 0.13165987 -0.16978803 0.37919715 -0.1571437 -0.4500113 0.43880573
0.09476013 0.17777316 -0.019774469 -0.290259 0.014846114 0.0350213 0.26185507 0.33005503
-0.2494292 0.21345976 0.42730075 -0.25610647 0.2357025 0.09135628 -0.14890465 -0.18892767
-0.022012657 -0.24696791 -0.05889254 0.47723073 0.22688766 0.34273058 0.09480217 -0.038842313
-0.288533 -0.20627974 0.22472036 2.0875459e-05 -1.1567298 -1.3478173 -0.29195198 0.6087547
0.84986615 0.6818223 0.4937025 -0.39681008 -0.66727436 -0.82372636 0.6236076 0.11498818
0.043202903 0.76552135 -0.32467973 -0.4280343 0.6093167 -0.20352617 0.22527276 1.0219079
-0.27791142 0.15733142 -0.31780633 -0.47564703 0.2634846 -0.41172394 0.38109893 0.29981637
0.21562485 0.5037975 0.027073046 -0.17178108 -0.06783446 -0.019564645 -0.36199826 -0.28107274
1.0901275 -0.42335293 1.4366657 0.77157557 -0.9208295 0.39449364 0.3030451 -1.0947043
0.49925187 0.32255194 -0.60390216 0.022093788 -0.65014684 0.5590329 0.23341285 -0.33297834
-0.5764104 1.4297023 0.09793356 0.49360526 0.26509753 -0.35375044 -0.5301663 0.6690672
0.36452162 0.0047759623 0.5771548 -0.3025129 -0.13090245 0.2135429 -0.28216282 0.2649937
-0.06269487 0.4775083 0.05025816 -0.101134166 -0.70470965 0.3993794 -1.2440596 -0.71370465
1.0171974 -0.23067352 -0.15576032 0.82658654 -0.45297256 -0.24637617 0.3368167 0.04294915
-0.15714607 0.1924878 -0.4689867 0.011430916 0.3349817 0.1306481 0.08146799 0.06810823
-0.14735387 -0.4371498 0.015054685 -0.03904036 0.707862 -0.10450512 0.51197386 0.2724144
-0.19751619 0.1332261 0.087881215 -0.3822282 -0.06564195 0.06969966 -0.41749322 -0.28912678
-0.43587694 -0.3892753 -0.4825428 0.38147843 0.42736593 0.20750776 0.16377641 -0.056771375
-0.11747655 -0.32139057 0.13524225 -0.20548475 -0.39997137 -0.7408749 0.4990158 0.27266523
0.64079845 0.43556368 0.26632148 0.11310604 -0.37131447 -0.23501568 0.14401527 -0.3893612
0.38990083 0.20527875 0.48497018 0.4613855 -0.27153867 0.07735969 -0.0006024116 0.19777419
0.3191056 0.23193821 -0.337211 -0.33447868 0.9304358 1.1281191 0.4194453 -0.40087375
-0.60216975 -0.61443496 -0.3268826 0.60404307 0.5385583 0.68656987 -0.62850606 -0.21776827
0.83308476 -1.434117 -0.4601481 -1.1348063 -0.5037191 0.37185356 1.173681 0.37167248
0.7129957 0.3349084 0.12759179 -0.22830404 -0.0698594 0.1939097 -0.37952423 -0.28895006
0.27847353 0.1567563 -0.29560813 0.086059205 -0.018295394 0.14207555 -0.13353232 -0.5056533
00000000: 94b3 373e 06cf 7e3e d8d1 063e eadc 2dbe
00000010: 2126 c23e 47ea 20be e267 e6be 25ab e03e
00000020: 9911 c23d 2b0a 363e 11fe a1bc d49c 94be
00000030: 1e3d 733c 7f72 0f3d de11 863e f9fc a83e
00000040: 5e6a 7fbe 3295 5a3e 2ac7 da3e 6320 83be
00000050: ff5b 713e 0019 bb3d 767a 18be 4176 41be
00000060: e353 b4bc 28e5 7cbe 4e39 71bd 9657 f43e
00000070: 3d55 683e 627a af3e a427 c23d 1e19 1fbd
00000080: 99ba 93be ff3a 53be 181d 663e b51d af37
00000090: b90f 94bf 4785 acbf bb7a 95be 59d7 1b3f
000000a0: d490 593f e88b 2e3f 93c6 fc3e b12a cbbe
000000b0: 7ed2 2abf bbdf 52bf bfa4 1f3f ec7e eb3d
000000c0: 87f5 303d 35f9 433f 6c3c a6be 5027 dbbe
000000d0: 2efc 1b3f 2a69 50be e7ad 663e e1cd 823f
000000e0: 684a 8ebe 7d1b 213e 83b7 a2be 0288 f3be
000000f0: 74e7 863e 7bcd d2be 661f c33e 8881 993e
00000100: c3cc 5c3e dff8 003f 4bc8 dd3c 61e7 2fbe
00000110: cbec 8abd 0946 a0bc d657 b9be c4e8 8fbe
00000120: 4c89 8b3f b7c1 d8be a9e4 b73f fa85 453f
00000130: 7bbb 6bbf 12fb c93e ba28 9b3e 451f 8cbf
00000140: f19d ff3e 8725 a53e 5599 1abf 08fe b43c
00000150: 0670 26bf c81c 0f3f c703 6f3e 237c aabe
00000160: a28f 13bf 7c00 b73f 6491 c83d d4b9 fc3e
00000170: ddba 873e c71e b5be fbb8 07bf fd47 2b3f
00000180: 94a2 ba3e ad7f 9c3b 6bc0 133f f9e2 9abe
00000190: 4b0b 06be fdaa 5a3e a577 90be 41ad 873e
000001a0: 2b66 80bd f87b f43e 80db 4d3d 6e1f cfbd
000001b0: da67 34bf 757b cc3e 583d 9fbf 59b5 36bf
000001c0: 8633 823f ae35 6cbe a27f 1fbe 2d9b 533f
000001d0: 05ec e7be 094a 7cbe 3d73 ac3e 73eb 2f3d
000001e0: e6ea 20be 861b 453e 061f f0be bd48 3b3c
000001f0: b982 ab3e 9ec8 053e b1d8 a63d 547c 8b3d
00000200: efe3 16be 19d2 dfbe eda7 763c c9e8 1fbd
00000210: 7236 353f c806 d6bd b810 033f e679 8b3e
00000220: af41 4abe 6c6c 083e 11fb b33d 6ab3 c3be
00000230: 496f 86bd b2be 8e3d acc1 d5be 6d08 94be
00000240: 432b dfbe 184f c7be da0f f7be 2451 c33e
00000250: b5cf da3e ea7c 543e 01b5 273e 1a89 68bd
00000260: 8c97 f0bd 4e8d a4be f27c 0a3e 986a 52be
00000270: 0cc9 ccbe faa9 3dbf 007f ff3e c79a 8b3e
00000280: 5e0b 243f 3402 df3e 4a5b 883e 24a4 e73d
00000290: ee1c bebe f3a7 70be bd78 133e 5a5a c7be
000002a0: 15a1 c73e 9834 523e 034e f83e b83a ec3e
000002b0: 1e07 8bbe c26e 9e3d 28eb 1dba 5185 4a3e
000002c0: cf61 a33e 3681 6d3e eca6 acbe ca40 abbe
000002d0: 0a31 6e3f 3566 903f 89c1 d63e 533f cdbe
000002e0: cc27 1abf 9c4b 1dbf 285d a7be 91a2 1a3f
000002f0: f5de 093f 0bc3 2f3f c6e5 20bf a5fe 5ebe
00000300: 0b45 553f 2591 b7bf 8898 ebbe 5541 91bf
00000310: bcf3 00bf 9763 be3e 2e3b 963f db4b be3e
00000320: e386 363f 1d79 ab3e 6ca7 023e 89c8 69be
00000330: 7212 8fbd 4490 463e 0051 c2be 43f1 93be
00000340: 1594 8e3e b984 203e f359 97be cf3f b03d
00000350: 39e0 95bc 417c 113e b2bc 08be 7f72 01bf

encoder.0.bias f4 [18]
0.7342011 0.92374086 0.6644649 0.06509729 1.1443461 0.57644325 0.24189693 -0.29989073
-0.44716087 -0.08181136 0.68488115 0.84044623 0.92563456 0.77084863 0.89633316 -0.01148934
0.4456673 0.48877853
00000000: 9af4 3b3f 487a 6c3f 5f1a 2a3f ba51 853d
00000010: ef79 923f c991 133f d4b3 773e 478b 99be
00000020: 45f2 e4be b78c a7bd 5f54 2f3f 7c27 573f
00000030: 63f6 6c3f 5656 453f 1776 653f c93d 3cbc
00000040: 812e e43e 2e41 fa3e

encoder.2.weight f4 [6, 18]
0.10255104 0.3770269 -0.051136635 -0.31117755 -0.30853298 0.21837345 -0.08801558 0.7105032
-0.06716654 0.11260785 -0.05541337 -0.21434493 0.28083894 0.14575106 -0.111495346 0.33988282
-0.6528805 0.39442578 -0.08215154 -0.25031325 -0.42638755 0.4010581 0.94709516 -0.4241054
1.3942817 -0.7845929 0.28827083 -1.4127933 0.31996492 -0.5388757 0.5242021 -0.2547642
-0.34700027 -0.4895844 1.2006028 0.55121833 -0.289337 0.7910314 -0.18813202 0.46906975
0.44512117 0.056499913 -0.32056326 0.9911521 0.6347232 0.20789166 0.025244627 0.17771484
0.062741876 -0.61202645 0.20908558 -0.518667 0.4416116 -0.43519738 -0.42774588 0.06525898
0.23099379 -1.152378 -0.6384142 0.37066096 -0.4962417 0.3020597 -0.20599405 0.57619834
-0.110270076 -0.057452764 0.46940228 0.69254196 -0.41238558 1.2559532 1.3505377 -0.21201746
0.124184184 0.32951593 -0.5312222 0.8315384 -0.3461062 0.2365281 -1.2193587 -0.18098542
0.032421224 1.13539 -0.63293016 0.81605333 -0.56144583 -0.47313353 1.0029976 -0.84699297
0.82855546 0.007115925 0.49040177 -0.72774154 -0.14326449 0.5982837 0.45198932 0.15432861
0.82261366 1.1546385 -0.28212234 -0.8246 -0.030120792 -0.58965737 -0.41403234 -0.33436587
-0.011312895 -0.6762727 0.6492784 0.07973237
00000000: 4806 d23d ab09 c13e a674 51bd aa52 9fbe
00000010: 09f8 9dbe 4a9d 5f3e 8341 b4bd 8ae3 353f
00000020: 9c8e 89bd f29e e63d 21f9 62bd 3d7d 5bbe
00000030: 1fca 8f3e c43f 153e ac57 e4bd 1f05 ae3e
00000040: 2d23 27bf 2df2 c93e 113f a8bd 0f29 80be
00000050: 784f dabe 7d57 cd3e d474 723f 5824 d9be
00000060: d377 b23f 15db 48bf 3c98 933e 69d6 b4bf
00000070: 71d2 a33e c2f3 09bf 1c32 063f 7470 82be
00000080: 05aa b1be ceaa fabe 5aad 993f a51c 0d3f
00000090: fb23 94be 0981 4a3f aea5 40be e929 f03e
000000a0: ece6 e33e 746c 673d de20 a4be 25bc 7d3f
000000b0: 387d 223f 8de1 543e d2cd ce3c e1fa 353e
000000c0: d07e 803d c4ad 1cbf 881a 563e 5cc7 04bf
000000d0: ea1a e23e 31d2 debe 8201 dbbe 80a6 853d
000000e0: a389 6c3e 1f81 93bf 1d6f 23bf 46c7 bd3e
000000f0: 6413 febe 92a7 9a3e 1bf0 52be bc81 133f
00000100: 47d5 e1bd 9753 6bbd 7f55 f03e 6e4a 313f
00000110: 3424 d3be 13c3 a03f 6bde ac3f 1b1b 59be
00000120: 4754 fe3d 50b6 a83e 2efe 07bf b3df 543f
00000130: d534 b1be 6c34 723e f213 9cbf 3e54 39be
00000140: 1ecc 043d 7654 913f b607 22bf dfe8 503f
00000150: eaba 0fbf 8f3e f2be 3a62 803f 88d4 58bf
00000160: 361c 543f b52c e93b f115 fb3e 454d 3abf
00000170: edb3 12be 1f29 193f 256b e73e 5208 1e3e
00000180: cf96 523f 32cb 933f 5772 90be fc18 53bf
00000190: e1bf f6bc c9f3 16bf 0cfc d3be 0132 abbe
000001a0: b959 39bc 3520 2dbf 1c37 263f ba4a a33d

encoder.2.bias f4 [6]
-0.2427907 0.22159131 0.14597444 0.045018144 -0.2324006 0.3008406
00000000: 209e 78be d5e8 623e 537a 153e f264 383d
00000010: 6cfa 6dbe c707 9a3e

decoder.0.weight f4 [18, 6]
-1.220931 0.6028996 -1.2060231 -0.33821738 0.42451322 -1.3062001 0.103718095 0.722905
0.1672545 -0.37374744 -0.89897555 0.3682934 -0.08527217 0.31724134 0.6059625 -0.4679651
0.276656 -0.09111327 0.32321945 -0.2662207 -0.16949683 -0.09476452 0.6811089 -0.109018885
-0.02573368 0.8369346 -0.2273573 -0.35620835 -1.0322903 0.64441997 0.18321875 0.53635496
0.08761451 -0.13238227 -0.20707807 0.049578916 0.41862926 0.57406735 -0.16698936 0.116197295
-0.3632213 0.18978506 0.21947114 -0.53902596 -0.13821581 -0.7289474 -0.28923044 -0.22550274
0.70287853 -1.0323707 -0.25224757 -1.6260056 -0.9036042 -0.61556685 -0.2728145 0.308711
0.36970544 -0.048260942 -0.6875074 0.24384722 -0.32932112 0.27198172 0.5393432 -0.6154438
0.16968721 -0.102442354 0.71242905 0.41378772 0.27999216 -0.030285452 0.07681279 -0.40845615
0.10405917 0.02507687 0.5612289 0.4680923 -0.2609081 -0.60527086 0.38475662 0.053185266
0.35419253 0.009219674 0.09315728 -0.2931986 -0.2861486 0.15352945 0.09741111 -1.0780118
0.8842458 0.5996012 -0.15821895 0.23567629 0.5953002 -0.7026654 0.36661115 -0.22091974
0.21210629 -0.4277113 -0.07984576 0.915264 -0.24185038 -0.5696074 0.41367248 0.23898762
0.18834372 -0.5468546 0.7551632 0.4213497
00000000: 7847 9cbf a157 1a3f f75e 9abf d42a adbe
00000010: cc59 d93e 9131 a7bf 276a d43d 4d10 393f
00000020: c344 2b3e d35b bfbe 4323 66bf f490 bc3e
00000030: 2da3 aebd 756d a23e 5c20 1b3f 1f99 efbe
00000040: dba5 8d3e 9899 babd 057d a53e 144e 88be
00000050: 9490 2dbe e713 c2bd 275d 2e3f 4b45 dfbd
00000060: 70cf d2bc 5941 563f 5ad0 68be f160 b6be
00000070: 1722 84bf b5f8 243f b29d 3b3e 8f4e 093f
00000080: 3c6f b33d 388f 07be 460c 54be 4313 4b3d
00000090: 9356 d63e 14f6 123f 42ff 2abe d9f8 ed3d
000000a0: 24f8 b9be 0457 423e 0bbd 603e 9bfd 09bf
000000b0: 7288 0dbe 4c9c 3abf 0316 94be 31ea 66be
000000c0: d9ef 333f b924 84bf 9826 81be f420 d0bf
000000d0: 9b52 67bf ca95 1dbf 58ae 8bbe 5e0f 9e3e
000000e0: 084a bd3e 44ad 45bd 7c00 30bf 16b3 793e
000000f0: c79c a8be 3041 8b3e 6512 0a3f ba8d 1dbf
00000100: 7cc2 2d3e 4ccd d1bd c061 363f fcdb d33e
00000110: 225b 8f3e 3219 f8bc 0650 9d3d 2a21 d1be
00000120: f91c d53d 026e cd3c b2ac 0f3f cba9 ef3e
00000130: bf95 85be 08f3 1abf d2fe c43e cbd8 593d
00000140: b958 b53e 1e0e 173c 3ec9 be3d 201e 96be
00000150: 1282 92be d336 1d3e 7a7f c73d 4afc 89bf
00000160: ef5d 623f 777f 193f 2604 22be 2055 713e
00000170: 9865 183f e1e1 33bf 75b4 bb3e c938 62be
00000180: 6432 593e fafc dabe 2c86 a3bd be4e 6a3f
00000190: a0a7 77be cad1 11bf e1cc d33e 2cb9 743e
000001a0: 2ddd 403e aafe 0bbf 6052 413f 26bb d73e

decoder.0.bias f4 [18]
0.072857544 0.12902288 -0.062320627 0.27922037 -0.3381762 -0.11467888 0.36090678 -0.13740888
-0.34738088 0.409264 0.30602852 -0.18171518 0.47872567 0.04645923 0.11122302 -0.30146414
0.09469511 0.61401933
00000000: 5636 953d 931e 043e ea43 7fbd f9f5 8e3e
00000010: 6e25 adbe c3dc eabd c6c8 b83e eab4 0cbe
00000020: e8db b1be 0d8b d13e c5af 9c3e 8b13 3abe
00000030: 881b f53e 094c 3e3d e5c8 e33d 8259 9abe
00000040: 83ef c13d 5f30 1d3f

decoder.2.weight f4 [12, 18]
0.7023997 -0.47850662 0.3446443 -0.2628647 0.70757776 -0.32039177 -0.026237903 -0.43645096
0.6515845 0.025788713 -0.13354647 -0.23201618 0.40575433 -0.3253869 -0.24508461 0.08272339
-0.043078642 -0.08775572 -0.13534947 0.34334186 0.16331266 0.216646 -0.101916745 -0.08399126
-0.3339309 0.570923 1.1120379 0.03554968 0.19280398 0.21433724 0.10021706 0.3782887
-0.29024327 -0.41659322 0.6155164 -0.2086453 -0.05140711 0.639583 -0.60079706 0.038178887
-0.8376156 0.23687965 0.39922678 0.15299147 0.07515207 0.45997876 0.026254067 -0.18113914
-0.34099331 0.017341197 0.84099084 -0.2519467 0.22608367 -0.39160532 -0.4053711 0.08056437
-0.24417545 -0.34471196 0.15156531 0.04335233 -0.00044955066 0.33748206 1.1585782 -0.23278813
-0.070133284 0.12669396 0.4351008 -0.044511236 0.6152971 0.28450063 -0.733054 -0.2994122
-0.30856675 -0.62157977 0.06766848 -0.061844833 0.9558688 -0.15008917 -0.17466994 0.62110895
0.23701543 -0.55309266 0.4386299 0.06449338 -0.00049199536 0.19327816 0.0630541 -0.24275549
0.7123603 0.24283509 -0.87881905 -0.22178204 0.19864175 0.1276724 0.44218925 0.2499867
-0.37958688 -0.44335282 0.92752576 -0.06721567 -0.03311089 0.15300076 -0.113652885 0.27026904
-0.23986329 -0.4134467 -0.17110205 0.6749554 0.08086074 0.035257343 0.3752542 0.062231813
-0.10127849 0.15461338 -0.16146131 -0.26115435 -0.5331862 0.40490505 0.4555436 0.077177204
0.21518871 0.17137457 0.47559547 -0.54675955 0.20944926 -0.47629842 -0.5007148 -0.24241076
-0.13730453 -0.20206803 -0.19866414 -0.118094206 0.10665059 -0.1679909 -0.07085632 0.39192817
-0.45798805 -0.06832788 0.59787345 -0.022640843 1.0309114 -0.1473835 -0.14552544 -0.42043176
-1.5917475 -0.19673517 -0.32122654 -0.33029163 -0.25466985 0.6267812 0.73885053 -0.34982634
0.27661374 -0.14007725 -0.6175021 0.08369218 0.026351064 0.28401026 0.33445266 0.49488404
0.03417702 -0.21646832 -0.63917005 -0.20929182 0.31979388 0.3883179 0.28949153 -0.010548435
-0.02413634 0.25724918 -0.5793131 -0.32899058 0.2837664 0.48639527 -0.06483256 -0.19303195
0.00163161 -0.78200084 0.1827227 -0.048380643 0.009453673 0.21999298 0.24590793 0.5527377
-0.77587277 0.5216186 0.02491222 -0.684766 1.4746708 0.16852567 0.34469858 -0.3396502
-0.2731518 -0.48857826 -0.08729803 -0.34322727 0.06003138 -0.13134207 -1.4878922 -0.37681732
-0.069351986 -0.02079299 0.68225145 -0.3144725 -0.7356752 0.27140877 -0.49229005 0.24416235
0.31938663 -0.7861959 0.15303405 -0.23569612 -0.52308387 0.22864985 0.060462836 0.28222805
00000000: 77d0 333f d2fe f4be 3875 b03e 3496 86be
00000010: d123 353f 640a a4be dff0 d6bc 8076 dfbe
00000020: 3ece 263f da42 d33c 68c0 08be a695 6dbe
00000030: 08bf cf3e 1d99 a6be 76f7 7abe e16a a93d
00000040: 3b73 30bd 45b9 b3bd 0d99 0abe 81ca af3e
00000050: 6f3b 273e 73d8 5d3e bab9 d0bd 9c03 acbd
00000060: fef8 aabe 0228 123f 4257 8e3f 8b9c 113d
00000070: 686e 453e 397b 5b3e 9a3e cd3d 0eaf c13e
00000080: c49a 94be b54b d5be 7c92 1d3f 1da7 55be
00000090: 4390 52bd b6bb 233f d6cd 19bf 7761 1c3d
000000a0: fa6d 56bf 9490 723e 7467 cc3e cca9 1c3e
000000b0: 54e9 993d 5682 eb3e c512 d73c 8a7c 39be
000000c0: ad96 aebe 200f 8e3c 2d4b 573f 28ff 80be
000000d0: 7a82 673e 7e80 c8be cd8c cfbe effe a43d
000000e0: 2109 7abe 167e b0be f033 1b3e 3692 313d
000000f0: abb1 ebb9 73ca ac3e 4a4c 943f 0360 6ebe
00000100: 0aa2 8fbd 10bc 013e 88c5 de3e 6a51 36bd
00000110: 1c84 1d3f 11aa 913e 6da9 3bbf 8e4c 99be
00000120: 76fc 9dbe da1f 1fbf c695 8a3d 0251 7dbd
00000130: d1b3 743f fab0 19be addc 32be ff00 1f3f
00000140: 2cb4 723e 7b97 0dbf 1994 e03e 1b15 843d
00000150: 40f9 00ba b6ea 453e 8222 813d e594 78be
00000160: 3f5d 363f c3a9 783e 49fa 60bf d51a 63be
00000170: be68 4b3e 8ebc 023e a166 e23e 83fc 7f3e
00000180: 3659 c2be 24ff e2be 5472 6d3f 5fa8 89bd
00000190: 499f 07bd 3bac 1c3e d8c2 e8bd b460 8a3e
000001a0: b99e 75be 49af d3be 6035 2fbe e1c9 2c3f
000001b0: 519a a53d 016a 103d 5221 c03e c9e6 7e3d
000001c0: 196b cfbd f852 1e3e 1d56 25be 06b6 85be
000001d0: e47e 08bf b74f cf3e 033d e93e 150f 9e3d
000001e0: 6e5a 5c3e d17c 2f3e 4081 f33e 6ff8 0bbf
000001f0: de79 563e 63dd f3be d82e 00bf 873a 78be
00000200: 8f99 0cbe ecea 4ebe 9d6e 4bbe 60db f1bd
00000210: a06b da3d ce05 2cbe 1e1d 91bd cfaa c83e
00000220: 697d eabe 7def 8bbd 3c0e 193f 4a79 b9bc
00000230: e8f4 833f b3eb 16be 9f04 15be d542 d7be
00000240: 62be cbbf f274 49be ce77 a4be fc1b a9be
00000250: 1664 82be bc74 203f 4f25 3d3f 701c b3be
00000260: 51a0 8d3e 6970 0fbe 9e14 1ebf ce66 ab3d
00000270: 30de d73c cb69 913e 613d ab3e 7161 fd3e
00000280: 34fd 0b3d dfa9 5dbe a6a0 23bf 9850 56be
00000290: 06bc a33e 9bd1 c63e 3c38 943e 58d3 2cbc
000002a0: 93b9 c5bc 2ab6 833e dd4d 14bf 7471 a8be
000002b0: d449 913e cd08 f93e efc6 84bd 2baa 45be
000002c0: bfdb d53a 3531 48bf a91b 3b3e c82a 46bd
000002d0: 94e3 1a3c d745 613e 4acf 7b3e 3880 0d3f
000002e0: 999f 46bf cc88 053f b614 cc3c d34c 2fbf
000002f0: 03c2 bc3f fe91 2c3e 557c b03e a2e6 adbe
00000300: 8dda 8bbe ee26 fabe 4fc9 b2bd 7cbb afbe
00000310: 77e3 753d 897e 06be 4073 bebf 33ee c0be
00000320: 6a08 8ebd 1056 aabc 08a8 2e3f 8a02 a1be
00000330: 3655 3cbf 17f6 8a3e 710d fcbe b205 7a3e
00000340: a586 a33e 2244 49bf f5b4 1c3e 535a 71be
00000350: d3e8 05bf 3023 6a3e e1a7 773d 3280 903e

decoder.2.bias f4 [12]
0.19323911 -0.29855704 -0.09787108 -0.069709495 0.4223764 0.014680637 -1.0801694 0.24093747
0.0110340575 0.28114477 0.032772783 0.47129777
00000000: 79e0 453e 78dc 98be a270 c8bd dac3 8ebd
00000010: b841 d83e 0e87 703c fe42 8abf 50b8 763e
00000020: 31c8 343c 35f2 8f3e c13c 063d f14d f13e
