Assignment_1/Task_2b/model_weights_generalized_delta.pth (torch, 14935 bytes, 6 tensors)

linear1.weight f4 [32, 60]
0	0x3f1043ca	0.5635344
1	0xbefd0d55	-0.49424234
2	0x3e42d51d	0.19026609
3	0xbcd62b78	-0.026143774
4	0x3bd62505	0.006535175
5	0xbecd8547	-0.40140745
6	0xbd60473a	-0.054755427
7	0xbe695ced	-0.22789355
8	0x3bb1388c	0.0054083522
9	0x3d4e8c8a	0.050426997
10	0xbef12b70	-0.47103453
11	0xbd2bd1c9	-0.041948114
12	0xbd0020a9	-0.031281147
13	0xbc83580a	-0.016033191
14	0x3e513161	0.20428993
15	0xbdc61652	-0.09672226
16	0x3e84c3b4	0.2593056
17	0xbe6e3ad4	-0.23264629
18	0x3ebee2a9	0.37282303
19	0x3e2ca80d	0.16860981
20	0x3e555b60	0.20835638
21	0xbd20cfe0	-0.039260745
22	0x3e24e5a3	0.16103224
23	0xbe82803b	-0.25488457
24	0xbd2758fa	-0.04085634
25	0x3e10d6af	0.14144395
26	0x3d40b106	0.047043823
27	0xbe4dc79d	-0.20095678
28	0x3e9b9d04	0.3039323
29	0x3d442125	0.04788317
30	0x3e850f11	0.25988057
31	0x3c13ea64	0.009028051
32	0xbca8afed	-0.0205917
33	0x3e9e2143	0.30884752
34	0xbdd5b376	-0.1043462
35	0x3dd3cfa5	0.103423394
36	0xbec513a2	-0.3849154
37	0xbd1d8781	-0.038459305
38	0x3d5c42cf	0.05377465
39	0x3c09d3ef	0.008412345
40	0x3f0b313d	0.54372007
41	0x3de93d4f	0.11388647
42	0x3e218a6e	0.15775463
43	0xbe0d3937	-0.13791357
44	0x3d62602c	0.055267498
45	0xbe33d34c	-0.17561072
46	0x3c96d98f	0.018414287
47	0x3d0065a7	0.031346943
48	0xbe345e60	-0.17614126
49	0x3ef44210	0.47706652
50	0x3e6d8921	0.23196842
51	0x3eb4506e	0.35217613
52	0xbd26dd39	-0.040738318
53	0x3c7d5847	0.0154629415
54	0x3dc456ac	0.09586844
55	0xbdc63972	-0.096789256
56	0xbc070e11	-0.0082431
57	0xbe0b942f	-0.13630746
58	0xbca342db	-0.01992934
59	0xbe78ab6f	-0.24284147
60	0x3e130208	0.14356244
61	0x3e37229c	0.17884296
62	0x3e0d4f1d	0.1379971
63	0x3c7a1a42	0.015265049
64	0xbf409312	-0.7522441
65	0x3e097f7d	0.13427539
66	0xbee24a61	-0.44197372
67	0xbe84bb59	-0.25924185
68	0xbe43f934	-0.19138032
69	0x3ec50815	0.3848273
70	0xbcf78e76	-0.030219298
71	0xbdbeae9e	-0.09310649
72	0xbef17443	-0.47159013
73	0x3e429779	0.19003095
74	0x3e2e6829	0.17031921
75	0xbe23615d	-0.1595511
76	0xbe323a96	-0.17405161
77	0xbee39fbc	-0.44457805
78	0x3d769923	0.060204636
79	0xbdac8c14	-0.08425155
80	0xbf35d640	-0.71030045
81	0xbf4aa3f5	-0.7915643
82	0xbd5a750b	-0.053334277
83	0xbf177aad	-0.59171563
84	0x3df2f788	0.11863619
85	0xbde9dd21	-0.1141913
86	0xbf028450	-0.5098314
87	0xbe3d7e61	-0.18505241
88	0xbe268b21	-0.16264011
89	0xbe22801e	-0.15869185
90	0xbe628e77	-0.22124659
91	0xbcbfe6c7	-0.023425473
92	0xbe5c094d	-0.21487923
93	0x3e896b5b	0.26839718
94	0xbdb54740	-0.088514805
95	0x3e62d1cf	0.22150348
96	0xbe6ec21f	-0.23316239
97	0x3f492361	0.7856961
98	0xbefa2689	-0.48857525
99	0xbf0c3ab1	-0.54777056
100	0x3e869b23	0.26290235
101	0xbd87f581	-0.06638623
102	0x3e69126e	0.22760937
103	0x3f09e002	0.53857434
104	0x3e52e47c	0.20594972
105	0x3b321914	0.0027175592
106	0x3bdd6cff	0.006757378
107	0x3e9fad47	0.31186888
108	0xbeed78dd	-0.46381274
109	0xbed19b9d	-0.40939036
110	0x3ec3de45	0.38255516
111	0xbac90411	-0.0015336295
112	0xbecba44f	-0.39773795
113	0xbf12a66f	-0.5728521
114	0xbef6a65e	-0.48173803
115	0xbeca902c	-0.3956312
116	0xbc908053	-0.017639315
117	0x3ea9550d	0.330727
118	0xbd458ab0	-0.048227966
119	0x3ecbd4a4	0.3981067
120	0xbe39b0c4	-0.18133837
121	0x3cfe0a5c	0.0310108
122	0xbe8fede5	-0.28111187
123	0x3d9d920b	0.07693871
124	0x3dab02ff	0.08350181
125	0x3df67d82	0.120356575
126	0xbe733fb9	-0.23754777
127	0xbe3e1eb6	-0.18566403
128	0x3de5d9a8	0.11223155
129	0xbe365fcb	-0.1780998
130	0xbda0387c	-0.078232735
131	0x3e0c86c0	0.13723278
132	0x3dfbdf76	0.12298481
133	0x3d057490	0.032581866
134	0x3ca6e589	0.020373123
135	0x3e1a6154	0.1507619
136	0xbe5ed5d8	-0.21761262
137	0x3d3c6f7b	0.046004754
138	0x3dbd894f	0.09254705
139	0x3e171788	0.1475507
140	0x3e699273	0.22809772
141	0xbe1ee5e0	-0.15517378
142	0xbe00fd0f	-0.12596534
143	0x3e521be0	0.20518446
144	0xbe4bc225	-0.19898279
145	0x3def7b11	0.11693395
146	0xbe46e2ad	-0.19422407
147	0xbde898b5	-0.113572516
148	0xbdde3f24	-0.10851887
149	0xbd58cf91	-0.052932326
150	0x3cbb00fa	0.022827614
151	0x3e575d27	0.21031629
152	0xbdafdce2	-0.08587052
153	0x3e17cf44	0.1482516
154	0x3e332def	0.17497991
155	0x3e3aa433	0.182267
156	0x3d40229f	0.046908017
157	0xbd71848e	-0.058964305
158	0xbd9ed560	-0.07755542
159	0xbcc022d3	-0.023454105
160	0x3e22b1bb	0.15888111
161	0xbe31787c	-0.17331117
162	0x3b9bd2ba	0.004755345
163	0x3e2ad6b9	0.16683473
164	0xbde13003	-0.10995486
165	0x3e8af278	0.27138114
166	0xbe0c2a7b	-0.1368808
167	0x3e506b3e	0.2035341
168	0x3e1f14c6	0.15535268
169	0x3c694e07	0.014239795
170	0xbe257090	-0.1615622
171	0x3dba0e8a	0.09084804
172	0xbd86e9cb	-0.06587561
173	0xbe6bb0d2	-0.2301667
174	0x3da3244b	0.07965907
175	0x3d102927	0.035195496
176	0x3d57de55	0.052702267
177	0x3dc87506	0.097879454
178	0xbc63ad97	-0.0138963675
179	0xbe1dca43	-0.15409188
180	0x3e0c6b6c	0.13712853
181	0x3d8ffe1d	0.0703089
182	0xbe4cfc5f	-0.20018147
183	0x3de3fae3	0.11131837
184	0xbe448111	-0.1918986
185	0x3de0981c	0.109665126
186	0x3e285275	0.16437705
187	0x3e3ff840	0.18747044
188	0xbba0bb9f	-0.0049051787
189	0xbc439449	-0.011937209
190	0x3b948ff0	0.0045337602
191	0x3dda0b04	0.10646632
192	0xbe4bb70a	-0.19894043
193	0xbd06ba3f	-0.032892462
194	0xbe4e8033	-0.20166092
195	0xbe7b3833	-0.24533157
196	0xbc57d439	-0.013173156
197	0xbe5dfdef	-0.21678899
198	0xbe664e12	-0.22490719
199	0xbe621cc6	-0.22081289
200	0xbe3c350a	-0.18379608
201	0xbdb9bc98	-0.090691745
202	0xbcd536c2	-0.026027087
203	0x3dee6e18	0.116420925
204	0xbe135218	-0.14386785
205	0x3d8fd837	0.070236616
206	0xbbaeeb8f	-0.0053381394
207	0x3e176bbe	0.14787194
208	0x3dfe6150	0.12420905
209	0x3c4f575c	0.012655105
210	0x3e7ca05a	0.24670544
211	0x3e165d3f	0.14684008
212	0x3cb8b6fb	0.02254819
213	0xbe440596	-0.19142756
214	0x3e0ae951	0.13565566
215	0x3d93409b	0.07190057
216	0xbe5620c4	-0.20910937
217	0x3e211f7a	0.15734664
218	0x3dd5276d	0.104079105
219	0xbcc22d96	-0.023703378
220	0x3d1514b2	0.03639669
221	0xbcdc5a1d	-0.026898438
222	0x3e5e82ca	0.2172958
223	0xbdda1b58	-0.10649747
224	0x3e42b51b	0.19014399
225	0xbe43b813	-0.19113187
226	0xbe091f58	-0.13390863
227	0x3e742af9	0.23844518
228	0xbda561c7	-0.0807529
229	0x3dc44750	0.09583914
230	0xbd1ec008	-0.038757354
231	0xbe599dc1	-0.21251585
232	0x3dc0430a	0.09387787
233	0x3d6192bd	0.05507158
234	0x3e236e8a	0.15960136
235	0xbe40b33d	-0.18818374
236	0x3b65e58a	0.0035079443
237	0x3e4fbd00	0.20286942
238	0xbdac7586	-0.08420853
239	0xbe58e7dc	-0.21182197
240	0x3e9b4e31	0.30333093
241	0x3f372bfa	0.7155148
242	0xbeb70863	-0.35748586
243	0xbf8b1701	-1.0866395
244	0xbefed9b0	-0.49775457
245	0xbddcbcee	-0.10778223
246	0xbebf84e9	-0.3740609
247	0xbf44a5aa	-0.76815283
248	0x3e254f03	0.16143422
249	0x3d5903f5	0.05298229
250	0xbf5e8a72	-0.8693
251	0xbdc8339d	-0.097754695
252	0x3f347fc2	0.7050744
253	0xbe3fc178	-0.18726146
254	0x3fc93b23	1.5721172
255	0x3f12fd81	0.57418066

linear1.bias f4 [32]
0	0xbbb14071	-0.0054092933
1	0xbefacc85	-0.4898416
2	0xba22862a	-0.00061998016
3	0x3b495f18	0.0030726846
4	0xbf246803	-0.6422121
5	0x3ed2fbe7	0.4120781
6	0x3ea12995	0.31477037
7	0x3e4f256f	0.20229124
8	0xbb67d061	-0.0035372006
9	0x3b5ad321	0.0033390003
10	0xbb61e7b3	-0.003447038
11	0x3bbf379b	0.005835486
12	0x3dc52b72	0.09627427
13	0x3dc33b4a	0.09532793
14	0xbec3a9a7	-0.38215372
15	0xb9c8cfb3	-0.0003830172
16	0xbe988d2a	-0.297952
17	0x3e8a398a	0.26997024
18	0x3ac03071	0.0014662874
19	0x3e8515be	0.2599315
20	0x3c9cac06	0.019124996
21	0x3ab62537	0.0013896589
22	0x3da1bacc	0.07896957
23	0xbb821344	-0.003969582
24	0x3ec01b2d	0.37520733
25	0xb6b248f0	-5.3133044e-06
26	0xb7b5a8d5	-2.16555e-05
27	0xbb75879d	-0.0037464865
28	0x3b0c1d47	0.0021379755
29	0x3f0b17c8	0.5433316
30	0xbf51f86b	-0.8201968
31	0xb8d48a93	-0.00010134759

linear2.weight f4 [32, 32]
0	0x3eb561ef	0.3542628
1	0xbbdfa1e0	-0.006824717
2	0x3cb9c20c	0.022675537
3	0x3d85d539	0.065348096
4	0x3ebfaa49	0.37434605
5	0xbe6071ff	-0.21918486
6	0xbe69f419	-0.22847022
7	0x3db85664	0.09000853
8	0x3d2160ba	0.039398886
9	0xbe253c95	-0.16136391
10	0xbe2c03b4	-0.16798288
11	0x3e4635f9	0.19356526
12	0x3e104ac9	0.14091028
13	0xbef147b6	-0.47125024
14	0x3e4a32c1	0.19745924
15	0x3d2aa987	0.04166558
16	0x3e1b9a48	0.15195572
17	0xbeee102c	-0.46496713
18	0xbe3b3152	-0.18280533
19	0xbf1751ed	-0.59109384
20	0xbe676df7	-0.22600542
21	0xbe1e75a0	-0.15474558
22	0xbe628ddb	-0.22124426
23	0xbe7be306	-0.24598321
24	0x3da061a6	0.07831125
25	0x3de8cea3	0.11367538
26	0xbde2aa97	-0.11067694
27	0xbdf82c97	-0.1211788
28	0x3dd335ab	0.10312971
29	0xbe80613d	-0.25074187
30	0x3e47f3c4	0.19526583
31	0x3e13f3e3	0.14448504
32	0xbe5c8ef9	-0.21538915
33	0xbef1a632	-0.4719711
34	0xbe596ce2	-0.21232942
35	0x3e8d3bde	0.27584738
36	0xbf5b1aab	-0.8558757
37	0xbe1bff26	-0.1523405
38	0x3ee955eb	0.45573363
39	0xbeffec3a	-0.49984914
40	0x3e60f9d8	0.21970308
41	0x3e835f38	0.25658584
42	0xbe7afdd5	-0.24510892
43	0xbe00a7df	-0.12564038
44	0x3e5d5535	0.21614535
45	0xbd1f7386	-0.03892853
46	0xbe15ce23	-0.14629416
47	0x3e30eb74	0.17277318
48	0xbe0a38ed	-0.13498278
49	0x3e34a052	0.17639282
50	0x3e3cc496	0.18434367
51	0xbd4afab5	-0.0495555
52	0x3e93ccbb	0.28867134
53	0x3d6dc76e	0.05805152
54	0x3ea30010	0.31835985
55	0xbd5722b9	-0.05252335
56	0x3d665aa3	0.05623878
57	0xbe81e749	-0.2537177
58	0x3e570990	0.20999742
59	0xbe46b901	-0.19406511
60	0x3dd8bd5a	0.10582991
61	0x3ec50575	0.38480726
62	0xbd2d0ef7	-0.0422506
63	0xbe6d70d8	-0.23187578
64	0xbf0f53f0	-0.55987453
65	0x3ec2e1d1	0.3806291
66	0x3e61a834	0.2203682
67	0xbe0c9ea9	-0.13732399
68	0xbf0a5328	-0.54033136
69	0x3da66290	0.08124268
70	0x3e059776	0.13046059
71	0xbe4c8781	-0.19973566
72	0xbdf88b76	-0.12135975
73	0xbea38e2a	-0.319444
74	0xbe7e57c7	-0.24838172
75	0xbe72c781	-0.23708917
76	0xbdd5e3c5	-0.10443834
77	0xbdc8e129	-0.09808571
78	0x3e0afc0d	0.13572712
79	0xbd9239c6	-0.07139926
80	0xbdf2838d	-0.118414976
81	0xbea1f096	-0.31628865
82	0x3e1b1101	0.15143205
83	0xbeafccf9	-0.3433607
84	0xbe9beb79	-0.3045309
85	0x3db080a8	0.08618289
86	0x3ea28170	0.31739378
87	0xbe19a93a	-0.15005961
88	0xbe9cb946	-0.30610102
89	0x3e5e4ebf	0.21709727
90	0x3cf71839	0.030162917
91	0x3e4fac5a	0.2028059
92	0xbea9aeaf	-0.33141086
93	0x3e88d7eb	0.26727232
94	0x3f2964a8	0.66169214
95	0xbe1f76f8	-0.15572727
96	0xbe47d494	-0.19514686
97	0x3e82b3f0	0.25527906
98	0xbe81691b	-0.25275502
99	0x3d75d1ea	0.060014643
100	0x3eab4a8a	0.33455306
101	0x3ed62332	0.41823727
102	0xbe44dd72	-0.192251
103	0xbe8d6cf6	-0.27622193
104	0xbd9e2913	-0.07722678
105	0xbeada142	-0.33912092
106	0xbdfdd1fc	-0.12393567
107	0x3e75d20c	0.24005908
108	0x3bc911e1	0.0061361645
109	0xbea01f85	-0.31274047
110	0xbc8de3c9	-0.01732053
111	0xbea9d51f	-0.3317041
112	0xbe845c88	-0.25851846
113	0xbf0ec89a	-0.55774844
114	0xbea1dd1d	-0.3161401
115	0xbf0b721e	-0.54471004
116	0x3e5b4528	0.214131
117	0x3e62092f	0.22073816
118	0xbf3c48f8	-0.7354884
119	0x3e2307cb	0.15920942
120	0xbeccd605	-0.40007034
121	0x3dbd1212	0.09231962
122	0xbea3e16a	-0.32007915
123	0x3e834b17	0.25643227
124	0x3d4d03c0	0.050052404
125	0xbea42e37	-0.3206651
126	0xbe2f5950	-0.17123914
127	0xbdf7f76c	-0.12107739
128	0x3f086fa8	0.53295374
129	0xbe3f3a53	-0.18674593
130	0xbe2a66dc	-0.166408
131	0x3e43565f	0.19075917
132	0x3e31c282	0.17359355
133	0x3c7525c3	0.014962616
134	0xbc672cc0	-0.01410979
135	0x3eec9148	0.4620459
136	0xbea61e7f	-0.32445142
137	0x3e0a1b51	0.13486983
138	0x3c7067b5	0.014673163
139	0x3e41db24	0.18931252
140	0x3e8b3041	0.27185252
141	0xbea34409	-0.31887844
142	0xbea6b034	-0.32556307
143	0x3eb41d36	0.35178536
144	0xbf078221	-0.52932936
145	0x3ea8402d	0.32861462
146	0xbe356a58	-0.17716348
147	0xbdbdf4e6	-0.09275226
148	0xbe81cf55	-0.25353494
149	0xbc8cb205	-0.01717473
150	0xbe731b11	-0.23740794
151	0x3e263fb7	0.16235243
152	0xbeac4ca8	-0.33652234
153	0x3dff20d4	0.12457433
154	0x3e797995	0.24362786
155	0x3e39cd93	0.18144827
156	0x3e00c70c	0.1257593
157	0xbd90d726	-0.07072286
158	0xbe609e3f	-0.21935366
159	0xbd7e1963	-0.06203593
160	0x3dbaa14b	0.091127954
161	0xbeecab5f	-0.46224496
162	0xbc46878f	-0.012117281
163	0x3e5eb15b	0.21747343
164	0xbebaa5d7	-0.3645465
165	0x3eb823a2	0.35964686
166	0xbe0f0ea2	-0.13970426
167	0x3e8b0c1c	0.27157676
168	0x3e3c5d23	0.18394904
169	0x3b804c3e	0.003915339
170	0xbe2f33a3	-0.17109542
171	0x3dca3df5	0.098750986
172	0xbee10f43	-0.43956956
173	0xbe6ff6d1	-0.23433997
174	0xbe64a997	-0.22330318
175	0x3cf553c9	0.029947178
176	0x3ea5452c	0.32279336
177	0xbda81e21	-0.08208872
178	0xbd701362	-0.058612235
179	0xbec8b874	-0.39203227
180	0x3e18fe3c	0.14940733
181	0x3d11c1a9	0.03558508
182	0xbf29aee3	-0.6628248
183	0x3e17e6bd	0.14834113
184	0xbe95eafe	-0.29280847
185	0x3e12e9bb	0.14346974
186	0x3e32e4b3	0.17470054
187	0x3ea48c70	0.32138395
188	0xbc7b4a14	-0.015337486
189	0xbc2122fb	-0.009835
190	0xbdacf11c	-0.084444255
191	0x3e1307f0	0.14358497
192	0xbe9e1792	-0.30877358
193	0x3d037243	0.03209139
194	0xbdde395e	-0.10850786
195	0xbedca196	-0.4309203
196	0x3ee304f8	0.44339728
197	0xbcd6618c	-0.02616956
198	0xbf0b7afa	-0.5448452
199	0xbf2991d0	-0.6623812
200	0xbdaf9e58	-0.085751235
201	0xbe72d309	-0.23713316
202	0x3dd7de78	0.105404794
203	0x3c298dbd	0.010348734
204	0x3e15f071	0.14642502
205	0x3d1d2f8b	0.03837542
206	0x3e351d1a	0.17686883
207	0x3d52cd56	0.051465355
208	0x3defecaf	0.11715066
209	0x3d5e29aa	0.054238953
210	0x3e177fb3	0.14794807
211	0x3e830f41	0.25597575
212	0x3cb7dab6	0.022443157
213	0xbeb9f9cc	-0.36323392
214	0x3daf27ef	0.085525386
215	0x3e655771	0.22396637
216	0x3caae7d0	0.02086249
217	0x3ea6a124	0.32544816
218	0xbc08b6e0	-0.008344382
219	0x3d44b703	0.048026096
220	0xbdba2a0b	-0.0909005
221	0xbe04d7fc	-0.12973017
222	0x3ea5428c	0.32277334
223	0x3c09b512	0.008404987
224	0x3e1c28f1	0.15249993
225	0x3dbc8548	0.09205109
226	0xbd9cb8de	-0.07652448
227	0x3e456ebc	0.19280523
228	0xbe5b7faf	-0.21435426
229	0x3df70b2a	0.12062676
230	0xbcdf7cdb	-0.027281215
231	0xbd611047	-0.054947164
232	0x3e56c27c	0.20972627
233	0xbd4e85e7	-0.050420668
234	0x3e8f969a	0.28044587
235	0xbea5c5cf	-0.32377478
236	0xbe6c8fed	-0.23101778
237	0x3e1f5197	0.15558468
238	0x3e332215	0.1749347
239	0xbea8bf12	-0.32958275
240	0x3f0d8761	0.55284697
241	0xbebb4cee	-0.3658213
242	0xbdec5f4e	-0.115416154
243	0xbf2969f4	-0.66177297
244	0xbf0120d6	-0.5044073
245	0x3e4a031b	0.19727747
246	0x3ed5819e	0.41700453
247	0x3e59e0ee	0.2127721
248	0xbda42329	-0.08014519
249	0x3e81fd5e	0.25388616
250	0xbe186bd4	-0.14884883
251	0x3d05fc19	0.032711122
252	0x3e4b5212	0.19855526
253	0xbe1836d0	-0.1486466
254	0x3f3525ae	0.7076062
255	0x3dc69ea6	0.096982285

linear2.bias f4 [32]
0	0xbd5fdc98	-0.054653734
1	0x3da2963d	0.07938812
2	0xbd2bbcaa	-0.04192797
3	0xbd5bf43f	-0.053699728
4	0x3d59d2ba	0.05317948
5	0xbc5bab23	-0.013407501
6	0xbe07d22a	-0.13263765
7	0xbdc292bb	-0.09500643
8	0xbb78107d	-0.0037851625
9	0xbada9c9e	-0.0016678756
10	0x3d2f3f3a	0.042784907
11	0xbc77762a	-0.015103856
12	0x3c26d78a	0.010183224
13	0x3cc224fc	0.023699276
14	0xbd5a3941	-0.053277258
15	0x3c7962cc	0.015221309
16	0xbc8df632	-0.01732931
17	0xbd08acf9	-0.033368085
18	0x3d1dbc86	0.038509868
19	0x3baa3805	0.0051946663
20	0x3b897612	0.0041949833
21	0x3d65ee79	0.05613563
22	0x3d890e42	0.066921726
23	0x3c9a9169	0.018868165
24	0xbd809d17	-0.062799625
25	0x3b64f0ea	0.0034933635
26	0x3a1103e3	0.000553189
27	0x3c8e0a95	0.01733903
28	0x3d5191ed	0.051164556
29	0xbd61c350	-0.055117905
30	0x3d7ac37f	0.061221596
31	0xbc7d9e30	-0.015479609

linear3.weight f4 [8, 32]
0	0x3f06177f	0.523796
1	0xbe67fb70	-0.2265451
2	0x3ed95c8e	0.42453426
3	0x3d26c9d0	0.040719807
4	0x3e7d62ea	0.24744764
5	0xbed69eca	-0.4191802
6	0xbeeb63ff	-0.45974728
7	0x3ef6462b	0.4810041
8	0xbc908177	-0.017639859
9	0x3e15a31a	0.14613
10	0xbf1bdd99	-0.60885006
11	0x3ef5d5f6	0.48014802
12	0x3f1bdc60	0.6088314
13	0xbf24dffb	-0.6440427
14	0x3e9d55d8	0.30729556
15	0x3e75e3ec	0.24012727
16	0x3d542a47	0.05179813
17	0xbf36d7f8	-0.7142329
18	0xbd5f7b4e	-0.054560952
19	0xbe1dede8	-0.15422785
20	0xbd9fe502	-0.07807352
21	0xbd9a4fe0	-0.07534766
22	0xbdf5f3f3	-0.1200942
23	0xbf0a6c65	-0.54071647
24	0x3f30364a	0.6883284
25	0x3e019842	0.12655738
26	0xbe90004f	-0.28125235
27	0x3e07a129	0.13245071
28	0x3e9dd759	0.3082836
29	0xbebfcb5e	-0.37459844
30	0x3f302fcd	0.6882294
31	0x3ebf18e5	0.3732368
32	0x3db4a7a6	0.08821039
33	0xbf01fd12	-0.5077678
34	0xbe9b6f66	-0.30358428
35	0x3ea25dad	0.31712094
36	0xbf157b9b	-0.5839173
37	0xbed1d6de	-0.40984243
38	0x3f505098	0.81372976
39	0xbeb716e7	-0.3575966
40	0x3f0e692f	0.5562925
41	0x3e8ee8c0	0.2791195
42	0xbeab2f9d	-0.33434764
43	0xbe7eccbd	-0.24882789
44	0x3e57b0ea	0.21063581
45	0xbeec84ca	-0.4619506
46	0x3e922c3e	0.2854938
47	0x3dd22302	0.102605835
48	0x3e4bf077	0.19915949
49	0x3f625267	0.88406986
50	0x3c26d11c	0.0101816915
51	0x3e9bdc8f	0.3044171
52	0x3ee8192f	0.45331714
53	0xbe3d26f6	-0.18471894
54	0x3ecf5655	0.40495554
55	0x3e14f011	0.14544703
56	0xbf024469	-0.50885636
57	0xbf091e42	-0.53561795
58	0x3e1ccd60	0.1531272
59	0xbee63a1c	-0.4496621
60	0xbe9810e4	-0.29700387
61	0xbe73f40a	-0.23823562
62	0xbeeb6643	-0.45976457
63	0xbe92e393	-0.2868925
64	0xbe985474	-0.29751933
65	0x3efe44e5	0.49661937
66	0x3f116978	0.5680156
67	0xbf050b8f	-0.5197076
68	0xbf36d8f9	-0.71424824
69	0x3d5a4cc5	0.05329587
70	0xbeaa4183	-0.33253106
71	0x3e91bf18	0.28466105
72	0xbe6325d7	-0.22182404
73	0xbec55411	-0.385407
74	0xbf47b857	-0.78015655
75	0xbf2d9ba5	-0.6781562
76	0xbe777bfe	-0.24168393
77	0xbdef348f	-0.11679947
78	0xbe9bc5b5	-0.30424276
79	0xbd5d84ac	-0.054081604
80	0xbf08dfe3	-0.53466624
81	0xbf23d4d4	-0.63996625
82	0x3e61fec2	0.22069839
83	0xbe8fb32a	-0.2806638
84	0x3c11d460	0.008900732
85	0x3e3e6e39	0.18596734
86	0xbe6bd6de	-0.23031184
87	0xbf03a570	-0.5142431
88	0x3d7f33ae	0.062305145
89	0x3e36318a	0.17792335
90	0xbd737a22	-0.059442647
91	0x3f28638a	0.65776885
92	0xbeb32b77	-0.349941
93	0x3f2a1a8f	0.66446775
94	0x3f06b70f	0.52623075
95	0xbe5210cf	-0.20514224
96	0xbf0a63f4	-0.54058766
97	0x3f2cf44c	0.6756027
98	0xbf4e8701	-0.8067475
99	0x3e814a57	0.2525203
100	0x3e182020	0.14856005
101	0x3eca18e4	0.39472115
102	0xbdfdcb05	-0.123922385
103	0xbf07756f	-0.52913564
104	0x3db7a88d	0.089676954
105	0xbf1d9f49	-0.61571175
106	0x3cddb869	0.027065473
107	0x3f0cfcca	0.55073225
108	0xbe9c68fe	-0.30548853
109	0x3ec7c8eb	0.39020476
110	0xbd893c82	-0.06700994
111	0xbeae11a1	-0.33997825
112	0xbf1f6092	-0.6225673
113	0xbf22f5c6	-0.6365627
114	0xbeb839f9	-0.3598173
115	0xbef274c9	-0.47354725
116	0x3ed3baeb	0.41353545
117	0x3ea72cc3	0.32651338
118	0xbeafc4d2	-0.3432985
119	0x3e4ba70a	0.19887939
120	0xbe55485a	-0.20828381
121	0x3da76d84	0.08175185
122	0xbea2bb14	-0.31783354
123	0xbe1a4019	-0.15063514
124	0x3e06aa26	0.13150844
125	0x3e6e00e7	0.23242532
126	0xbf7a50df	-0.9777965
127	0xbeaf8de0	-0.3428793
128	0x3e1e079c	0.1543259
129	0xbf30f78c	-0.69127727
130	0x3cb466f8	0.022021756
131	0x3ea6ec82	0.32602316
132	0x3f2261d0	0.634305
133	0x3c8c1f4f	0.017104773
134	0xbe2ac3b0	-0.16676211
135	0x3e78e8f5	0.24307616
136	0xbf0f470b	-0.5596778
137	0x3e903ae1	0.2816992
138	0x3ea3bb5c	0.3197888
139	0x3ecaf3e7	0.39639208
140	0x3f316291	0.69291025
141	0xbedac9b9	-0.42732027
142	0xbe7ec3ae	-0.24879333
143	0x3ee4896c	0.44636095
144	0xbe798154	-0.24365741
145	0x3f25aed1	0.64719874
146	0xbe926f08	-0.28600335
147	0xbe9c62bc	-0.30544078
148	0xbe13ec9f	-0.14445733
149	0xbe110729	-0.14162888
150	0x3c09220c	0.008369934
151	0x3e2b98c8	0.167575
152	0xbee0727f	-0.43837354
153	0x3f1ceca3	0.6129858
154	0x3ea4af18	0.32164836
155	0x3f2d7509	0.67756706
156	0x3ecb2808	0.3967898
157	0xbf27e848	-0.6558881
158	0xbdeb4357	-0.114874534
159	0xbe039793	-0.1285079
160	0x3e919678	0.2843511
161	0xbf354076	-0.70801485
162	0x3d1e13ed	0.03859322
163	0x3f2f2bfa	0.6842648
164	0xbec4b709	-0.38420895
165	0x3f495664	0.78647447
166	0xbed7eeac	-0.4217428
167	0x3f2a50a5	0.66529304
168	0x3ec8dee4	0.39232552
169	0x3d7242e3	0.05914582
170	0xbf08d1ab	-0.5344493
171	0x3e4d7a8e	0.20066282
172	0xbea8726b	-0.32899794
173	0xbf31f4bb	-0.69514054
174	0x3ec3221c	0.3811196
175	0x3e93d303	0.28871927
176	0xbd1f5b97	-0.038905706
177	0x3c9d8457	0.019228144
178	0xbd18b39f	-0.037280675
179	0xbe190e7d	-0.14946933
180	0x3e8dc25d	0.2768735
181	0x3d81cf42	0.063383594
182	0xbed3dd3f	-0.41379735
183	0x3e0eb581	0.13936426
184	0xbe1c21eb	-0.15247314
185	0xbd31fe4c	-0.043455407
186	0x3efde39e	0.4958772
187	0x3ee2051f	0.44144532
188	0xbe725908	-0.23666775
189	0xbda91aa9	-0.08257038
190	0x3d4fd552	0.050740547
191	0x3f275dd6	0.6537756
192	0xbef01084	-0.468876
193	0x3ed7b6f1	0.4213176
194	0xbf1307e1	-0.574339
195	0xbf52283c	-0.8209264
196	0xbc74550f	-0.014912858
197	0xbed3db8b	-0.41378435
198	0xbe5f3935	-0.21799167
199	0xbef198f1	-0.47186998
200	0xbf100e7b	-0.56272095
201	0xbeff39f0	-0.4984889
202	0x3ea79745	0.32732597
203	0x3e66d0fe	0.22540662
204	0xbf0ad6fd	-0.54234296
205	0x3eddd734	0.4332825
206	0xbed9c962	-0.42536455
207	0x3d351d6d	0.044217516
208	0x3ef08bc5	0.46981636
209	0x3eaa8933	0.333078
210	0x3ebc5dbb	0.3679026
211	0x3f305d65	0.6889251
212	0x3c143d3c	0.009047803
213	0xbe9ebe53	-0.3100458
214	0x3e878712	0.26470238
215	0x3eb746fc	0.35796344
216	0xbf143269	-0.5788942
217	0x3d80c833	0.06288185
218	0x3eb1341c	0.3461007
219	0xbef0c4f1	-0.47025254
220	0x3cd55ed9	0.026046203
221	0x3e1dae96	0.1539863
222	0x3f1b95f2	0.60775673
223	0xbea8ffae	-0.33007568
224	0x3ed2d045	0.41174522
225	0xbe71657b	-0.23573868
226	0xbeb03088	-0.34412026
227	0x3f179fe2	0.59228337
228	0x3e260cff	0.16215895
229	0x3e924dd4	0.28575003
230	0xbdbf3c5b	-0.09337684
231	0xbf21945f	-0.6311702
232	0x3d3e8f76	0.046523534
233	0x3e8bdeab	0.2731832
234	0x3f0fcb19	0.5616928
235	0xbf09a2df	-0.53764147
236	0xbda612d4	-0.0810906
237	0x3f6b91dc	0.9201944
238	0xbe397475	-0.18110831
239	0xbf0373a8	-0.5134835
240	0x3e1426af	0.14467882
241	0xbe490056	-0.19629034
242	0x3e041b14	0.12900954
243	0xbef42b60	-0.47689342
244	0xbf292352	-0.6606952
245	0x3f0b8648	0.5450177
246	0x3f09f6d7	0.5389227
247	0x3e98451c	0.29740226
248	0xbddf225d	-0.10895226
249	0x3ef3938e	0.47573513
250	0xbe777f74	-0.24169713
251	0xbea2bad8	-0.31783175
252	0x3f0a50cc	0.54029536
253	0xbe2908a6	-0.16507205
254	0x3df52284	0.11969474
255	0xbe91f384	-0.285061

linear3.bias f4 [8]
0	0x3dc4c407	0.09607702
1	0xbd670746	-0.05640342
2	0x3d5ce108	0.053925544
3	0xbdd06d4a	-0.10177095
4	0x3d9a1593	0.07523646
5	0xbe0640f9	-0.13110723
6	0xbc33b0c5	-0.010967438
7	0x3d999bb7	0.075004034
