Assignment_1/Task_2b/model_weights_generalized_delta.pth (torch, 24855 bytes, 6 tensors)

linear1.weight f4 [60, 60]
000000 a2 34 0f 3e 85 1e bd bc 18 22 14 bd fc 5d df bb
       0.13984922 -0.023085842 -0.036165327 -0.0068166237
000010 dd 4e 8b 3e 70 24 86 be 72 9a 55 be 1a 68 a8 bd
       0.27208605 -0.26199675 -0.20859697 -0.08222981
000020 7b 3d 93 3c 0f a6 7d bd d2 a5 14 be a4 de 7b 3e
       0.017973652 -0.061925944 -0.1451638 0.2459665
000030 0c cc 1f 3d fc d6 95 be 6e a0 16 3e fa 52 96 3d
       0.039012954 -0.29265583 0.14709637 0.07340045
000040 dd f8 2c 3a ad a9 c8 bc da 53 0b 3d 5f 3f 4c be
       0.0006598363 -0.02449497 0.034015514 -0.19946049
000050 85 8c 39 3d 5b 7e 4c bd ae 5a c4 bc 3b 23 95 bd
       0.045300025 -0.04992519 -0.02396902 -0.0728211
000060 f0 69 1a 3e f8 77 d7 3d 41 51 28 be 1c f1 03 bd
       0.15079474 0.10520929 -0.16437246 -0.03221236
000070 40 2c c0 3d 65 44 ba bd 36 66 83 3e e8 ba ba 3d
       0.0938344 -0.090950765 0.25663918 0.09117681
000080 60 a0 8d bd fb 3a 85 bd 3c fe d7 bd 03 da a4 3e
       -0.06915355 -0.0650539 -0.10546538 0.3219758
000090 53 24 59 be d4 0a e9 3c e6 5e cf 3d eb bd 42 be
       -0.21205263 0.028447546 0.10125522 -0.1901776
0000a0 f3 ee 01 3d 2c 96 9c 3d 94 4e 39 bd f1 a9 cf 3b
       0.03172202 0.076458305 -0.045240954 0.0063373973
0000b0 60 7f 23 bd 84 75 ed bd 0a 9c 79 bd e5 10 08 3e
       -0.039916396 -0.1159468 -0.060939826 0.13287695
0000c0 71 14 26 be 78 00 48 3e de c2 aa 3d 36 d0 98 3d
       -0.16218735 0.19531429 0.08337949 0.07461588
0000d0 9a e4 32 3e b8 38 ad bd 10 63 77 3e 97 76 70 3e
       0.17470017 -0.08458084 0.24158883 0.23482738
0000e0 7b 58 9c be ce 27 2b be 6e df 51 3d 3f ee 79 3d
       -0.30536255 -0.16714403 0.05123847 0.061018225
0000f0 32 04 1f 3e 81 61 77 bd e3 55 ad bd 0b 75 c7 bd
       0.15528944 -0.06039572 -0.08463647 -0.09739121
000100 d0 93 0e be 93 bb 20 3e ff 44 0a 3e 27 fb 95 bd
       -0.13923573 0.15696554 0.13502882 -0.07323294
000110 fa 16 6a be ee 93 fa 3d 56 e7 57 be 00 01 24 3d
       -0.22860327 0.122352466 -0.21084341 0.040040016
000120 19 79 b1 bd 8e 3a 2e be 7a fd 55 be 9f b2 0e be
       -0.08665676 -0.17014524 -0.20897475 -0.13935326
000130 84 bb 3b be e5 d3 7c 3d af f2 15 be f9 b2 13 bc
       -0.1833325 0.061725516 -0.14643358 -0.009014838
000140 be 2a 61 be 8c bc 20 be 10 83 2d 3e 4f 0d f5 bc
       -0.21988961 -0.15696925 0.16944528 -0.029913573
000150 04 dc c2 bb 75 56 e1 3d f3 e3 ae bc 1d 58 0c be
       -0.005946638 0.110028185 -0.021348929 -0.13705488
000160 7c d5 39 be 72 18 16 3e 30 cb 62 3d dd dd 0f 3e
       -0.18147844 0.14657763 0.055369556 0.14049478
000170 35 b2 57 be 10 4a 12 3e c4 4a 24 3e ee fd 0e be
       -0.21064074 0.14286065 0.16044146 -0.13964054
000180 a3 3c 39 be d1 69 25 3e 6b 81 52 be 99 9e b9 3d
       -0.18089537 0.16153647 -0.20557182 0.09063453
000190 59 22 25 3d c1 e3 ff 3d 92 2a 24 bd 37 07 87 bd
       0.04031596 0.124946125 -0.04007966 -0.06593173
0001a0 d5 b0 db bd aa 73 50 be dc a4 f7 bd f9 fd 59 3e
       -0.107270874 -0.20356622 -0.12091991 0.21288289
0001b0 80 38 8d 3c e5 0a 2f 3d d2 c6 95 bc 3b 7e 4b be
       0.017238855 0.042735 -0.018283281 -0.19872372
0001c0 84 3e 23 be c0 69 4f be ed 05 29 be 8c f7 6e be
       -0.15941817 -0.20255184 -0.16506167 -0.23336619
0001d0 89 d9 5e 3e 43 13 4a 3e 55 75 4c be 41 2f 95 3d
       0.2176267 0.1973391 -0.19966634 0.072844036
0001e0 ab 61 0d be df c4 56 3c 0f 7f 4d be ea d2 c9 3d
       -0.13806789 0.013108461 -0.20068 0.09854682
0001f0 49 0f 96 3d b3 c5 9f 3d e5 7a 5e be 2d c6 0e be
       0.07327134 0.0780138 -0.21726568 -0.13942786
000200 17 8f c7 3d d3 da 11 be d7 45 b8 bd 7d 14 d6 3d
       0.09744089 -0.14243631 -0.08997696 0.104531266
000210 a4 52 fb 3d c4 cc 2f 3d 5a 3f f7 3b 4a 56 0d 3e
       0.12271622 0.04291989 0.007545394 0.13802448
000220 b8 6a 46 be 7a 21 67 3d cd 7a 84 3d 0e bf e3 3d
       -0.19376647 0.05642841 0.06468735 0.11120425
000230 2a f9 5b 3e fd 40 f6 bd 2a 0a dd bd 9f a6 58 3e
       0.21481767 -0.12024114 -0.10792954 0.21157311
000240 28 77 2a be a6 0f dc 3d 8c 2d 39 be 4a 59 b1 bd
       -0.16647017 0.10745172 -0.18083781 -0.08659609
000250 9d f8 a2 bd d9 17 44 bd 24 14 d4 3c 78 f7 27 3e
       -0.079575755 -0.047874305 0.02588851 0.16402996
000260 c9 f6 a3 bd 6b 44 07 3e 3e d0 12 3e 3b 78 28 3e
       -0.08006055 0.13209693 0.1433725 0.16452114
000270 a2 6a 69 3d 97 50 87 bd be a9 a1 bd 5a 1e 2f bc
       0.05698646 -0.06607168 -0.07893704 -0.010688389
000280 b6 31 10 3e 8c 48 23 be 8b 0b e2 bb d7 5d 25 3e
       0.14081463 -0.15945643 -0.0068983487 0.16149078
000290 f6 41 df bd 03 0b 5c 3e a5 36 e3 bd 95 63 38 3e
       -0.10901253 0.21488576 -0.11094407 0.18006738
0002a0 76 e1 fe 3d 34 91 c4 3c 84 41 0d be 9e 47 90 3d
       0.12445347 0.02399502 -0.13794523 0.0704491
0002b0 e1 08 6c bd fe 2b 62 be d6 87 6f 3d 53 87 14 3d
       -0.057625655 -0.22087094 0.058479153 0.036261868
0002c0 cc cb f4 3c 69 a0 b7 3d 30 e2 46 3b 39 e9 0f be
       0.029882334 0.08966143 0.003034722 -0.14053811
0002d0 7c 3d b8 3d 60 ba 40 3d 39 d1 32 be 23 ff c1 3d
       0.08996102 0.04705274 -0.17462625 0.094724916
0002e0 4d dc 31 be c4 92 c4 3d 18 3e 0d 3e 9f 81 23 3e
       -0.17369194 0.09598306 0.13793218 0.15967415
0002f0 ea 8e d4 ba ba 6d 40 bc 04 94 a2 bb 63 77 c1 3d
       -0.0016216908 -0.011744911 -0.0049614925 0.09446599
000300 05 4d 2d be fa 0a 24 bd e1 82 38 be ef f0 5c be
       -0.16923912 -0.04004953 -0.18018676 -0.21576284
000310 f2 5b 66 bc 6e d3 47 be ea 0f 4d be 63 0c 49 be
       -0.014060007 -0.19514248 -0.20025602 -0.19633631
000320 ed fe 22 be 99 cf 9d bd e7 d4 c1 bc de 28 d4 3d
       -0.15917559 -0.07705612 -0.02366109 0.10359357
000330 c4 37 01 be 71 59 65 3d 45 74 93 ba 45 d3 07 3e
       -0.12618929 0.0559935 -0.0011249861 0.13264187
000340 21 35 dc 3d 08 1b 49 3c ce 6b 5c 3e 4b f7 0a 3e
       0.10752321 0.012274511 0.21525499 0.13570897
000350 e9 8e a4 3c c7 e9 2c be 55 6c ec 3d 45 16 8e 3d
       0.020087676 -0.16886054 0.115441 0.06937841
000360 3a e5 37 be 15 c0 0f 3e bf 8b ba 3d 8f 91 9b bc
       -0.17958537 0.14038117 0.09108686 -0.018990306
000370 23 d3 01 3d fb 55 d9 bc da 68 40 3e d7 00 b5 bd
       0.031695496 -0.026530256 0.18789998 -0.08838051
000380 79 72 26 3e a1 22 2a be 82 37 ea bd 8d 9a 53 3e
       0.16254605 -0.16614772 -0.114363685 0.20664425
000390 cd f1 8a bd 28 18 b2 3d fe 9b 06 bd 0d 4c 3f be
       -0.06784401 0.08696014 -0.03286361 -0.18681355
0003a0 68 e8 a4 3d 78 87 46 3d 5b 70 0a 3e b8 e9 28 be
       0.080521405 0.048469037 0.13519423 -0.16495407
0003b0 1f 93 4b 3b 2d 5a 32 3e 56 93 8d bd b2 20 3d be
       0.0031063033 0.17417212 -0.06912868 -0.18469504
0003c0 ba 4b c4 3d 59 a9 c8 bc 77 0c 84 be d2 82 9d be
       0.09584756 -0.024494814 -0.2579076 -0.3076387
0003d0 1c 82 31 be ff f0 c1 3d 41 6a 04 3c 1e 22 61 bd
       -0.17334789 0.094697945 0.0080819735 -0.054964177
0003e0 cf 8e 43 3d cb a9 d6 3d 41 63 44 be f2 d8 00 be
       0.047743615 0.10481604 -0.19178487 -0.12582758
0003f0 3a 2a ed 3d 59 0a e0 bb f7 13 96 3e 2a d5 15 3e
       0.1158032 -0.006837171 0.29312107 0.14632097

linear1.bias f4 [60]
000000 77 8b a4 bd 53 5e d6 b9 8a f2 c6 ba 59 64 a5 3a
       -0.08034413 -0.00040887538 -0.0015178483 0.0012618407
000010 e1 97 49 bd db 5d 01 3d 54 60 e7 3b fb aa 96 bc
       -0.04921711 0.03158365 0.0070610438 -0.018392077
000020 f3 9a 62 3d 98 da e6 bb 0d 9f f0 3a 39 74 36 3d
       0.055323552 -0.0070451014 0.0018357948 0.044544432
000030 56 38 a9 3b 6b a4 71 3c 21 8c ec bb 7c ff 16 ba
       0.0051641865 0.014748673 -0.007218853 -0.0005760116
000040 dc 4f 3b 3b 86 70 d8 ba 35 a5 0d 3b a1 d3 47 3d
       0.0028581535 -0.0016513027 0.0021613364 0.04878581
000050 d5 62 67 bc 02 ed 43 3a 3b 1e 79 ba 18 30 67 3a
       -0.0141226845 0.00074739766 -0.0009503101 0.0008819117
000060 b6 33 00 3d 30 0b e2 b6 80 9c 3d 37 e1 7f f0 ba
       0.031299315 -6.7366273e-06 1.1301716e-05 -0.0018348658
000070 71 5e 98 3a c9 02 32 ba 57 b2 87 3b 53 ec 66 b7
       0.0011624825 -0.0006790576 0.004141133 -1.3764092e-05
000080 01 7f 93 3a f7 9d 87 bd 18 52 6d 3b 58 c4 56 3c
       0.001125306 -0.06621926 0.0036212262 0.013108335
000090 a5 03 4e 3d 53 a2 ee 3c 0e 9f 0b bc 49 46 4e bb
       0.050296444 0.029130137 -0.008521808 -0.0031474999
0000a0 5c a9 c9 37 4e 83 a6 bd c5 aa 4d 3d bf e2 9b 3c
       2.4039931e-05 -0.08130513 0.050211687 0.01902902
0000b0 64 76 23 3d 10 82 54 35 4a 98 8e 3d 55 d9 a8 bc
       0.039907828 7.916542e-07 0.069626406 -0.020611444
0000c0 63 f2 83 39 e1 46 02 be 32 0e b4 bc 42 90 c4 3a
       0.0002516686 -0.1272235 -0.021979425 0.0014996605
0000d0 79 a1 e9 bc bb 69 6e bd a5 5e a7 bb 39 00 b4 3a
       -0.028519379 -0.0582063 -0.005107718 0.0013732977
0000e0 0e 20 16 bd 27 6b 39 bb 62 df d4 3b db f5 31 3c
       -0.036651663 -0.0028292628 0.006496356 0.010861839

linear2.weight f4 [30, 60]
000000 20 1e 77 3e 29 39 5a be 81 17 af 3c 4c b5 7d 3d
       0.24132586 -0.21310867 0.021373512 0.061940476
000010 3a 3d 21 3e d2 0d 5f be 62 1d 3f be c4 57 2a 3c
       0.15746012 -0.21782616 -0.18663552 0.0103969015
000020 ff 83 12 bd 4c fa 70 bc e5 91 14 be 99 df 44 3e
       -0.035770413 -0.014708113 -0.1450878 0.1922592
000030 40 07 a8 3d 5d 6e 4a be b3 6d 11 3e ab 17 4d 3d
       0.08204508 -0.19768663 0.14202003 0.0500714
000040 82 38 6d 3b 1e 73 15 be 11 fe 09 be 9c 3b 70 be
       0.0036197011 -0.14594695 -0.13475825 -0.23460239
000050 19 c2 38 bc ac 79 f9 bd 41 da 8a bc 78 5b 5d be
       -0.011276745 -0.1218141 -0.016949775 -0.21616924
000060 df b5 7d 3e ac d8 b3 3d e1 a7 ae bd 33 3b 17 be
       0.2477641 0.08781561 -0.08528114 -0.14768676
000070 56 77 c7 3d d2 f4 cd bd 6a 24 3b 3e 07 16 e9 3d
       0.097395584 -0.100564614 0.1827561 0.113811545
000080 74 07 be bd ca a8 17 be 28 0e 23 be 39 f7 47 3e
       -0.09278765 -0.14810482 -0.15923369 0.19527902
000090 b5 06 93 be fa 8a 40 be de 40 19 3e 98 43 fe bd
       -0.28716055 -0.18803015 0.14966151 -0.12415236
0000a0 0e 71 94 3e b1 e5 69 3e 49 0f df bd 57 6f 11 be
       0.28992504 0.22841527 -0.10891587 -0.14202629
0000b0 e3 e0 bc 3d 5a 15 57 be 25 ee 46 bc d7 6f c8 3d
       0.09222581 -0.21004239 -0.012141739 0.09786957
0000c0 08 0d 84 bd 30 39 b6 3e 24 4e 19 3d f3 bc 1c 3e
       -0.06447798 0.35590506 0.037428036 0.15306453
0000d0 d9 89 09 3e 08 40 8a bb a2 7e 65 3e 40 1e 09 bc
       0.13431491 -0.004219059 0.22411588 -0.008369029
0000e0 10 c2 77 be 64 78 44 be 3d 60 bb 3d 0e 24 64 3a
       -0.24195123 -0.1918655 0.09149215 0.00087028823
0000f0 fe 13 a8 3d 1d 87 bb bc 7e 2e a2 bd 73 4d c4 bd
       0.08206938 -0.022891575 -0.07919024 -0.09585085
000100 11 3d 25 be 5c fb 1f 3e c4 77 05 3e 5f 85 a0 bd
       -0.16136576 0.1562323 0.13033968 -0.078379385
000110 e3 8c 93 be 5a 1e 2b 3e ab 61 71 be a9 cb 07 3d
       -0.28818426 0.16710797 -0.23572414 0.03315321
000120 ea 0b 2f be d8 a7 30 be 48 46 6b be a8 5a 04 be
       -0.17094389 -0.17251527 -0.22976029 -0.12925208
000130 38 96 1b be 55 92 0f 3d 56 58 0c be 84 e8 36 bd
       -0.15194023 0.035051662 -0.13705572 -0.044655338
000140 aa 62 5a be 7f 35 1f be 70 c6 2a 3e 1f 7a 9b bd
       -0.213267 -0.15547751 0.1667726 -0.07591652
000150 10 57 30 bc 54 ea 98 3d 90 7c f5 3b 1c 6e 49 be
       -0.010762945 0.074665695 0.0074916556 -0.1967091
000160 7d 01 44 be 31 2d e8 3d 30 83 bf 3d 81 85 07 3e
       -0.19141193 0.113367446 0.09351194 0.13234521
000170 a7 79 58 be 07 3f 3f 3e d9 d4 5d 3e 88 c9 67 be
       -0.21140157 0.18676387 0.21663226 -0.22635472
000180 20 e9 77 be 50 34 52 3e 84 d0 51 be a0 38 81 3d
       -0.24210024 0.20527768 -0.20489699 0.063096285
000190 0d 55 56 3c 44 51 11 3e 62 df 9a bd a2 16 d6 bd
       0.013081801 0.14191157 -0.07562138 -0.104535356
0001a0 8f 45 1e be 1b cd 56 be 21 45 24 be a3 37 8d 3e
       -0.15456222 -0.20976679 -0.16041996 0.2758151
0001b0 34 70 3e bc 50 cc 9b 3d d5 8e 42 bd 41 f8 44 be
       -0.011623431 0.07607329 -0.047499496 -0.19235326
0001c0 94 25 37 be 46 59 61 be 64 40 4f be e8 c2 65 be
       -0.17885429 -0.22006711 -0.20239407 -0.22437632
0001d0 02 26 a4 3e c4 d2 8a 3e 1c 41 76 be 39 23 8a 3d
       0.32060248 0.27113926 -0.24048275 0.067449994
0001e0 41 82 e0 bd 3c 4a bd 3c bd 11 71 be 9a 44 0c 3e
       -0.10962344 0.023106687 -0.23541923 0.13698044
0001f0 6d 97 cd 3c e5 f9 78 3d a2 2c 48 be b0 fe 1f be
       0.02509662 0.060785193 -0.19548276 -0.156245
000200 16 4a ed 3d e8 89 0a be ac 74 c2 bd c0 b9 23 3e
       0.115863964 -0.1352917 -0.0949491 0.15988827
000210 4f 93 1d 3e bb 8e d8 3d e7 b9 d5 bb 39 01 2c 3e
       0.15388225 0.10574099 -0.0065224054 0.16797341
000220 6e 2b 69 be 41 50 7d 3d ed 56 97 3d af fd 6a 3d
       -0.22770473 0.061844114 0.07389627 0.057370838
000230 86 e2 82 3e 96 d2 09 be 3c 32 05 be 15 9d 80 3e
       0.2556345 -0.13459238 -0.13007444 0.25119844
000240 2e c5 1a be 1f 57 f0 3d 08 bf 52 be 7e 78 e5 bd
       -0.1511428 0.11735367 -0.20580685 -0.11204623
000250 40 fe a1 bd af 54 84 bd 16 3a 20 3d 93 ed 36 3e
       -0.079098225 -0.064614646 0.039117895 0.17864065
000260 4b 2d b6 bd cb e8 53 3e cd c4 2e 3e 95 27 49 3e
       -0.08895358 0.20694272 0.17067261 0.19644006
000270 98 95 0f bd d9 60 0b be e2 29 d7 bd 68 64 80 bc
       -0.035054773 -0.13611163 -0.105060354 -0.015672877
000280 2f 4e 1e 3e 7b 24 1c be 3b e5 54 bb 14 a5 50 3e
       0.15459512 -0.15248291 -0.0032485265 0.20375472
000290 c6 ed 3a be 1c 17 80 3e 89 8f 3e be 14 21 64 3e
       -0.18254766 0.2501763 -0.18609442 0.22278243
0002a0 84 33 0a 3e 17 3f 24 3e 9a ca 95 bd 50 79 ae 3d
       0.13496214 0.16039692 -0.07314034 0.08519232
0002b0 2f 53 09 bd 2b c5 95 be fc 61 5b 3d 26 a5 61 3d
       -0.033526596 -0.2925199 0.053560242 0.05508914
0002c0 f1 0f e7 bb 7e 3f b6 3d 4a 79 c4 bb 72 96 25 be
       -0.007051461 0.08898829 -0.005995904 -0.16170672
0002d0 40 6c 44 3d ef aa ab 3d e7 a1 55 be 2a b6 f9 3d
       0.047954798 0.08382212 -0.20862542 0.12192948
0002e0 fc f0 a6 bd 7d b8 ab 3d d5 22 1e 3e 76 bf 80 3e
       -0.08151433 0.08384798 0.15442975 0.25146073
0002f0 27 c1 8b 3a 8f 46 b0 bc 33 ef 2b bd 4f 85 6c 3d
       0.0010662422 -0.02151802 -0.041976165 0.05774432
000300 7f 0d 67 be 51 11 1a bd be 4b 38 be be c4 74 be
       -0.22563742 -0.03761417 -0.17997643 -0.23903176
000310 3c c5 b3 bb 62 05 72 be 57 c5 63 be 74 38 98 be
       -0.0054861587 -0.23634866 -0.22243248 -0.2973057
000320 2b 36 1b be a0 7d aa bd 0e 68 04 bd 0d 68 ba 3d
       -0.15157382 -0.08324742 -0.032325797 0.09101877
000330 bc c2 6b be 2b 6e 79 3d de a7 f5 3b 9e 18 19 3e
       -0.23023504 0.06089608 0.007496818 0.14950797
000340 f2 fa 06 3e e8 74 85 3b 59 35 84 3e 19 60 19 3e
       0.13181666 0.004072774 0.2582195 0.14978065
000350 73 da 20 3d ea 97 ba bd d5 bf 0e 3e 55 b5 6b 3d
       0.03927083 -0.091110066 0.13940366 0.05754598
000360 11 54 1b be 90 a3 8e 3e c4 5a 0a 3e e9 c2 f1 bc
       -0.15168788 0.27859163 0.13511187 -0.029511886
000370 39 bb db 3c 7f d5 e0 bd 9a 06 27 3e f1 50 c1 bd
       0.026822673 -0.10978221 0.16311112 -0.094392665
000380 9d b7 83 3e f0 e7 3a be 1a 4e dc bd 79 ed 88 3e
       0.25726023 -0.1825254 -0.10757084 0.26743677
000390 e2 0e af bd 65 64 22 3c b3 62 67 3c 48 11 4c be
       -0.085477605 0.009911631 0.014122653 -0.19928467
0003a0 95 7d 67 3d 20 20 ae 3d 31 be 2f 3e 60 6d 39 be
       0.05651625 0.08502221 0.17162396 -0.1810813
0003b0 34 00 49 bd 85 a2 76 3e 2b 17 ee bd d1 e1 48 be
       -0.04907246 0.24085434 -0.11625513 -0.19617392
0003c0 35 d2 1e 3e f5 9b 27 bd 55 f5 8d bc e9 0f fc bd
       0.15509875 -0.040920217 -0.017328897 -0.12307722
0003d0 df c8 52 be bd b4 43 3e 35 d0 93 3e 8f c3 01 3e
       -0.20584439 0.19111915 0.28869787 0.12672256
0003e0 f6 36 49 3c bc f2 55 3e 2a 1e a9 bd e9 74 b3 bd
       0.01228117 0.20893377 -0.082577065 -0.08762533
0003f0 a6 fa 6e 3e ba 8b 19 be 30 10 b3 3d 5d a1 f8 3c
       0.23337802 -0.14994708 0.08743322 0.030350382

linear2.bias f4 [30]
000000 d4 d9 1b bd cc 07 08 3d 2c 8a e3 3b a0 dd 0d 3c
       -0.038049534 0.03321056 0.0069439616 0.008658797
000010 31 b6 f5 3c 1d 29 de bc 02 9c ef bb 06 ca e9 3c
       0.029994102 -0.027119214 -0.0073122988 0.028538715
000020 91 ba 97 bc cf 37 b1 3c f3 08 b8 bc f4 a9 41 bb
       -0.018521579 0.021633057 -0.022465205 -0.0029550763
000030 c6 07 9d 3c ba a6 91 bc 29 72 20 bc 19 fa 44 3b
       0.019168746 -0.017779697 -0.009792843 0.0030056296
000040 17 67 f2 bb 50 0b 99 3c c0 61 e7 bb 01 8a 02 bd
       -0.007397543 0.018682152 -0.0070612133 -0.031869892
000050 35 2d de 3c b9 b5 08 bd 20 da 45 3c 89 b3 17 3d
       0.027121166 -0.03337643 0.012075931 0.037036452
000060 8b bd 86 ba f7 ad 2a bc 21 6c a1 3c 03 6c 45 3c
       -0.0010279877 -0.010417453 0.01970488 0.012049678
000070 aa 33 be ba 68 e5 75 3b
       -0.0014511247 0.003752077

linear3.weight f4 [8, 30]
000000 e1 43 f8 3e c4 e1 aa be b2 30 b0 bd eb 21 d9 3d
       0.48489287 -0.3337537 -0.08603038 0.106021725
000010 63 88 b9 3e 67 25 c5 be 13 21 b4 be 8c b7 1b be
       0.36236867 -0.38505098 -0.35181484 -0.15206736
000020 cb 4f 37 bd 7d 57 35 be 91 28 97 be 4d dc a4 3e
       -0.04475383 -0.17709155 -0.29523137 0.32199326
000030 52 b0 df 3d 79 11 c9 be f7 fb a2 3e cb 14 e2 3e
       0.10922302 -0.39271143 0.3183286 0.4415649
000040 16 4b eb 3d f1 52 ac be ad b5 81 be 74 9f e6 be
       0.11488931 -0.3365703 -0.2533392 -0.45043528
000050 08 ae 7a bd e4 ce a5 be 30 bc 84 3b b2 b6 21 bf
       -0.061201125 -0.32384408 0.004050754 -0.63169396
000060 3e c5 a4 3e ec 26 f3 3d 76 c3 e9 bc db a3 d3 be
       0.32181734 0.11872658 -0.028535586 -0.4133595
000070 c1 87 bc 3d 97 a8 14 be 26 36 f6 3e 42 b9 11 3e
       0.092055805 -0.14517437 0.48088187 0.14230826
000080 e6 e6 22 be 5d a6 8e be 42 5b 80 be 2d a3 b8 3e
       -0.15908393 -0.278613 -0.25069624 0.36061993
000090 40 8a 12 bf 45 bc 46 be 49 54 a6 3e ec 6b ac be
       -0.572422 -0.19407757 0.3248618 -0.33676088
0000a0 19 93 ca 3e 48 cb ee 3e da 6a 0b bf e4 63 e9 bd
       0.39565352 0.46639466 -0.5445992 -0.11396006
0000b0 d3 68 8f 3e 09 a9 25 bf 21 c1 f6 3d 99 ff 4d 3e
       0.28009662 -0.6471105 0.12048555 0.20117034
0000c0 e6 61 81 3d 7d 2a 20 3f 1e 54 27 3e d6 00 62 3f
       0.06317501 0.6256483 0.16340682 0.88282526
0000d0 a6 77 99 3e ab ff be bd 0b 10 74 3e 66 e3 2a bd
       0.29974097 -0.093261085 0.23834245 -0.04172077
0000e0 59 91 cc be a3 68 95 be 75 ac c9 3e 2d 00 92 3c
       -0.3995464 -0.29181394 0.39389387 0.01782235
0000f0 bb 24 40 3b 3c 32 67 bc 58 1b 56 bd 8c 2a 84 be
       0.0029318768 -0.014111098 -0.05227217 -0.2581371
000100 d3 e4 b5 bc 59 d7 98 3e 5b a9 f2 3e 4c 5a 92 be
       -0.022203838 0.29851797 0.47394833 -0.28584516
000110 3e 15 80 be 02 94 a1 3e a1 af 60 be 24 4d d9 bc
       -0.25016207 0.31558233 -0.21941997 -0.026526041
000120 b0 38 87 be 75 d6 06 bf 28 43 18 bf 58 19 b3 3c
       -0.26410437 -0.52670985 -0.5947747 0.02186267
000130 7c 87 ca be dc da a7 3b a2 33 09 bf 4a 7b 60 be
       -0.3955649 0.0051225256 -0.5359441 -0.21922031
000140 14 ea e2 be df b6 fe be 88 98 b8 3e b3 38 67 be
       -0.44319212 -0.49748895 0.36053872 -0.22580223
000150 3a 7f 3a 3e 33 70 46 3e 6e 11 eb 3d 81 2a 9c be
       0.18212596 0.19378738 0.11477934 -0.30501178
000160 22 1d 20 bf 63 3d aa 3e d7 a3 86 bb 90 47 60 3e
       -0.62544453 0.3324996 -0.0041088867 0.21902299
000170 4d ed f0 be 3b f9 23 3e 20 f3 83 3e 82 4a 68 be
       -0.47056046 0.16013043 0.25771427 -0.22684672
000180 07 39 8a be e0 46 ed 3e 03 18 bc be e0 a4 69 3e
       -0.26996633 0.46343136 -0.3673707 0.22816801
000190 6d 6a 9b 3d 78 54 d3 3e f9 3e 11 be d4 aa a9 bd
       0.075886585 0.41275382 -0.14184178 -0.08284536
0001a0 7c 6d 07 be 70 e4 11 bf ab 3c a8 bd 36 51 bc 3e
       -0.13225359 -0.5698919 -0.082146965 0.3678071
0001b0 1b e8 6a 3d ae d0 29 3d 83 93 99 3c f0 25 e4 be
       0.05735026 0.041458778 0.018747097 -0.44560194
0001c0 40 7b b2 be 4b 05 d5 be ce 90 9a be d3 c0 fb be
       -0.34859657 -0.416056 -0.30188602 -0.4917055
0001d0 58 25 11 3f 5c 56 c5 3e 4f 0c 11 bf 65 5c 50 3e
       0.5669761 0.3854245 -0.56659406 0.20347746
0001e0 db cc 78 be 39 a7 bb 3d 04 1d 97 be 65 24 9f 3e
       -0.24296896 0.091627546 -0.29514325 0.31082454
0001f0 c7 4a 02 3e 71 c4 be bd e5 80 c8 be ea de 37 be
       0.12723838 -0.09314812 -0.3916084 -0.17956129
000200 b4 ab 3e 3e ca e7 ad be a5 f7 11 be db a1 aa 3d
       0.18620187 -0.33965904 -0.14254625 0.08331653
000210 e8 c2 c3 3e a8 90 c4 3d 0b 79 89 bc 6f 92 c0 3e
       0.3823464 0.095979035 -0.01678135 0.3761172
000220 a9 44 f1 be 9d e8 a6 3d aa 54 ad 3d 1b 2e 13 3e
       -0.47122696 0.08149836 0.08463414 0.14373057
000230 48 71 da 3e 5a 9a b4 be c6 fc 8d be 73 e2 1a 3f
       0.42664552 -0.3527401 -0.27731913 0.60501784
000240 b9 bc 79 be f5 8c 8f 3e 31 a2 f0 be 9d 7c 67 bd
       -0.24388398 0.2803723 -0.46998742 -0.056515325
000250 f3 1a a6 bd 9c bc 0f be b3 73 34 3e ed 0a 99 3e
       -0.08110609 -0.14036793 0.17622261 0.29891148
000260 3d c3 2e be b9 69 b6 3e 21 8b 70 3e 43 7a 11 3f
       -0.17066665 0.35627535 0.23490573 0.5682718
000270 67 f1 10 be cc 59 c8 be d8 ff 2a be d0 81 ca bd
       -0.14154588 -0.3913101 -0.16699159 -0.09888041
000280 a7 d9 6d 3e f1 fd dd be 02 ef 03 be 2d f8 e0 3e
       0.23227559 -0.43357804 -0.12884143 0.43939343
000290 6a 8a 9c bd f8 17 27 3f 46 e2 7f bd 2c 24 ae 3e
       -0.07643588 0.6527095 -0.06247165 0.34011972
0002a0 40 0f e6 3e 6c bd 57 3e ec d2 cc be e1 ac a3 3e
       0.4493351 0.21068352 -0.4000467 0.31967834
0002b0 a4 df b9 bd 04 45 27 bf d4 df ea 3c a7 3c 0b 3d
       -0.09075859 -0.65339684 0.028671183 0.03399339
0002c0 e2 c3 02 be 9b 43 af 3c 3d 87 83 3e c0 47 a8 be
       -0.12770036 0.021394541 0.25689116 -0.3286724
0002d0 d2 ea 8a bb 4d 4c 93 3c c5 eb 73 be f6 3e 21 3e
       -0.0042394185 0.017980719 -0.23820408 0.15746674
0002e0 d2 03 de be b6 ea 19 3e b8 87 10 3f 95 31 15 3f
       -0.4336229 0.15030941 0.5645709 0.5827878
0002f0 7c 79 3a bd 7f 17 de 3d 72 c7 19 bd 92 13 6d 3e
       -0.045526013 0.10844325 -0.03754372 0.23151997
000300 49 1e 93 be 1d e2 08 be d1 7a e3 be 46 8c 49 bf
       -0.28734043 -0.13367505 -0.4442964 -0.78729665
000310 34 cb 15 be e0 aa 8b be cf 6a fe be 62 fc 05 bf
       -0.14628297 -0.27278805 -0.49690863 -0.5233823
000320 e9 9a 62 be 38 ba 09 be f2 f3 81 be d6 e0 d5 3e
       -0.22129406 -0.13449943 -0.25381428 0.417731
000330 d7 b1 97 be e3 61 2d 3e b5 18 77 3d 7c f8 e8 3e
       -0.2962787 0.16931872 0.060326297 0.4550208
000340 7e 59 89 3e 6d 2f 87 bd 7e f0 ae 3e b7 a6 79 3e
       0.2682609 -0.066008426 0.34167856 0.24380003
000350 22 c0 2a 3e 58 27 5c be c2 da eb 3d 66 b7 0a bd
       0.16674855 -0.21499383 0.11516334 -0.03386631
000360 17 cc da be 77 35 06 3f c9 3a b9 3d 40 3f da bc
       -0.42733833 0.5242533 0.090444155 -0.026641488
000370 84 a2 27 bc 05 60 25 be 4f 7b 25 3f da 57 17 be
       -0.010231618 -0.1614991 0.6464128 -0.14779606
000380 1b ac aa 3e 2b 9a 96 be e2 fd a0 be f8 73 c0 3e
       0.3333443 -0.29414496 -0.31443697 0.37588477
000390 28 82 60 bd e5 72 9c 3e cc 1f d3 bd 6e 89 fa be
       -0.054811627 0.30556408 -0.10308799 -0.48932976
0003a0 d5 14 91 3e de 2c d0 3e 87 b0 90 3e 2b 57 a1 be
       0.28336206 0.4065923 0.2825968 -0.31511816
0003b0 af 60 66 bd 1c 37 b0 3e 59 4d 11 be d2 80 d3 be
       -0.05624455 0.34417045 -0.14189662 -0.4130922

linear3.bias f4 [8]
000000 37 0c 02 3d 36 06 f7 bc 99 2f c0 bd 05 9a 57 bc
       0.03174993 -0.030154329 -0.093840785 -0.01315928
000010 08 11 61 bc 76 8b 64 3c 1c e0 de 3c c2 b7 9f 3d
       -0.013736971 0.013949266 0.027206473 0.07798721
