Assignment_1/Task_2b/model_weights_generalized_delta.pth (torch, 24855 bytes, 6 tensors)

linear1.weight f4 [60, 60]
000000 c9 1d 20 3e a2 ec 37 bc 08 70 dc bd ab 11 8e bc
       0.15636362 -0.011225851 -0.10763556 -0.01734241
000010 24 c3 a6 3e 2e 77 b1 be 1c bf be be c0 ac 05 be
       0.32570755 -0.3466124 -0.3725518 -0.1305418
000020 07 d0 c8 3d d6 b5 03 be 2a 81 77 be 92 3f 35 3e
       0.09805303 -0.12862334 -0.24170366 0.17700031
000030 93 b7 d5 3d c6 8d 85 be a1 56 09 3e 01 aa 8b 3d
       0.10435405 -0.26084727 0.13411953 0.06819535
000040 b0 83 98 3c 23 f2 fa 3d d0 a9 d5 3c 49 2d 9f be
       0.018617481 0.12253215 0.02608195 -0.31089237
000050 47 e2 25 3c c1 e5 8f bd fd 62 b9 3b 12 37 16 bd
       0.0101247495 -0.07026244 0.0056575523 -0.036673613
000060 00 ca a9 3d bf 8e 70 3e 16 4a 55 be ba 52 3b 3d
       0.082904816 0.23491953 -0.20829043 0.04573319
000070 ac 24 29 3e e3 06 f6 bd ec bf 8b 3e a0 a0 a8 3d
       0.16517895 -0.12013032 0.27294862 0.08233762
000080 c8 c1 16 be e9 20 06 3c f7 04 e7 bd 16 60 ae 3e
       -0.14722359 0.008186557 -0.11280244 0.34057683
000090 a4 57 87 be 50 a3 ff 3d 87 a5 14 bc 36 8e 4d be
       -0.26434052 0.12482321 -0.009072668 -0.2007378
0000a0 39 a8 09 3d eb eb e3 3d 5d 73 50 3d dc b1 48 3c
       0.033607695 0.11128982 0.05089127 0.012249436
0000b0 7d 61 71 bd d8 96 c9 bd c2 a3 1d be a5 5a 75 3e
       -0.058930863 -0.09843224 -0.153945 0.2396036
0000c0 c1 7d 45 be 39 92 5d 3e 7b bf 23 3c f5 45 7b 3d
       -0.19286253 0.21637811 0.009994383 0.061346013
0000d0 6c 1c 3f 3e 89 c3 08 be 11 52 8f 3e f9 dc 9e 3e
       0.18663186 -0.1335584 0.279923 0.31027964
0000e0 48 ad aa be cf 10 55 be b1 9a 8d 3d c5 3f aa bc
       -0.33335328 -0.20807193 0.06914271 -0.02078236
0000f0 5f a3 36 3e 3e 11 90 bd 4e f3 d3 bd 24 e5 a2 bd
       0.17835759 -0.07034539 -0.10349141 -0.07953861
000100 b2 33 05 be 33 af 13 3e 6a 33 ef 3d 0f 3a 8e bd
       -0.13008001 0.14422302 0.11679728 -0.069446675
000110 d3 e8 76 be 5c 88 0c 3e 23 d4 76 be a6 e7 1e 3d
       -0.24112253 0.13723892 -0.24104361 0.038795136
000120 eb 75 92 bd e4 c4 24 be 33 cd 4e be 1d 50 07 be
       -0.07151397 -0.16090733 -0.20195465 -0.13214155
000130 96 9f 45 be 28 31 82 3d d1 d4 12 be 57 89 8d 3b
       -0.19299158 0.06357032 -0.14338996 0.0043193507
000140 e8 e5 68 be d3 97 17 be 22 ec 20 3e 00 85 01 bd
       -0.22743952 -0.1480401 0.15715078 -0.03162098
000150 3e 24 19 bc a5 2f ea 3d 8c bd ef bc 25 52 08 be
       -0.00934702 0.11434869 -0.029265188 -0.13312586
000160 b1 b2 32 be 61 67 1d 3e 38 ba 59 3d 4d 45 11 3e
       -0.17450978 0.15371467 0.053156108 0.14186592
000170 ae 21 5a be ea dd 0d 3e c4 4a 2a 3e fe de 0c be
       -0.2130191 0.13854185 0.16630083 -0.1375694
000180 70 21 3e be 29 25 19 3e 31 e8 4f be 20 70 ce 3d
       -0.18567443 0.14955582 -0.20303418 0.1007998
000190 f5 e6 37 3d 6b 34 e3 3d 8a 3e 1e bd ed 22 87 bd
       0.044897992 0.11093982 -0.03863386 -0.065984584
0001a0 01 a9 e1 bd da a6 49 be e5 24 f1 bd 42 07 4d 3e
       -0.11018563 -0.19692555 -0.11774615 0.200223
0001b0 87 5f 63 3c a2 28 61 3d 42 72 2a bc b0 62 53 be
       0.013877756 0.05497039 -0.010403218 -0.20643115
0001c0 28 3a 22 be cd da 4f be a3 73 2c be 62 29 77 be
       -0.15842497 -0.2029831 -0.16840987 -0.2413688
0001d0 a4 64 5c 3e 65 78 47 3e 13 f6 45 be 9f 98 8c 3d
       0.21522766 0.1947952 -0.19332151 0.06865048
0001e0 b4 7b 10 be 01 de e7 3c 6c fb 58 be 76 e0 be 3d
       -0.14109689 0.028304102 -0.2118966 0.09320156
0001f0 54 b7 92 3d db 98 af 3d 9e bd 5b be 64 73 13 be
       0.07163873 0.08574077 -0.21459052 -0.14399487
000200 e2 2e ce 3d 75 a3 11 be 40 6f b6 bd ca a5 d7 3d
       0.10067536 -0.1422251 -0.08907938 0.10529669
000210 9f 92 ea 3d c7 93 28 3d 33 18 f8 3b a6 c3 0e 3e
       0.11453747 0.041156556 0.007571244 0.13941821
000220 26 72 44 be 03 78 64 3d a2 86 83 3d 2d 4d e6 3d
       -0.19184169 0.055778515 0.064221635 0.11245189
000230 11 c6 59 3e 06 37 f7 bd 02 af dc bd 4d c7 56 3e
       0.21266963 -0.12071042 -0.107755676 0.20974465
000240 01 53 2b be 3f c8 df 3d a8 c4 34 be 76 15 b4 bd
       -0.16730882 0.10926866 -0.17653143 -0.08793156
000250 fb e9 a4 bd bd eb 37 bd 5d 7d d0 3c 04 f8 28 3e
       -0.08052441 -0.044902552 0.025450403 0.1650086
000260 10 4f a7 bd 87 8b 07 3e 7a 5a 17 3e 2c df 29 3e
       -0.08169377 0.13236819 0.14780608 0.1658904
000270 4a ff 6b 3d 10 10 82 bd 02 13 9e bd a5 0b 81 bc
       0.05761651 -0.0635072 -0.07718469 -0.015752623
000280 49 a7 12 3e 2c 2a 1f be 70 9e c3 bb 89 5a 21 3e
       0.14321627 -0.15543431 -0.005969815 0.15757193
000290 5c 7e df bd 19 0f 5e 3e 32 a9 ea bd 34 37 3e 3e
       -0.10912773 0.21685447 -0.11458053 0.18575746
0002a0 dc 9f 00 3e 96 9a d6 3c ef a7 0d be d2 aa 8d 3d
       0.12560982 0.02619676 -0.13833593 0.06917347
0002b0 97 ef 72 bd 57 88 5f be 36 f8 7c 3d 49 10 11 3d
       -0.059310522 -0.21829353 0.06176015 0.03541592
0002c0 0b 7e 00 3d a4 81 c0 3d e9 c9 2b 3b 12 d7 0b be
       0.031370204 0.09399727 0.0026212877 -0.13656262
0002d0 f3 32 cb 3d 8e a2 47 3d d4 19 33 be 33 fd c2 3d
       0.09921827 0.04873901 -0.17490321 0.0952095
0002e0 81 5d 32 be c4 58 c4 3d 79 0a 0c 3e ce d7 20 3e
       -0.17418481 0.09587243 0.1367587 0.15707323
0002f0 4e 6f 34 bb 42 da 4b bc 7a 13 1c bb 9e 43 c1 3d
       -0.0027532163 -0.012442173 -0.002381532 0.09436725
000300 28 eb 2b be f4 1f 26 bd 03 d7 3a be a1 bf 5b be
       -0.16788924 -0.040557817 -0.18246083 -0.2145982
000310 cd 54 58 bc 7f 55 47 be 09 ca 4c be 0b 38 4a be
       -0.013203812 -0.19466208 -0.19998945 -0.19747941
000320 d9 99 21 be 13 e1 9b bd bc 00 ce bc 64 11 d3 3d
       -0.15781344 -0.07611289 -0.025146835 0.103060514
000330 52 ee 00 be 4e 0b 60 3d d3 1b 97 ba 08 02 07 3e
       -0.12590912 0.05469828 -0.0011528678 0.13184369
000340 21 54 dc 3d 07 18 4f 3c df 12 5c 3e 01 72 0a 3e
       0.10758234 0.012640006 0.21491574 0.13520052
000350 c7 64 ac 3c aa c3 2c be 43 91 eb 3d 5d 83 90 3d
       0.021044148 -0.16871515 0.11502316 0.070563056
000360 49 b6 37 be 49 88 0f 3e 5b 10 bb 3d e0 21 9c bc
       -0.1794063 0.14016832 0.09133979 -0.019059122
000370 32 b9 03 3d a0 77 d1 bc fa a8 3f 3e 40 39 b2 bd
       0.032159038 -0.025569737 0.18716803 -0.08702326
000380 c8 1a 26 3e 8c d4 2a be 23 a6 e9 bd aa 75 53 3e
       0.16221154 -0.16682643 -0.11408641 0.20650354
000390 72 4e 8c bd a0 97 b0 3d 76 cc 04 bd 34 5a 3f be
       -0.068509 0.0862267 -0.03242155 -0.18686754
0003a0 82 1c a2 3d 88 77 47 3d 9a a5 0a 3e 59 13 29 be
       0.07915594 0.04869798 0.13539734 -0.16511287
0003b0 5f e5 04 3b 3e 3c 32 3e fb d0 8c bd 90 fc 3c be
       0.0020278317 0.17405793 -0.06875797 -0.1845572
0003c0 d0 6e d6 3d 4e 65 a0 38 fe 96 92 be d5 77 b7 be
       0.104703546 7.648264e-05 -0.28630823 -0.35833612
0003d0 9d e4 36 be ec 0f 11 3d 12 52 7c bd 44 ef 8c bd
       -0.17860647 0.035415575 -0.061601706 -0.06881574
0003e0 9d 47 b0 3d 57 28 a7 3d 69 26 56 be 45 91 2e be
       0.08607409 0.08161991 -0.2091309 -0.17047603
0003f0 db 0f c9 bc 7e 21 2c 3e af 7e e2 3e a9 7d 75 3e
       -0.024543693 0.16809651 0.44237277 0.23973717

linear1.bias f4 [60]
000000 1b be 22 be 50 55 fb ba 56 5f 84 ba 92 05 c8 3a
       -0.15892832 -0.0019175205 -0.0010099213 0.0015260449
000010 04 b9 d2 bd 64 0c ca 3b b6 1b 95 bd 4d fd 39 bd
       -0.10289195 0.006166028 -0.07280676 -0.045407582
000020 6b 19 05 3e 6a d0 bc bc e5 10 b7 3b 09 a3 d5 3d
       0.12997977 -0.023048598 0.005586731 0.10431487
000030 ac fc 10 3c d0 7a 89 3d 54 5c 64 bd 9c 57 d7 b9
       0.008849304 0.06712878 -0.055752113 -0.0004107327
000040 28 ea 7e 3b bf 25 05 bb 09 51 2e 3b 63 04 f1 3d
       0.0038896892 -0.0020316688 0.0026598594 0.11768415
000050 ef ad 20 bd 7b 74 8c 3a d4 a0 16 b8 ef b4 b0 39
       -0.039228376 0.0010715866 -3.591257e-05 0.00033704142
000060 31 4d af 3d 35 59 53 b7 f4 6e 5b 37 7d 2c c7 ba
       0.08559645 -1.259735e-05 1.30792505e-05 -0.0015195754
000070 ce 29 e2 3a c1 0b c3 3a 09 10 93 3b ca 47 2c b8
       0.001725489 0.0014880822 0.0044879955 -4.1074854e-05
000080 af c1 b5 3a e5 62 01 be 5e fd 1e 3b fe 27 b6 3c
       0.0013866926 -0.12635382 0.0024259905 0.022235867
000090 de 72 f4 3d ff d9 56 3d 7d 02 af bd 7d 07 51 bb
       0.11935972 0.05245399 -0.085453965 -0.0031895333
0000a0 78 2d 24 38 50 2d 32 be 17 ad d9 3d a7 c6 7b 3d
       3.9142993e-05 -0.17400098 0.106287174 0.061468747
0000b0 69 a8 98 3d 22 1d d5 36 51 10 1b 3e 75 d8 7c bd
       0.07453997 6.351286e-06 0.15142943 -0.061729867
0000c0 48 9b 96 3a c7 f0 74 be 7b 24 64 bd 53 2c de 3a
       0.0011490369 -0.23919974 -0.055698853 0.0016950466
0000d0 c8 43 cd bd 78 52 06 be c3 5a c2 bc ad 1b 14 3a
       -0.10022694 -0.13117397 -0.02372492 0.0005649876
0000e0 d1 b1 81 bd 4d 9b 4d bc e6 8b ae 3c 01 fb 23 3d
       -0.06332744 -0.012549234 0.021306943 0.040034298

linear2.weight f4 [30, 60]
000000 e3 89 76 3e 34 ad 58 be 0a 98 c0 3c b0 66 73 3d
       0.24076037 -0.21159822 0.023509998 0.059424102
000010 3a 02 ff 3d 77 2d 85 be 12 c9 1d be ee d0 07 bd
       0.124515966 -0.2601125 -0.15408733 -0.033158235
000020 a8 f0 26 bd f4 23 93 3d 8f 31 18 be ee 72 0f 3e
       -0.04075685 0.07184592 -0.14862655 0.14008686
000030 9b ba 0f 3e 61 49 64 be a5 eb 37 3e 4d 36 39 3d
       0.14036028 -0.22293617 0.17960985 0.0452178
000040 dd 62 4e 3b b3 44 13 be f4 e8 0b be d4 e1 bc be
       0.0031492033 -0.14381675 -0.13663083 -0.36891043
000050 ad de 50 3c 57 fe fd bd 03 2e 7e 3c da ca 56 be
       0.012748403 -0.12402027 0.0155139 -0.20975819
000060 bc c7 99 3e 34 7c b8 3d 03 47 b3 bd c0 a0 13 be
       0.30035198 0.09008065 -0.08753779 -0.1441679
000070 f0 0a c4 3d be 3f d4 bd ac 97 38 3e 72 bc ed 3d
       0.09572399 -0.1036372 0.18026608 0.11608209
000080 c0 ef d8 bd d9 b5 00 be 54 8c 23 be 83 69 37 3e
       -0.10592604 -0.1256937 -0.159715 0.17911343
000090 57 df 9f be 8c 02 5c be 7e 18 83 3e c8 d1 fa bd
       -0.31225082 -0.21485347 0.25604624 -0.12247044
0000a0 13 9c 95 3e 3f 33 80 3e 3c 5c ee bd c2 46 4f be
       0.29220638 0.25039098 -0.11638686 -0.20241836
0000b0 00 8d 84 3d 1b 69 59 be 29 76 04 bd 8f 22 3c 3e
       0.06472206 -0.21231501 -0.03233925 0.18372558
0000c0 10 2b 88 bd db 0c 9d 3e 76 d1 c2 3c 3a ad 1a 3e
       -0.066488385 0.3067387 0.02378152 0.15105143
0000d0 98 fb 5a 3e 90 89 25 39 66 38 31 3e 3a 84 c5 3c
       0.21385038 0.00015786872 0.1730667 0.024110902
0000e0 4d 74 8c be 1c 2b 60 be 77 a5 3c 3e 4e 93 5e bc
       -0.2743248 -0.21891445 0.18422495 -0.013584925
0000f0 bf 11 05 3e bc b8 0d bd 36 70 91 bd e6 9f d4 bd
       0.12995051 -0.034600005 -0.07101481 -0.10382061
000100 5b f0 28 be 9d 9f 4b 3e e6 98 da 3d 1d e4 96 bd
       -0.16497938 0.19885106 0.10673694 -0.07367728
000110 1c dd 96 be 19 72 4d 3e 19 eb 63 be e6 82 6d 3d
       -0.29465568 0.20063056 -0.22257651 0.057986163
000120 cd f9 3d be ea d1 32 be ed e5 92 be ae d0 0e be
       -0.18552323 -0.17462888 -0.28691044 -0.13946792
000130 88 6c 25 be fb 89 33 3d 8f 25 15 be 5e 28 78 bd
       -0.16154683 0.04383276 -0.14565109 -0.060585372
000140 38 c7 60 be ff 07 28 be 95 2f 36 3e ca ef 82 bd
       -0.21950996 -0.164093 0.17791589 -0.063933924
000150 09 33 e6 3c 5a 8f aa 3d ad 2d 93 ba 37 9c 3b be
       0.028100507 0.083281234 -0.0011228822 -0.1832131
000160 60 d2 4c be b5 73 df 3d 86 07 ad 3d 00 56 10 3e
       -0.20002127 0.10910741 0.084487006 0.14095306
000170 c5 3d 65 be ae f5 36 3e 32 8b 57 3e 4d 45 98 be
       -0.22386844 0.17867157 0.21049193 -0.29740372
000180 69 69 99 be 92 d3 3e 3e d4 86 af be 1a a3 92 3d
       -0.29963234 0.18635395 -0.34282553 0.071600154
000190 8e c4 b1 3c 54 78 f7 3d cb bb 4f bd c0 6f 13 be
       0.02170017 0.12083498 -0.050716203 -0.14398098
0001a0 1c 9a 32 be a9 9a 5f be b9 d0 5a be b6 07 98 3e
       -0.174416 -0.21836342 -0.21368684 0.29693383
0001b0 e4 e5 38 bb de 34 d4 3d 75 94 de bd 04 8d 4d be
       -0.0028213197 0.10361646 -0.1086816 -0.20073324
0001c0 3e 19 19 be 00 1e 6a be 13 76 fb bd e0 84 71 be
       -0.14951035 -0.22863007 -0.1227838 -0.23585844
0001d0 9d b1 b9 3e be d3 93 3e b6 9e 72 be 2b e2 d6 3d
       0.3626832 0.28872484 -0.23693356 0.10492357
0001e0 bb 32 e1 bd a4 18 70 3c 2c 48 72 be bb 12 0e 3e
       -0.10996004 0.014654312 -0.23660344 0.13874333
0001f0 df 97 3f 3b 84 86 b9 3d 88 00 54 be 92 69 1c be
       0.002923481 0.0905886 -0.20703328 -0.15274647
000200 d5 e9 01 3e d1 89 01 be dc 2a c1 bd 9c d9 2a 3e
       0.12686856 -0.12650229 -0.09432003 0.16684574
000210 e4 eb 32 3e 20 73 bd 3d c5 a5 a5 b8 1e 04 2b 3e
       0.17472798 0.09250474 -7.89869e-05 0.1670079
000220 0e ee 6c be a8 53 74 3d 36 06 9c 3d 42 6b 94 3d
       -0.23137686 0.059650093 0.07618372 0.0724702
000230 fc 88 95 3e d5 98 07 be 03 d3 f9 bd 94 92 83 3e
       0.29206073 -0.13241895 -0.121984504 0.25697768
000240 eb 9e 55 bd b5 e9 eb 3d 9c 8a 50 be c9 2c e9 bd
       -0.05215351 0.115191855 -0.20365375 -0.11385495
000250 b9 36 9d bd ac 14 8d bd a2 f9 27 3d 07 bb 34 3e
       -0.07676453 -0.068887085 0.041009553 0.1764947
000260 36 a6 c9 bd 23 de 42 3e 3f e6 36 3e a8 8a 74 3e
       -0.09846155 0.19030051 0.1786127 0.23881018
000270 c9 05 9d bd d2 6e fd bd ab 7c 04 bd 9b 71 92 bc
       -0.07667119 -0.12374653 -0.032345455 -0.017876437
000280 d9 1d 1c 3e 5e 72 4d be c6 23 45 3d e6 51 43 3e
       0.15245761 -0.20063159 0.04812982 0.1907421
000290 7d ca 39 be c1 2f 81 3e f8 7b 7b be b7 21 8d 3e
       -0.1814365 0.25231746 -0.24559009 0.27564785
0002a0 b1 ff 04 3e e8 3b 21 3e ec c4 87 bd 58 9a b2 3d
       0.12988164 0.15745509 -0.06629357 0.08720845
0002b0 7f f4 23 bd ed d0 a3 be e3 cc 73 3c 03 d2 99 3d
       -0.04002809 -0.31995335 0.014880392 0.0751076
0002c0 b2 8c 0d bc c8 5e 76 3d 10 10 24 3d e7 4b ed bd
       -0.008639501 0.060148984 0.04005438 -0.11586743
0002d0 84 e5 91 3d 5a ff ba 3d a0 d2 4a be 6b 98 e4 3d
       0.07123855 0.09130736 -0.1980691 0.11161884
0002e0 2b 4e 8b bd 7a 0f de 3d 69 8b 85 3e 20 68 a1 3e
       -0.06802019 0.10842796 0.26082924 0.31524754
0002f0 c1 13 12 bd dc c8 2c bd 5c 7f 68 bd 38 61 7f 3c
       -0.03566337 -0.042183742 -0.056762084 0.015587144
000300 69 14 90 be 7d a1 af bd 77 ee 3f be 93 f6 7b be
       -0.28140572 -0.08575723 -0.18743311 -0.2460578
000310 82 e6 73 bc 5e 07 67 be 27 cf 6e be d6 e2 a3 be
       -0.0148865 -0.22561404 -0.2332121 -0.32009
000320 e7 df 55 be 8e 3e c0 bd 21 e7 c9 bc 35 ec c3 3d
       -0.20886193 -0.09386931 -0.024646344 0.09566537
000330 90 50 a3 be 88 79 92 3d 3c 4b 4d bb 96 e8 23 3e
       -0.31897402 0.071520865 -0.003132536 0.16006693
000340 00 93 f7 3d 5e 5e cb 3c bd a8 7d 3e 5f 3d 24 3e
       0.12088585 0.024825271 0.247714 0.16039036
000350 00 fb 25 3d 3c 20 60 bd 07 df f9 3d 8d ec c0 3c
       0.040522575 -0.05471824 0.12200742 0.023550296
000360 90 91 17 be d7 5a 69 3e 36 38 1d 3c f1 d0 99 bc
       -0.14801621 0.22788559 0.009595921 -0.018776389
000370 ff 52 19 3d 13 e0 a1 bd cb fb e0 3d 32 da 22 bd
       0.037432667 -0.07904067 0.10985526 -0.03975887
000380 cb 6f 96 3e d9 c8 45 be 18 a2 3e bd d0 b1 61 3e
       0.29382166 -0.19314899 -0.046541303 0.22040486
000390 1d 4a 94 bd 3b 8b a6 3a f4 6b 20 3d 82 9e 55 be
       -0.072406985 0.0012706289 0.039165452 -0.20861247
0003a0 52 a2 f2 3c 59 f7 ea 3d 36 ea 8e 3e 33 bb 50 be
       0.029618416 0.11472959 0.27913064 -0.20383911
0003b0 01 ee 9e bd 5a d4 99 3e cb 0c 27 be cd 68 50 be
       -0.077602394 0.30044824 -0.16313474 -0.20352478
0003c0 f9 c3 d1 3d c2 08 75 bd 50 a4 7d bb 8f d4 0f be
       0.10242457 -0.059822805 -0.0038702674 -0.14045928
0003d0 d2 1d 86 be 0a 42 81 3e d3 84 cf 3e 92 c4 14 3e
       -0.26194626 0.25245696 0.40531024 0.1452811
0003e0 b6 23 87 3d c3 b3 6c 3e 2f 82 88 bd 3b 0b 26 bd
       0.06598608 0.23115449 -0.066654555 -0.040538054
0003f0 67 57 70 3e 93 c6 86 bd 2b fd a8 3d e7 8d 2e 3c
       0.23470841 -0.06580844 0.08251413 0.010653949

linear2.bias f4 [30]
000000 bd 26 25 bd 7f 7d c9 3c e3 1f 15 3c f8 bc 00 bb
       -0.040320147 0.024595974 0.009101841 -0.0019643884
000010 12 d8 44 3c 1a e9 bb bc 65 57 22 bc 86 12 2e 3d
       0.012014406 -0.0229383 -0.009908532 0.042498134
000020 d5 87 91 bc 8d bb e1 3c 70 ea bc bb 53 45 19 bc
       -0.017764965 0.027555251 -0.005765252 -0.009354907
000030 29 db d5 3c f4 5d 4a bc 8b eb 24 bc 97 b0 1d 3b
       0.02610548 -0.012351502 -0.010065923 0.0024061555
000040 34 22 c4 bc 0e 34 23 3c 05 90 29 bc 7e 02 d9 bc
       -0.02394209 0.009961141 -0.010349278 -0.026490446
000050 70 17 d7 3c 94 59 70 bd c2 80 41 3c 9a 5b 47 3d
       0.026256293 -0.05867918 0.011810483 0.048671342
000060 ce be a2 3b 30 bc be bb 7f f5 ac 3c 8c cf db 3c
       0.0049665933 -0.0058207735 0.021113155 0.026832364
000070 23 db 98 bc d3 0d ce 3b
       -0.01865918 0.006288269

linear3.weight f4 [8, 30]
000000 c8 f9 f3 3e 96 37 eb be d4 56 40 be 94 52 47 3e
       0.47651505 -0.45940846 -0.18783122 0.19465095
000010 fd 1b ef 3e a1 f7 c5 be 77 80 e2 be a5 c9 51 be
       0.4670104 -0.38665488 -0.44238636 -0.20487078
000020 97 e2 ac bd 70 d7 54 be ae d4 a8 be 3d f6 af 3e
       -0.08441656 -0.20785308 -0.32974762 0.34367552
000030 9b f8 8e 3d 81 92 f3 be 2b ea dc 3e c9 97 19 3f
       0.069810115 -0.4757271 0.43147406 0.5999723
000040 95 95 93 3e 29 e7 b0 be 2d 70 2d be d6 87 05 bf
       0.2882506 -0.3455136 -0.16937323 -0.52160394
000050 01 92 8d bd 53 af 91 be e1 0c 3c 3d 17 29 41 bf
       -0.06912614 -0.28454074 0.04591072 -0.75453323
000060 47 06 0a 3f ff 79 a9 3d a3 e2 57 bd c0 f3 13 bf
       0.5391583 0.08275222 -0.052706372 -0.5779381
000070 f1 be c9 3d 70 aa ec bc 2e 77 2a 3f 7d d2 0a 3e
       0.09850872 -0.028889865 0.66588104 0.13556857
000080 2a a1 03 be ba 85 8d be b5 e9 ec be 07 5e dd 3e
       -0.12854448 -0.27641088 -0.46272054 0.432358
000090 f9 04 1c bf 0b 90 83 be 21 6c b3 3e 04 2f b5 be
       -0.6094509 -0.25695834 0.35043433 -0.35387433
0000a0 24 e7 dc 3e 1b c9 08 3f ee 63 20 bf ca d0 a6 bd
       0.43145096 0.5343186 -0.6265248 -0.08145292
0000b0 6c 2f b4 3e 99 33 2e bf 9e 4f 1e 3e 87 27 10 3e
       0.3519243 -0.6804748 0.15460059 0.14077578
0000c0 41 4e 77 3d ea ef 3c 3f cb b4 33 3e 32 d3 80 3f
       0.060377363 0.7380358 0.17549436 1.0064452
0000d0 9c 24 b5 3e c4 56 22 be e5 98 07 3e 3f b7 a9 bd
       0.35379493 -0.15853411 0.13241918 -0.082869045
0000e0 32 4a df be 30 7a c6 be 8a f9 ef 3e 15 17 b1 3d
       -0.43611294 -0.38765097 0.4687007 0.08646981
0000f0 b0 ff 06 bd f6 57 9f bd f6 87 a2 bd 5d dd a8 be
       -0.032958686 -0.07780449 -0.07936089 -0.32981387
000100 c7 69 1b 3d 3e 2c be 3e cb 76 1c 3f 1f 69 9e be
       0.037942674 0.3714313 0.61118764 -0.30939576
000110 56 f9 65 be 5a 01 c2 3e 05 8e 53 be 12 eb 13 bc
       -0.22458395 0.37891656 -0.20659645 -0.009028213
000120 1a 4a b5 be 50 ed 14 bf a2 38 42 bf 75 6c 39 3d
       -0.35408098 -0.5817461 -0.75867665 0.04526945
000130 f8 15 f5 be c5 9f 82 bc 40 8e 0d bf 58 e8 44 be
       -0.47868323 -0.015945325 -0.5529518 -0.19229257
000140 b4 3a e5 be 29 b5 04 bf 35 47 e1 3e 38 a6 52 be
       -0.4477135 -0.5183893 0.4399964 -0.2057122
000150 05 d0 8f 3e 3d 17 5a 3e 5e bd 08 3e 6d 8b c0 be
       0.28088394 0.21297927 0.13353488 -0.37606373
000160 4a 1e 31 bf 4c db dd 3e 9d b3 99 bd 8f 94 0b 3e
       -0.6918684 0.43331373 -0.07504962 0.1363089
000170 79 e0 f4 be 88 bd a6 3d e3 0a 8e 3e bd d0 a1 be
       -0.4782751 0.08141619 0.2774268 -0.31604567
000180 c9 46 94 be 6e f0 08 3f a1 b8 b1 be d7 76 9a 3e
       -0.28960255 0.53491867 -0.34711173 0.30168793
000190 c8 ca e4 3d 33 35 03 3f 2a 3f de bd 43 3f b7 bd
       0.1117149 0.5125305 -0.10851891 -0.08947613
0001a0 a1 6a 06 be b4 ca 30 bf 16 3b f7 bd 05 68 bd 3e
       -0.13126613 -0.690593 -0.120718166 0.36993423
0001b0 33 80 fb 3c 34 b6 77 3d 5a 08 3e 3d 8d 39 0e bf
       0.030700779 0.060476497 0.046394683 -0.55556566
0001c0 ab eb b8 be df 0e d1 be 5f 74 ea be ea 37 12 bf
       -0.361173 -0.40831658 -0.4579191 -0.5711657
0001d0 a6 71 2a 3f 29 34 fc 3e 0c b7 33 bf a8 4f 9a 3e
       0.66579664 0.49258545 -0.7020118 0.30138898
0001e0 09 54 b2 be 6f fe c7 3d a9 21 9f be 33 9f af 3e
       -0.3482974 0.09765326 -0.31080368 0.34301147
0001f0 1d 34 17 3e fd 61 27 be e3 58 ed be bd f8 90 be
       0.14765973 -0.16345973 -0.46356878 -0.28314772
000200 49 ec 30 3e 15 dc 04 bf b3 01 1d be 3f f2 2c 3d
       0.17277636 -0.5189832 -0.1533268 0.04222321
000210 6e 35 d9 3e be bc 40 3e dd 50 40 bd aa a5 ee 3e
       0.42423576 0.18822 -0.046952117 0.46610767
000220 ee 03 19 bf 4d 7a 06 3e df c2 0a 3e 35 c1 15 3e
       -0.5977162 0.13132592 0.135509 0.14624484
000230 da ba 00 3f b8 ee b6 be 9d 4b bc be 40 8b 2f 3f
       0.5028511 -0.35729003 -0.36776438 0.68571854
000240 73 54 93 be 5f ee ee 3e 00 8f 16 bf eb b1 c1 3c
       -0.28775367 0.46666238 -0.5881195 0.023644408
000250 63 a2 d2 bd 07 81 7b be dd 98 2d 3e 24 72 1a 3f
       -0.10284879 -0.24560939 0.16952844 0.60330415
000260 5e 63 7c be ab 2e 09 3f b3 5c e4 3e 35 92 29 3f
       -0.2464728 0.53586835 0.44601974 0.6623872
000270 0e 09 40 be b5 4b 06 bf ec 4d 0d be 30 1e 1e be
       -0.18753454 -0.5245927 -0.13799256 -0.15441203
000280 c8 ae 86 3e 3a d1 ed be 0b f4 6c be 06 00 e3 3e
       0.26305223 -0.4644869 -0.2313997 0.44335955
000290 85 40 c0 bc 38 d9 3e 3f fd 17 92 3d 99 93 b0 3e
       -0.023468265 0.745502 0.07133482 0.34487608
0002a0 fb f7 09 3f 23 47 34 3e 95 08 07 bf 5e 2c 05 3f
       0.53894013 0.17605262 -0.5274747 0.52020824
0002b0 f1 bb fd bd 6f b3 58 bf f0 56 11 3d e9 5e 55 bc
       -0.123893626 -0.84648794 0.0354833 -0.013023117
0002c0 1f 14 3c be 24 3d ca bd a1 53 8f 3e fa 2f b9 be
       -0.1836705 -0.09874943 0.2799349 -0.36169416
0002d0 3f 3b 5e bd 48 c4 aa bd a7 e5 34 be c4 94 20 3e
       -0.05425572 -0.08338219 -0.1766573 0.1568175
0002e0 19 12 28 bf f2 7b dc 3d e8 63 35 3f 4b 12 2f 3f
       -0.65652615 0.10765828 0.7085557 0.6838729
0002f0 99 ad bf bd 95 4a 5a 3e ac 21 c5 bd 73 99 62 3e
       -0.09359283 0.21317513 -0.09625563 0.22128849
000300 02 ba 66 be e3 d0 91 bd 9d 92 0e bf b4 d8 5c bf
       -0.22531894 -0.0711992 -0.55692464 -0.8626816
000310 34 e8 0d be ac 7b 89 be f9 37 1f bf 68 70 1b bf
       -0.1385811 -0.26852167 -0.6219478 -0.60718393
000320 76 f8 45 be 61 3f 69 be 66 2b b1 be 34 76 f9 3e
       -0.19333062 -0.22778083 -0.34603423 0.48722994
000330 cb 90 e0 be 66 bb 75 3e ea 53 ce 3d 95 c9 14 3f
       -0.43860468 0.23997268 0.10074599 0.5812009
000340 ce d6 b6 3e 8f 30 56 be 2a 2b de 3e c9 84 a0 3e
       0.35710758 -0.20916961 0.43392307 0.31351307
000350 1b fe 9a 3e 13 ad bb be e7 43 09 3e 33 19 8d bd
       0.30271992 -0.36655483 0.13404809 -0.06889572
000360 d0 f8 e2 be 05 53 3a 3f 99 c3 ba 3d f7 c2 6d 3c
       -0.44330454 0.7278293 0.091193385 0.014511815
000370 4a d6 af bc d3 82 92 be 0c b5 52 3f ee ef 46 be
       -0.021464486 -0.28615436 0.82307506 -0.19427463
000380 29 61 cd 3e 39 bd db be 1f 9b d4 be 4c 87 cf 3e
       0.4011319 -0.42917803 -0.41524598 0.4053291
000390 61 b7 dc bd 72 29 ab 3e 92 58 db bd 09 c4 1f bf
       -0.10777164 0.33430058 -0.10710253 -0.624085
0003a0 58 38 ac 3e 99 1b 1c 3f 21 d1 d0 3e cd 7c c6 be
       0.33636737 0.6097961 0.40784553 -0.3876709
0003b0 5e c2 a8 3c 20 f0 f6 3e 1d 35 e4 bd fd ec 03 bf
       0.020600494 0.48230076 -0.11142943 -0.5153349

linear3.bias f4 [8]
000000 ee 49 3d 3d 4e 30 71 bd 64 88 df bd 30 c8 10 bd
       0.046213083 -0.058883958 -0.10914686 -0.035347164
000010 e2 e7 5a bb bc ae a0 bb 6c 6f 98 3d 4b 51 ba 3d
       -0.0033402373 -0.0049036425 0.07443127 0.09097537
