Assignment_1/Task_2b/model_weights_adam.pth (torch, 11671 bytes, 6 tensors)

linear1.weight f4 [30, 60]
0.5420307 -0.9480266 -1.2255377 -0.31085804 0.8101291 -1.0113884 -0.49434775 -0.048822682
-0.26745048 -0.33336797 -1.0387306 0.33051604 -1.0003366 -0.30229536 0.28847668 -0.22467934
-0.32849887 -0.50657 -1.0866293 0.89401793 -0.33258337 0.2758214 0.26205605 0.67339253
1.2225349 0.07340664 -1.3713282 -0.22618905 -0.33610904 1.5018705 -0.07089341 0.07066114
0.6179445 0.0065985443 -0.15042597 0.22382377 -0.3592366 0.4513857 0.69410485 0.051425397
-0.64698374 0.29682663 -0.9785151 -0.36267537 -0.4459327 -0.07607194 -0.72472537 0.9262593
-0.12537298 -0.35305643 0.67699367 0.11942282 -0.22959033 -0.71778214 0.36706704 0.26117617
-0.509507 0.23540275 -0.682477 -0.11601573 -0.11441704 -0.3740538 1.2662814 -0.3531931
-1.3177764 0.7452451 0.5008865 -0.76337206 -0.3826943 1.9532593 -0.5887522 -0.40825704
0.1695394 0.91271615 -0.9064783 0.34696615 -0.35067633 -0.06396408 -0.39974847 1.1890621
-1.1529863 0.23781627 0.32591122 -0.31496418 1.4650152 0.32102108 0.28471726 -1.8394384
-1.5254022 0.5431918 0.7578855 0.66696906 -0.040798135 1.1189544 -0.022778742 -0.3852939
0.5299056 -1.5617815 0.27640527 -1.3042486 -0.5383946 0.98399097 -1.3945206 -0.1482867
0.20354901 -0.22490515 -1.0950603 0.60119236 0.22003311 -0.28035182 -0.50588655 -1.3168417
0.5876481 0.17522404 0.03494703 -0.8685597 1.0192837 -0.025789836 -1.2110239 -0.1742151
-0.5305789 0.51881635 -0.41542852 -0.3507065 -0.3624258 0.55326736 -0.23322845 1.0110357
-0.7263999 -0.54600036 0.33126983 1.1616706 0.55418766 0.90909773 0.4255028 -1.2153157
-0.94728637 -0.10461105 0.82212985 1.12716 -0.17843908 1.1207814 -0.8563694 0.29589233
-0.6149509 -0.6961127 0.19410154 -0.7062182 -0.22493982 -0.33414358 0.3398989 0.62811077
-0.42075256 2.059963 -0.82850224 -0.10558757 0.6256679 0.9578686 -1.0530595 -0.07920883
-0.2381215 -0.12889901 0.9991481 0.47865826 0.8572311 0.81934196 -1.278086 1.1804742
1.8879939 1.2722803 -0.23696084 0.8944248 1.1951182 -0.20426168 0.6395867 0.28336892
0.6345699 1.1661443 0.0049860794 0.24950305 0.17364323 0.2439911 -2.9185624 -1.5454319
-1.038493 0.07345274 -0.18160044 0.2817039 -0.8198426 -0.4207145 -0.27910504 -0.06873525
-0.53679293 -0.05110669 0.088395245 -0.8728467 -0.23996373 0.8193498 0.21413833 -0.4387815
0.29285473 0.4126786 0.14953665 -0.22100328 -0.2184064 -0.24829824 -0.023880588 -0.22972544
0.37894246 -0.25351107 -0.44821694 -0.8128086 0.31381896 0.27112117 -1.9997045 -0.3668347
-1.1619959 0.681619 0.47635794 0.5767349 2.0313118 -0.7049746 1.713132 -1.6179249
-1.0676057 1.1079592 0.25226936 1.1688105 -0.7044307 -0.036030848 0.66368634 -1.2750552
-1.0797818 0.27514827 1.4233669 -1.2854753 -0.016451187 0.54976654 -0.3062868 1.4583924
0.31304455 -0.60638785 -0.78162366 -1.4149877 -0.96928895 1.4709878 0.2132533 -0.20794103
-0.11184178 -0.0822383 -0.18915218 -0.12233489 -1.200112 -0.08520009 0.9605412 1.0563542
00000000: 86c2 0a3f dfb1 72bf 6bde 9cbf c928 9fbe
00000010: 9f64 4f3f 2d75 81bf 261b fdbe 4bfa 47bd
00000020: 45ef 88be 35af aabe 20f5 84bf 6639 a93e
00000030: 080b 80bf 75c6 9abe 37b3 933e 5712 66be
00000040: 0131 a8be 92ae 01bf ab16 8bbf 5cde 643f
00000050: 5e48 aabe 7638 8d3e 362c 863e 7463 2c3f
00000060: 067c 9c3f 3856 963d af87 afbf 1a9e 67be
00000070: 7c16 acbe 4b3d c03f 9030 91bd cab6 903d
00000080: 9c31 1e3f 9a38 d83b 4409 1abe 0f32 653e
00000090: dced b7be 071c e73e dbb0 313f 70a3 523d
000000a0: baa0 25bf a9f9 973e f77f 7abf 96b0 b9be
000000b0: 4a51 e4be 9bcb 9bbd 9a87 39bf 541f 6d3f
000000c0: c661 00be d0c3 b4be 754f 2d3f f493 f43d
000000d0: ba19 6bbe 92c0 37bf 36f0 bb3e e2b8 853e
000000e0: 0d6f 02bf 6b0d 713e d0b6 2ebf a899 edbd
000000f0: 7b53 eabd fb83 bfbe 8215 a23f bad5 b4be
00000100: e6ac a8bf 62c8 3e3f 193a 003f 5a6c 43bf
00000110: 82f0 c3be 6704 fa3f 77b8 16bf 1107 d1be
00000120: bd9b 2d3e c4a7 693f f60e 68bf 8ca5 b13e
00000130: d98b b3be 99ff 82bd d5ab ccbe 3033 983f
00000140: 0e95 93bf 1c86 733e d6dd a63e fc42 a1be
00000150: 9e85 bb3f e05c a43e 76c6 913e b872 ebbf
00000160: 6140 c3bf 9e0e 0b3f c904 423f 7cbe 2a3f
00000170: f21b 27bd e639 8f3f 7c9a babc 3e45 c5be
00000180: e5a7 073f 75e8 c7bf fe84 8d3e 9ef1 a6bf
00000190: 3ad4 09bf d5e6 7b3f a77f b2bf 78d8 17be
000001a0: 276f 503e 894d 66be f02a 8cbf bee7 193f
000001b0: 5c50 613e 468a 8fbe c881 01bf 458e a8bf
000001c0: 1b70 163f ee6d 333e 9e24 0f3d ee59 5ebf
000001d0: e377 823f 3545 d3bc d502 9bbf 7165 32be
000001e0: 05d4 07bf 26d1 043f 0cb3 d4be cd8f b3be
000001f0: e08f b9be eea2 0d3f 70d3 6ebe 9e69 813f
00000200: 58f5 39bf aec6 0bbf 339c a93e 9fb1 943f
00000210: 3edf 0d3f a1ba 683f 81db d93e 778f 9bbf
00000220: 5c81 72bf 513e d6bd 1a77 523f c746 903f
00000230: bcb8 36be c475 8f3f 063b 5bbf 337f 973e
00000240: 6c6d 1dbf 7134 32bf 8ec2 463e b7ca 34bf
00000250: a056 66be de14 abbe 3b07 ae3e decb 203f
00000260: e16c d7be 6fd6 0340 b918 54bf 4c3e d8bd
00000270: c62b 203f e036 753f a7ca 86bf 3d38 a2bd
00000280: 1fd6 73be 1afe 03be 2bc8 7f3f b212 f53e
00000290: 7f73 5b3f 65c0 513f 5298 a3bf c719 973f
000002a0: c9a9 f13f 15da a23f dda5 72be 06f9 643f
000002b0: a2f9 983f f929 51be f4bb 233f bb15 913e
000002c0: 2c73 223f 3744 953f 4462 a33b ba7d 7f3e
000002d0: 88cf 313e ced8 793e bac9 3ac0 b6d0 c5bf
000002e0: 57ed 84bf 646e 963d 77f5 39be 7e3b 903e
000002f0: 34e1 51bf e467 d7be dbe6 8ebe 11c5 8cbd
00000300: 436b 09bf 4055 51bd 9108 b53d e272 5fbf
00000310: 0db9 75be e9c0 513f 1447 5b3e f8a7 e0be
00000320: 0ef1 953e 9c4a d33e 2320 193e af4e 62be
00000330: eda5 5fbe e541 7ebe 39a1 c3bc 253d 6bbe
00000340: bf04 c23e 34cc 81be b17c e5be 3914 50bf
00000350: e1ac a03e 65d0 8a3e 51f6 ffbf c2d1 bbbe
00000360: 48bc 94bf 957e 2e3f 30e5 f33e e6a4 133f
00000370: 0301 0240 3779 34bf e947 db3f 2a18 cfbf
00000380: 4ea7 88bf 9bd1 8d3f 7329 813e 959b 953f
00000390: 9255 34bf 1595 13bd 59e7 293f 0235 a3bf
000003a0: 4a36 8abf 3ce0 8c3e e330 b63f 748a a4bf
000003b0: a4c4 86bc 80bd 0c3f a0d1 9cbe 9aac ba3f
000003c0: 6047 a03e 3c3c 1bbf 7d18 48bf 511e b5bf
000003d0: 5223 78bf 5449 bc3f 135f 5a3e 7eee 54be
000003e0: 4e0d e5bd 8e6c a8bd 1cb1 41be b78a fabd
000003f0: 459d 99bf 637d aebd 07e6 753f 9d36 873f

linear1.bias f4 [30]
-0.433449 0.76029617 -1.0440446 0.46869484 -1.0361745 0.033179626 -0.52800167 -1.6881578
-1.063939 -0.72074074 1.0569043 0.17673314 -0.7659045 -0.90063524 -1.785558 0.22987822
-1.8378931 1.7211547 -0.17636518 1.7714063 -0.6534016 -0.00089508476 -0.21386993 -0.17368908
1.4733434 1.684452 0.465773 0.33713567 -1.3745075 -0.37352064
00000000: 07ed ddbe c5a2 423f 41a3 85bf c5f8 ef3e
00000010: 5ea1 84bf 5ce7 073d 1e2b 07bf 8e15 d8bf
00000020: 272f 88bf 7782 38bf a448 873f 88f9 343e
00000030: 5112 44bf 0890 66bf 2a8d e4bf 3265 6b3e
00000040: 1540 ebbf cc4e dc3f 1399 34be 71bd e23f
00000050: 5445 27bf 1fa4 6aba b800 5bbe 8ddb 31be
00000060: 8496 bc3f 209c d73f cc79 ee3e 0c9d ac3e
00000070: ddef afbf 193e bfbe

linear2.weight f4 [15, 30]
0.34595883 0.6184128 0.6163299 0.80796146 0.9421093 -1.6454735 -0.3335511 -0.39097306
0.73231745 -0.2362132 0.913036 0.35988012 0.20706971 -1.2887791 1.1075957 0.5204588
0.7531254 -0.480141 -0.44421583 -0.5242514 1.3074796 -1.0963647 1.6125209 -0.5875054
1.6357397 -1.0843467 -1.7949162 -0.08814702 0.47532436 -0.012310507 0.25882345 -0.12765035
-1.0642606 0.47318277 -1.0637232 0.9292773 0.17139135 -0.65512735 0.15652978 -0.88848704
-0.6009526 -0.5534209 -1.7384562 -1.1021662 -0.3277227 -0.6828901 -0.5497193 -0.21664754
0.2493191 2.0330222 -0.3045907 0.87004673 -0.084582575 -1.4689775 1.5351421 0.9111955
-0.26309937 -0.31654 0.45564634 0.20759979 1.0132306 0.22584261 1.3043752 -0.84245265
-0.6068732 0.41989994 0.9076623 -0.5670036 -2.2249649 0.97718114 -0.15828432 1.4482442
-1.4837624 0.27860513 -1.3441732 -0.30466682 0.059983734 -0.29860544 -1.4360434 0.29625088
-0.28761813 -0.49243316 0.94973385 -0.2643263 -0.3769559 1.6329772 1.1169697 -0.9322851
-1.0638225 -0.07284993 0.13158837 1.4620099 -1.5244415 1.0294833 0.08770828 0.13010703
-0.8722978 0.50173813 -1.1574606 -0.11899475 1.5338933 1.1448442 -0.6812802 0.2023144
-1.2288175 0.21233572 -1.877846 1.7387147 1.1397655 0.95760643 -1.9019719 -0.16485053
-0.5127568 -1.009818 0.31288317 -0.780549 0.57788384 1.3166177 -1.1297579 1.5238566
-0.04041501 0.86825204 -1.4531255 0.9740679 -0.6924589 -0.65262306 -1.436102 -2.158911
0.25135642 -0.8553849 0.52513355 0.9309184 0.9250474 0.42647663 -0.16202788 -0.30852622
-0.95961416 0.37400872 0.1672629 -0.80180615 0.9280693 -1.3057884 -1.0870887 1.1186769
-0.38479298 0.4974917 -0.33706555 0.05834846 -0.6723747 -1.0116677 -0.3540804 1.5029329
-0.09619583 2.376071 -1.0732999 -0.5089083 0.4737541 -0.14248651 -0.16775584 -0.7656483
0.54214966 -0.3268865 -0.5472504 -0.22476074 -1.2404454 0.20804799 -0.5030639 0.7247842
-0.0039537507 1.4111675 -1.0458266 1.919673 -0.09906478 -1.1298196 1.4255389 0.37858495
1.008755 1.0707636 -0.7956153 -1.4823458 0.03209041 0.43349144 -0.68005353 0.85352266
-0.8082364 0.3248996 1.0871338 0.5189334 0.98592585 0.69458044 -0.8629398 1.4360584
-1.0408417 -1.1784972 -0.6501844 -0.9559633 -0.39397484 -0.8980178 -1.0148335 0.19658378
-0.25960785 -0.8534486 -0.028704334 0.44664606 -0.6928599 -0.52137816 2.1675255 0.2943671
1.1912562 -0.12343889 0.5938905 -0.97738993 -0.3717186 -0.46508828 0.57842535 -0.37066972
-1.0395961 0.95517474 0.57729447 -0.9882329 -0.5099056 0.3084462 0.1912298 -1.7769344
0.4267551 0.024347108 -0.31860194 0.66674006 0.5936714 1.1802782 0.22935027 -1.8584605
1.7356423 0.46556014 -0.49907973 0.87620974 -0.9843428 2.081499 0.15053289 0.39169982
-0.35738763 -0.31679475 0.7137456 -1.6840645 -1.6294674 0.7088305 0.4208261 -0.03285867
0.5647856 0.7496028 1.5517615 -0.17170633 1.1900777 -0.6789731 1.0368272 -0.7793205
00000000: 8421 b13e 4d50 1e3f ccc7 1d3f 90d6 4e3f
00000010: 132e 713f e09e d2bf 36c7 aabe 9f2d c8be
00000020: 2879 3b3f e0e1 71be babc 693f 3542 b83e
00000030: 150a 543e b7f6 a4bf b2c5 8d3f ca3c 053f
00000040: d4cc 403f 0bd5 f5be 4270 e3be 5735 06bf
00000050: 7e5b a73f ae55 8cbf 1667 ce3f c166 16bf
00000060: eb5f d13f dfcb 8abf d0bf e5bf 6d86 b4bd
00000070: b75d f33e 02b2 49bc 8284 843e c6b6 02be
00000080: b139 88bf 0345 f23e 1528 88bf 1ee5 6d3f
00000090: 3781 2f3e 6db6 27bf 5849 203e e373 63bf
000000a0: 08d8 19bf feac 0dbf bc85 debf c813 8dbf
000000b0: 45cb a7be e3d1 2ebf 67ba 0cbf dad8 5dbe
000000c0: 824d 7f3e 091d 0240 50f3 9bbe 62bb 5e3f
000000d0: a139 adbd 7407 bcbf 897f c43f 1c44 693f
000000e0: f6b4 86be 8811 a2be 7a4a e93e 0a95 543e
000000f0: 8ab1 813f 4943 673e c4f5 a63f faaa 57bf
00000100: 0b5c 1bbf 20fd d63e 8e5c 683f 2627 11bf
00000110: d365 0ec0 8b28 7a3f 4915 22be 1160 b93f
00000120: edeb bdbf 55a5 8e3e de0d acbf 4afd 9bbe
00000130: 81b1 753d d0e2 98be 45d0 b7bf 32ae 973e
00000140: af42 93be 3320 fcbe c221 733f c755 87be
00000150: 5d00 c1be 6605 d13f ddf8 8e3f 3caa 6ebf
00000160: 562b 88bf 5832 95bd 1abf 063e 2423 bb3f
00000170: e620 c3bf 1cc6 833f 66a0 b33d c73a 053e
00000180: e94e 5fbf e971 003f ab27 94bf 85b3 f3bd
00000190: 9e56 c43f 418a 923f 6168 2ebf 822b 4f3e
000001a0: e449 9dbf 896e 593e 425d f0bf 348e de3f
000001b0: d6e3 913f b225 753f d173 f3bf 94ce 28be
000001c0: 0844 03bf b741 81bf 3932 a03e 0fd2 47bf
000001d0: 32f0 133f ee86 a83f e89b 90bf bc0d c33f
000001e0: 368a 25bd c445 5e3f 0400 babf 845c 793f
000001f0: fd44 31bf 4e12 27bf 31d2 b7bf 992b 0ac0
00000200: cab1 803e 81fa 5abf 276f 063f ab50 6e3f
00000210: e8cf 6c3f 255b da3e a3ea 25be 26f7 9dbe
00000220: 46a9 75bf 127e bf3e f746 2b3e 2b43 4dbf
00000230: f395 6d3f 1324 a7bf b925 8bbf ce30 8f3f
00000240: 9603 c5be 3bb7 fe3e db93 acbe cbfe 6e3d
00000250: c020 2cbf 547e 81bf 074a b5be 1b60 c03f
00000260: 5202 c5bd 8c11 1840 e461 89bf d047 02bf
00000270: e68f f23e fce7 11be 30c8 2bbe 8701 44bf
00000280: 52ca 0a3f ab5d a7be 9a18 0cbf ae27 66be
00000290: eac6 9ebf 880a 553e ccc8 00bf 758b 393f
000002a0: 778e 81bb 23a1 b43f a5dd 85bf d8b7 f53f
000002b0: 7ae2 cabd ee9d 90bf 0f78 b63f e3d5 c13e
000002c0: e21e 813f c80e 893f 72ad 4bbf 82bd bdbf
000002d0: 3c71 033d 97f2 dd3e fd17 2ebf 7680 5a3f
000002e0: 95e8 4ebf 3e59 a63e 3327 8b3f d2d8 043f
000002f0: a365 7c3f 06d0 313f 9fe9 5cbf c3d0 b73f
00000300: 4d3a 85bf ffd8 96bf 7c72 26bf 03ba 74bf
00000310: 12b7 c9be 7fe4 65bf 10e6 81bf 424d 493e
00000320: 52eb 84be 9c7b 5abf 5a25 ebbc cbae e43e
00000330: 445f 31bf 0a79 05bf bdb8 0a40 49b7 963e
00000340: 157b 983f 87cd fcbd 3509 183f 3a36 7abf
00000350: e651 bebe 0d20 eebe af13 143f 6cc8 bdbe
00000360: 7c11 85bf 5586 743f 92c9 133f d5fc 7cbf
00000370: 2c89 02bf a9ec 9d3e bfd1 433e 9672 e3bf
00000380: a57f da3e 9673 c73c cb1f a3be 7aaf 2a3f
00000390: d9fa 173f 5b13 973f ccda 6a3e 09e2 edbf
000003a0: 8729 de3f e65d ee3e 6187 ffbe 484f 603f
000003b0: e4fd 7bbf 4837 0540 4b25 1a3e e18c c83e
000003c0: 83fb b6be ec32 a2be 08b8 363f 6d8f d7bf
000003d0: 6392 d0bf ea75 353f 8576 d73e d096 06bd
000003e0: ca95 103f f8e5 3f3f 1fa0 c63f c9d3 2fbe
000003f0: 7754 983f 2ed1 2dbf c1b6 843f 8c81 47bf

linear2.bias f4 [15]
-0.3057995 0.8838928 0.40721107 0.7824045 -0.0857298 0.9545997 -0.03872246 -0.16670655
-0.43578732 -0.040266063 -0.45159864 0.051036973 -0.11684693 -1.190355 -0.012506072
00000000: c191 9cbe cc46 623f f87d d03e a94b 483f
00000010: 1b93 afbd a560 743f 719b 1ebd 1fb5 2abe
00000020: 841f dfbe 07ee 24bd f037 e7be 250c 513d
00000030: 714d efbd 8d5d 98bf 45e6 4cbc

linear3.weight f4 [8, 15]
2.0951226 -1.631208 -3.270715 0.1580238 2.992487 -3.9137244 1.915402 1.8071179
2.2789192 -3.2480795 -0.84368545 2.0161505 -2.1938539 0.3495122 4.695928 1.7866769
1.600756 0.27611998 -2.3306856 -3.2551868 -2.3023224 -0.43207785 -2.1608236 -1.3644314
-1.6449571 -0.5375342 0.92559135 -0.43194866 3.3563163 -3.0440943 3.0868757 2.1644728
2.1179583 -0.085539125 -3.8590863 1.2833732 -4.1134725 -0.11565972 6.230071 -3.6916425
2.4323156 -0.82958215 -0.89051735 -0.026650488 1.617174 -0.570263 2.006912 0.054930124
0.6814736 4.7536197 3.2392375 0.21484895 -0.4649454 -1.5365806 2.802232 2.2581835
-4.871529 -1.0324515 1.8025001 -1.9107891 -0.47227108 1.5484605 -0.34084326 -0.22641411
-1.0752335 2.7663548 -0.026573027 -0.66874003 -2.610288 1.7074959 -2.8378332 1.291164
-1.7970393 -0.44953954 -1.1272029 -3.4440227 -3.7763195 -0.42811698 -4.222519 -1.7899985
-1.6982285 2.690442 0.9025965 1.4258599 0.6532309 1.9709823 -1.3848635 -1.7479852
-1.9461817 1.9933519 1.4970007 1.4166389 -2.188678 4.1094217 4.1744423 -0.17205621
-5.242926 4.17812 -2.8505423 2.864688 -0.83733684 -1.5272579 5.5071087 -1.4794387
-3.9670477 -1.8408965 -1.3540864 4.6835217 1.6605147 -0.6717826 -1.1499798 -0.87434703
-1.9217306 -1.196598 0.029587466 -2.1084096 2.937468 5.887303 -0.8497797 -0.9411428
00000000: 7d16 0640 6ccb d0bf 6553 51c0 fed0 213e
00000010: e884 3f40 767a 7ac0 e52b f53f a44f e73f
00000020: d0d9 1140 89e0 4fc0 c5fb 57bf 9c08 0140
00000030: 1a68 0cc0 43f3 b23e 0b45 9640 d4b1 e43f
00000040: 93e5 cc3f 995f 8d3e f429 15c0 fb54 50c0
00000050: 4059 13c0 4f39 ddbe ef4a 0ac0 b0a5 aebf
00000060: f48d d2bf d79b 09bf 8ef3 6c3f 6028 ddbe
00000070: e3cd 5640 71d2 42c0 5f8f 4540 b986 0a40
00000080: a18c 0740 232f afbd 45fb 76c0 9345 a43f
00000090: 91a1 83c0 01df ecbd be5c c740 df43 6cc0
000000a0: 0fab 1b40 7f5f 54bf f2f8 63bf 2052 dabc
000000b0: 8fff ce3f c2fc 11bf 3f71 0040 69fe 603d
000000c0: 0e75 2e3f a71d 9840 ab4f 4f40 5d01 5c3e
000000d0: 530d eebe acae c4bf c557 3340 1486 1040
000000e0: 91e3 9bc0 5f27 84bf 53b8 e63f bd94 f4bf
000000f0: 84cd f1be f433 c63f 0283 aebe 1ad9 67be
00000100: 40a1 89bf f50b 3140 adaf d9bc 8c32 2bbf
00000110: f50e 27c0 3a8f da3f 0f9f 35c0 dd44 a53f
00000120: 6205 e6bf 0c2a e6be 2f48 90bf de6a 5cc0
00000130: 38af 71c0 2632 dbbe e01e 87c0 ac1e e5bf
00000140: 8d5f d9bf 3430 2c40 9010 673f 9482 b63f
00000150: 243a 273f 2649 fc3f 3543 b1bf fbbd dfbf
00000160: 7b1c f9bf 2826 ff3f b89d bf3f 6c54 b53f
00000170: 4d13 0cc0 6280 8340 0895 8540 812f 30be
00000180: 0dc6 a7c0 29b3 8540 496f 36c0 0c57 3740
00000190: b55b 56bf 307d c3bf 3c3a b040 3f5e bdbf
000001a0: 1ce4 7dc0 7fa2 ebbf b452 adbf 69df 9540
000001b0: bf8b d43f f2f9 2bbf 8a32 93bf 35d5 5fbf
000001c0: 45fb f5bf 202a 99bf 6a61 f23c 2ff0 06c0
000001d0: 7aff 3b40 c964 bc40 2a8b 59bf bcee 70bf

linear3.bias f4 [8]
1.2830794 0.066950336 -0.76283985 -0.5650265 -1.9337078 0.6642537 0.7197503 -0.33602464
00000000: f23b a43f 421d 893d 7949 43bf 94a5 10bf
00000010: bd83 f7bf 880c 2a3f 8e41 383f 6c0b acbe
