Assignment_1/Task_2b/model_weights_delta.pth (torch, 72855 bytes, 6 tensors)

linear1.weight f4 [256, 60]
0.09792187 -0.08598468 -0.05850109 0.018371996 0.058925718 -0.14543308 -0.13326935 0.0037627749
-0.0064309468 -0.017667279 -0.13295676 0.118686005 0.019857345 -0.1366926 0.15262425 0.05335436
0.05661956 -0.08561656 -0.038702868 -0.09331136 -0.019532608 -0.043757796 -0.046828978 -0.14087069
0.10581166 0.022963341 -0.022664545 -0.08565276 0.06334292 -0.07158345 0.11685616 0.067290954
-0.027593167 -0.06351947 -0.06668141 0.087698445 -0.15891623 -0.020520383 0.11851723 -0.081497215
0.12546027 0.068241134 -0.094647415 -0.09457584 0.06311905 -0.08756573 0.0060575525 0.048108354
-0.05554273 0.14129338 0.008730968 0.090372525 0.06864654 -0.021210503 0.11837916 0.011003319
-0.13160937 -0.0829754 0.03203244 0.004288185 -0.019472348 -0.08248215 0.009536761 -0.05083574
-0.0982476 0.12208192 0.13932943 -0.07979827 -0.10433256 0.07606659 -0.10459465 -0.008484897
-0.07652664 -0.07047085 -0.20243262 -0.09683661 -0.10902767 0.02844673 -0.10031565 0.007856379
-0.10226377 -0.11341359 0.1334775 -0.023825858 0.035914853 0.04536117 -0.015174274 -0.10704901
-0.11794026 0.08465426 0.060083076 0.07553804 -0.1323293 0.07938032 0.113802314 -0.096073866
-0.09267829 0.102358155 -0.1193938 0.06431144 0.025103513 0.099262364 -0.045285664 -0.05154896
-0.04906038 -0.11953134 -0.098254964 0.12745564 0.01907134 0.011010701 -0.037946157 -0.10390094
-0.104191795 -0.10500579 -0.09358978 -0.14354086 0.14802581 0.12000282 -0.11696881 0.039899047
-0.02774989 0.05343262 -0.09983912 0.06457178 0.018041918 0.041248288 -0.16647139 -0.08191056
0.079626985 -0.10705746 -0.04111481 0.045684233 0.13703209 0.064040855 -0.010666055 0.09647299
-0.14249605 0.05154119 0.030543547 0.044818897 0.12172333 -0.08292908 -0.0815351 0.113798745
-0.12959167 0.09467963 -0.09730273 -0.038993165 -0.010273697 -0.024560608 -0.02150473 0.10781998
-0.043559827 0.07443451 0.084728196 0.108166315 0.007571479 -0.029041996 -0.044980578 -0.028620332
0.087200984 -0.09391609 -0.010754937 0.086536534 -0.045685235 0.14048304 -0.035747603 0.097375736
0.077057876 0.03828313 -0.10383196 0.0466065 -0.033302937 -0.13319966 0.019071814 -0.0030832493
0.02880323 0.067504995 -0.020310903 -0.1099298 -0.04936947 0.012760414 -0.05948564 0.065651596
-0.102692 0.103055805 0.100455366 0.08280115 0.026769113 -0.033408023 -0.015465175 0.06823021
-0.12819672 -0.018045189 -0.12781493 -0.14922258 -0.007775285 -0.13160537 -0.12625182 -0.11252487
-0.07553148 -0.04490594 0.00069101603 0.069033936 -0.06228789 0.0327789 -0.0049019647 0.06742805
0.052675053 -0.002711792 0.16002278 0.08872199 0.032491807 -0.101194106 0.06636132 0.03411054
-0.098903626 0.068035856 0.06283976 -0.012918759 0.008204467 -0.019286767 0.12190039 -0.040631
0.08783295 -0.09830966 -0.09372051 0.13468598 -0.039310515 0.040208187 -0.011069066 -0.1178823
0.06713169 0.0395438 0.09098402 -0.10952343 -0.0033174208 0.10346253 -0.032290895 -0.10840617
0.038750116 -0.045704804 0.01187008 -0.085991755 -0.083264805 0.17306793 0.13756971 0.03806851
-0.024069032 0.061850533 -0.00579004 -0.062003307 0.0974943 -0.1372374 0.06168409 -0.011639797
00000000: 438b c83d bc18 b0bd d79e 6fbd de80 963c
00000010: 185c 713d 69ec 14be c377 08be e398 763b
00000020: b1ba d2bb f8ba 90bc d125 08be a611 f33d
00000030: dfab a23c 25f9 0bbe 8849 1c3e 1a8a 5a3d
00000040: e9e9 673d bc57 afbd e686 1ebd 071a bfbd
00000050: d902 a0bc 603b 33bd becf 3fbd 6840 10be
00000060: c9b3 d83d 9e1d bc3c ffaa b9bc b76a afbd
00000070: efb9 813d 589a 92bd 4852 ef3d d7cf 893d
00000080: 110b e2bc 7f16 82bd 4390 88bd 3e9b b33d
00000090: f0ba 22be 5d1a a8bc 29b9 f23d 03e8 a6bd
000000a0: a878 003e 02c2 8b3d 81d6 c1bd fab0 c1bd
000000b0: 8f44 813d a955 b3bd 6f7e c63b 440d 453d
000000c0: c680 63bd 36af 103e 560c 0f3c 3b15 b93d
000000d0: 8f96 8c3d a6c1 adbc c670 f23d 4447 343c
000000e0: 9bc4 06be 02ef a9bd 7334 033d e783 8c3b
000000f0: 7984 9fbc 67ec a8bd 1340 1c3c 2339 50bd
00000100: 0a36 c9bd 1606 fa3d 60ac 0e3e 466d a3bd
00000110: 4fac d5bd cdc8 9b3d b835 d6bd 3d04 0bbc
00000120: 00ba 9cbd 0553 90bd 7f4a 4fbe 4652 c6bd
00000130: e649 dfbd 1e09 e93c 4b72 cdbd 0bb8 003c
00000140: ab6f d1bd 6245 e8bd 53ae 083e 722e c3bc
00000150: 741b 133d a2cc 393d 859d 78bc 833c dbbd
00000160: aa8a f1bd 365f ad3d ac19 763d b0b3 9a3d
00000170: 5581 07be 2692 a23d 3011 e93d 60c2 c4bd
00000180: 1ece bdbd 27a1 d13d bd84 f4bd b7b5 833d
00000190: e2a5 cd3c 114a cb3d 767d 39bd 0125 53bd
000001a0: 89f3 48bd d9cc f4bd e639 c9bd bb83 023e
000001b0: 803b 9c3c 3a66 343c 6e6d 1bbd 04ca d4bd
000001c0: 8262 d5bd 470d d7bd 00ac bfbd 60fc 12be
000001d0: 1494 173e 0ac4 f53d 588d efbd 2f6d 233d
000001e0: bd53 e3bc 2adc 5a3d 7478 ccbd 363e 843d
000001f0: a5cc 933c f7f3 283d 7a77 2abe b9c0 a7bd
00000200: 7913 a33d f140 dbbd 0168 28bd 641f 3b3d
00000210: 2452 0c3e da27 833d adc0 2ebc a293 c53d
00000220: 7cea 11be db1c 533d 7636 fa3c 0594 373d
00000230: 154a f93d b9d6 a9bd e0fb a6bd 510f e93d
00000240: aeb3 04be 65e7 c13d a746 c7bd 4cb7 1fbd
00000250: 0253 28bc 5433 c9bc b02a b0bc b9d0 dc3d
00000260: ca6b 32bd 1f71 983d fa85 ad3d 4d86 dd3d
00000270: 2b1a f83b 7be9 edbc 8e3d 38bd 3075 eabc
00000280: 6e96 b23d 1457 c0bd 7a35 30bc 113a b13d
00000290: 7120 3bbd c9da 0f3e 146c 12bd ee6c c73d
000002a0: 85d0 9d3d c5ce 1c3d daa5 d4bd 75e6 3e3d
000002b0: a968 08bd 7e65 08be 7e3c 9c3c 5710 4abb
000002c0: c0f4 eb3c 0f40 8a3d 0d63 a6bc e022 e1bd
000002d0: a437 4abd 0e11 513c 37a7 73bd 5874 863d
000002e0: 2f50 d2bd ec0e d33d 8bbb cd3d a693 a93d
000002f0: e64a db3c dad6 08bd a561 7dbc 48bc 8b3d
00000300: 0046 03be 81d3 93bc ebe1 02be cecd 18be
00000310: d1c7 febb 8fc3 06be 2848 01be 7073 e6bd
00000320: 40b0 9abd 4aef 37bd 4d25 353a aa61 8d3d
00000330: 9621 7fbd 2b43 063d a9a0 a0bb b817 8a3d
00000340: ccc1 573d 52b8 31bb 03dd 233e e0b3 b53d
00000350: 2116 053d db3e cfbd 72e8 873d 7eb7 0b3d
00000360: fc8d cabd 6256 8b3d 22b2 803d 34a9 53bc
00000370: 076c 063c 48ff 9dbc e9a6 f93d b16c 26bd
00000380: c3e1 b33d 9356 c9bd 8af0 bfbd 1feb 093e
00000390: 1004 21bd 57b1 243d 075b 35bc 466c f1bd
000003a0: 577c 893d aef8 213d d455 ba3d d24d e0bd
000003b0: 1669 59bb 2ae4 d33d 7543 04bd 0e04 debd
000003c0: 71b8 1e3d f634 3bbd b97a 423c 721c b0bd
000003d0: bd86 aabd b838 313e 13df 0c3e baed 1b3d
000003e0: 6b2c c5bc fc56 7d3d 60ba bdbb 2ef7 7dbd
000003f0: 17ab c73d f687 0cbe 75a8 7c3d d9b4 3ebc

linear1.bias f4 [256]
-0.010979318 0.00871471 0.0074604703 -0.001971689 -0.00053092034 0.002506052 -0.0010406438 0.0057983273
0.010812575 -0.008520759 0.0031723592 -0.013022023 4.6578953e-05 0.004475584 -0.00069047033 -0.00022485523
-0.006890669 0.00851752 0.00043126944 0.007633427 0.00079404505 -0.0001367016 -0.003199005 -0.0010085517
0.00027884814 7.4525474e-06 3.9864502e-05 -0.00093595893 -0.0010021167 -0.0012463604 -0.021236733 -5.105549e-06
-0.00056496076 0.00078027096 0.002422695 -0.020300107 0.019192679 0.009230329 -0.010267543 0.005908431
0.00010384233 0.0020349307 -0.0006829641 -0.001853781 -0.0035277915 -2.306866e-05 -0.0031098411 0.0003211957
-3.8031943e-05 -0.0073594195 0.0055710585 0.0005685271 -0.0033405914 0.0012809114 0.0015869385 -0.006383656
0.00046589627 -0.006839803 0.007188631 -0.0010243561 0.010935568 -0.004294915 0.004298214 -0.0006400783
-0.0011089554 0.010156901 0.003860815 -3.8852384e-05 0.008467049 -0.0046926658 0.00049926504 -0.00020616074
0.0006075704 -0.00034011866 0.01436967 0.0005459927 0.003228546 0.0007079973 -0.0001264649 -9.869172e-05
-0.0051930747 0.0007010777 0.0008450321 -3.1402153e-05 -0.0059647094 0.00022360026 -0.000115428695 0.0005334053
-0.0001573064 0.0058013275 -0.0038645656 0.006022774 0.019259641 -0.0013053836 -0.0010187739 -0.00015600749
0.0035284255 -0.0031620346 -0.00041131792 2.3770195e-05 -0.018090004 -0.0066712676 -0.0013345203 3.1590684e-05
0.0010341622 0.0031698677 0.0020952588 0.0034355123 -0.0018715856 0.0006874358 0.002425415 -0.00014303916
0.0022083735 0.0035883407 0.0022676603 0.0028167807 -0.0011513832 1.33092535e-05 9.486462e-05 -0.0006496458
0.002005761 -0.0009099599 -5.408306e-05 0.009767385 0.019635879 -0.0103837615 0.004311049 3.4680681e-06
0.0104208095 -0.002324627 0.012962452 -0.0034118313 0.006298237 -0.008176137 0.0035241817 -0.016233994
0.0013679969 -0.008585968 -7.787667e-05 0.001944776 0.0019378979 -0.000105979416 0.010210345 -0.004730638
0.00021971289 -0.00015503651 -0.001044575 0.0009542804 0.0034292706 0.007136986 -0.00017581365 0.0041936003
0.00036023938 5.512889e-05 0.003331232 -2.5610216e-05 -0.0035012707 0.007342077 0.0016459377 -0.0003785654
0.0006944987 3.560862e-05 3.7080665e-06 -0.00013122217 0.0019423205 -5.1922023e-05 0.0022726792 0.0001628429
-0.002344832 -0.00035672923 0.012181531 0.0025380116 0.014180252 -0.00078321854 -0.008144829 -0.002135208
0.0005786343 0.0001421542 0.000673927 -4.526306e-06 0.0070379614 0.012736725 0.00019769632 5.9481208e-05
-0.0009378823 0.0006570051 -0.00035408585 -8.891256e-05 -0.0006671034 -0.0047222283 0.00065135746 -0.00010133998
-4.444212e-05 0.010554098 0.0045618354 0.0065042805 0.002829318 -0.009113263 0.0024577698 0.0016984509
0.0153922 0.01031455 0.016770924 -0.0045922133 0.0017720195 -0.0029296654 -4.919124e-05 -0.00031484402
-0.0015890242 -4.201293e-06 0.0029555561 -0.009299343 0.001446939 0.0010838374 0.0028758373 0.00096100656
0.0025281387 -0.011731496 -0.00011767717 0.0006802682 -2.8489227e-05 0.016377684 0.009747203 -0.010472837
-0.0020427273 -0.0044297134 0.0013734725 0.0010334186 -0.0011485148 -0.0003885521 -0.0021271468 -0.0047528087
-0.00037002118 -0.0018754028 3.7399754e-05 -0.0008435979 -0.0012413703 0.01459013 0.0042603295 0.006943477
0.0062467456 -0.0003863244 -1.3404987e-05 0.010888817 0.011369544 -0.0018764703 -0.0017920953 -0.00021100843
-0.0021342658 0.00040179625 0.010224612 0.0075688083 0.0016223694 -0.0050399313 0.0029056878 1.9225372e-05
00000000: 99e2 33bc 25c8 0e3c f676 f43b 7437 01bb
00000010: 762d 0bba 933c 243b 3666 88ba e5ff bd3b
00000020: 3a27 313c a79a 0bbc 5be7 4f3b 535a 55bc
00000030: c55d 4338 eba7 923b ae00 35ba 1ec7 6bb9
00000040: 1fcb e1bb 118d 0b3c 011c e239 d421 fa3b
00000050: 7627 503a 8e57 0fb9 66a6 51bb 6131 84ba
00000060: 5d32 9239 e510 fa36 2f34 2738 245b 75ba
00000070: 7559 83ba ea5c a3ba a8f8 adbc 5550 abb6
00000080: e019 14ba 198b 4c3a 14c6 1e3b 694c a6bc
00000090: f739 9d3c ce3a 173c 3239 28bc 839b c13b
000000a0: edc5 d938 795c 053b f208 33ba 92fa f2ba
000000b0: 8532 67bb 9283 c1b7 7ace 4bbb 2866 a839
000000c0: 7d84 1fb8 4927 f1bb 6d8d b63b 3509 153a
000000d0: d3ed 5abb 41e4 a73a d200 d03a fd2d d1bb
000000e0: 8a43 f439 6d20 e0bb 9c8e eb3b b043 86ba
000000f0: 192b 333c 5cbc 8cbb 08d8 8c3b edca 27ba
00000100: 5e5a 91ba 2169 263c ba05 7d3b 6ef5 22b8
00000110: 61b9 0a3c efc4 99bb 1ce1 023a da2c 58b9
00000120: 5c45 1f3a f451 b2b9 c46e 6b3c f320 0f3a
00000130: 0396 533b e598 393a aa9b 04b9 b7f8 ceb8
00000140: ab2a aabb 87c8 373a 2585 5d3a ceb5 03b8
00000150: 9c73 c3bb 3d76 6a39 4f12 f2b8 39d4 0b3a
00000160: 9df2 24b9 1019 be3b a744 7dbb b15a c53b
00000170: 65c6 9d3c 6819 abba 6188 85ba f195 23b9
00000180: 283d 673b 233a 4fbb 28a6 d7b9 1b66 c737
00000190: 7d31 94bc a69a dabb 12eb aeba 3d80 0438
000001a0: ba8c 873a 8ebd 4f3b 9c50 093b 5526 613b
000001b0: fe4f f5ba 0935 343a b6f3 1e3b c8fc 15b9
000001c0: 5cba 103b 5e2a 6b3b 079d 143b bd99 383b
000001d0: 02ea 96ba cf4a 5f37 0ef2 c638 fe4c 2aba
000001e0: 1673 033b 608a 6eba 3ed7 62b8 6207 203c
000001f0: 6cdb a03c a720 2abc b343 8d3b f5bc 6836
00000200: 0bbc 2a3c c558 18bb 7760 543c 0899 5fbb
00000210: 7161 ce3b 34f5 05bc f5f5 663b 27fd 84bc
00000220: 5c4e b33a 29ac 0cbc b851 a3b8 dbe7 fe3a
00000230: 1001 fe3a 4441 deb8 4a49 273c 7803 9bbb
00000240: bb62 6639 4c91 22b9 1fea 88ba ac28 7a3a
00000250: 9dbd 603b 61dd e93b 9e5a 38b9 786a 893b
00000260: 83de bc39 323a 6738 cc50 5a3b 85d5 d6b7
00000270: 9375 65bb ce95 f03b 81bc d73a 307a c6b9
00000280: 050f 363a 775a 1538 19d8 7836 af98 09b9
00000290: 7695 fe3a d9c6 59b8 3bf1 143b cfc0 2a39
000002a0: c1ab 19bb 6307 bbb9 0b95 473c c554 263b
000002b0: 4a54 683c e850 4dba e471 05bc d9ee 0bbb
000002c0: 7eaf 173a 3a0f 1539 7aaa 303a ace0 97b6
000002d0: b39e e63b b2ad 503c b44c 4f39 767b 7938
000002e0: 37dc 75ba de3a 2c3a 99a4 b9b9 9176 bab8
000002f0: 8de0 2eba ecbc 9abb dcbf 2a3a 7d86 d4b8
00000300: 5d67 3ab8 18eb 2c3c 737b 953b dc21 d53b
00000310: 146c 393b cc4f 15bc 8912 213b 8e9e de3a
00000320: 912f 7c3c 5cfe 283c 2d63 893c 477a 96bb
00000330: 1c43 e83a a1ff 3fbb b152 4eb8 a611 a5b9
00000340: ce46 d0ba d5f8 8cb6 01b2 413b 465c 18bc
00000350: 37a7 bd3a 8c0f 8e3a 8b78 3c3b 0fec 7b3a
00000360: 21af 253b 7635 40bc 73c9 f6b8 0754 323a
00000370: 26fc eeb7 7e2a 863c bcb2 1f3c 4396 2bbc
00000380: 47df 05bb 2127 91bb 1706 b43a c673 873a
00000390: c389 96ba 94b6 cbb9 9a67 0bbb 73bd 9bbb
000003a0: 67ff c1b9 13d0 f5ba aedd 1c38 e624 5dba
000003b0: 7ab5 a2ba 710b 6f3c 3c9a 8b3b 1b86 e33b
000003c0: 80b1 cc3b 958b cab9 fbe5 60b7 0267 323c
000003d0: 5347 3a3c e5f3 f5ba bde4 eaba 2542 5db9
000003e0: 0adf 0bbb 2ea8 d239 2285 273c c403 f83b
000003f0: afa5 d43a 0226 a5bb 5a6d 3e3b 2c46 a137

linear2.weight f4 [8, 256]
0.09113869 -0.092339255 -0.04945549 0.0797798 0.15236798 -0.20775115 -0.11736897 0.033168197
-0.058776177 -0.073024094 -0.096328296 0.06236633 0.0319319 -0.1689028 0.10413601 0.047220245
-0.005014045 -0.08671576 -0.064977616 -0.07544717 -0.0085617695 -0.057255015 -0.04898212 -0.13964376
0.13806644 0.037141062 -0.03572376 -0.1018523 0.15090576 -0.072384536 0.20830412 0.052418035
-0.045146387 -0.066452846 -0.08408888 0.11917976 -0.12318608 -0.04633507 0.1052897 -0.0914091
0.15519497 0.1025159 -0.08349813 -0.07484026 0.08522776 -0.10852985 -0.032164164 0.05329584
-0.051195275 0.15051982 0.02563465 0.104666606 0.122696854 -0.01965212 0.13721733 0.016920172
-0.16910014 -0.07957262 0.023433449 -0.013258672 0.055414144 -0.06608029 0.013670992 -0.08921468
-0.101510204 0.16153443 0.057972196 -0.054787654 -0.18180008 0.09148788 -0.12571873 0.038504682
-0.08828236 -0.10358437 -0.146381 -0.085927635 -0.120628834 0.02901521 -0.09116691 -0.008351016
-0.17868501 -0.115816906 0.107782505 -0.017714012 0.0104689095 0.07210942 -0.02299351 -0.106469356
-0.14164755 0.103391394 0.03783974 0.036518544 -0.16611768 0.111582816 0.124993086 -0.084353946
-0.120669134 0.14189883 -0.13232586 0.06423522 0.020854654 0.049688954 -0.02432426 -0.03663401
-0.060520846 -0.121073596 -0.08027523 0.21357365 0.016252307 0.030296205 -0.024057947 -0.13942665
-0.11412501 -0.13169183 -0.109868355 -0.15428826 0.16052152 0.14372106 -0.13425758 0.02533089
-0.017280469 -0.001248775 -0.12338637 0.08269721 0.05980325 0.07431188 -0.16690704 -0.09410867
0.05249842 -0.11993947 -0.037956703 0.072204314 0.07705391 0.015820714 0.010189609 0.11049718
-0.1721339 0.073089465 0.03198654 0.120333776 0.13646385 -0.0907831 -0.06276643 0.15002665
-0.098377585 0.08107705 -0.1178405 -0.06913195 -0.065122314 -0.0043940833 0.0018138484 0.11801588
-0.0420544 0.079497844 0.107367255 0.11867518 0.02165531 -0.08612947 -0.02521979 0.006304509
0.09258908 -0.11812418 -0.014190463 0.12124243 -0.08153815 0.14982858 -0.0810248 0.10889171
0.026494244 -0.003319457 -0.07838319 0.036245845 -0.058858912 -0.15947482 0.10031562 0.024882315
0.008452585 0.0900095 -0.0055618593 -0.08881309 0.04384979 -0.015503301 -0.12540543 0.073610924
-0.10828304 0.07914131 0.08315534 0.10232837 0.0073853256 -0.048785176 -0.00023986118 0.070667215
-0.123309575 0.00026742305 -0.120347954 -0.13745861 0.035764758 -0.14165817 -0.071076445 -0.14514506
-0.08848391 -0.031708058 -0.06781115 0.03970742 -0.094626576 0.037200507 0.006688058 0.084994994
0.07902527 0.015832566 0.13685906 0.12807643 0.005446397 -0.11499679 0.07065357 0.08037986
-0.12999532 0.13298525 0.069255404 -0.012936515 0.028836256 -0.054646306 0.111379325 -0.02887854
0.11411818 -0.09940527 -0.0751259 0.15219401 -0.048024785 0.06690062 -0.016607102 -0.14597176
0.048740868 0.039378904 0.08317855 -0.11618117 0.0018174389 0.14126793 -0.05991094 -0.11134252
-0.0028429986 -0.037577994 -0.000355876 -0.12231127 -0.14568032 0.1546251 0.16478679 0.048950292
0.0062718163 0.0926477 -0.10692472 -0.06747588 0.15138721 -0.16572942 0.0370651 -0.0057505537
00000000: eca6 ba3d 5d1c bdbd d791 4abd 9763 a33d
00000010: 5a06 1c3e b8bc 54be 245f f0bd 60db 073d
00000020: 4abf 70bd a88d 95bd c547 c5bd d673 7f3d
00000030: 06cb 023d dbf4 2cbe 4345 d53d 046a 413d
00000040: dc4c a4bb 0898 b1bd fc12 85bd 0c84 9abd
00000050: aa46 0cbc 3c84 6abd 7aa1 48bd c6fe 0ebe
00000060: 4a61 0d3e 3a21 183d 1453 12bd f097 d0bd
00000070: 0a87 1a3e 583e 94bd ad4d 553e 4bb4 563d
00000080: 6beb 38bd 6e18 88bd ca36 acbd 8514 f43d
00000090: fc48 fcbd d8c9 3dbd 20a2 d73d b234 bbbd
000000a0: 6eeb 1e3e dbf3 d13d 1101 abbd da45 99bd
000000b0: e48b ae3d e644 debd 92be 03bd bd4c 5a3d
000000c0: 23b2 51bd de21 1a3e c2ff d13c 725b d63d
000000d0: 7d48 fb3d 7cfd a0bc b382 0c3e 2c9c 8a3c
000000e0: 9628 2dbe f8f6 a2bd 81f7 bf3c e73a 59bc
000000f0: f1f9 623d 1a55 87bd 4cfc 5f3c 30b6 b6bd
00000100: 95e4 cfbd 4869 253e 4174 6d3d 0569 60bd
00000110: cd29 3abe ff5d bb3d 69bc 00be 16b7 1d3d
00000120: 62cd b4bd 0b24 d4bd e7e4 15be d4fa afbd
00000130: 400c f7bd 4eb1 ed3c b8b5 babd b3d2 08bc
00000140: 34f9 36be 6a31 edbd 13bd dc3d fa1c 91bc
00000150: ca85 2b3c 1bae 933d e35c bcbc 9b0c dabd
00000160: 0e0c 11be debe d33d d8fd 1a3d 7894 153d
00000170: c11a 2abe 8885 e43d 60fc ff3d c3c1 acbd
00000180: 6121 f7bd ed4d 113e 6e80 07be c18d 833d
00000190: 61d7 aa3c a586 4b3d ac43 c7bc 8b0d 16bd
000001a0: b5e4 77bd 6ff5 f7bd 5767 a4bd 0db3 5a3e
000001b0: 8f23 853c bf2f f83c 2c15 c5bc dcc5 0ebe
000001c0: 60ba e9bd 39da 06be a902 e1bd befd 1dbe
000001d0: c15f 243e 9d2b 133e d27a 09be ba82 cf3c
000001e0: c58f 8dbc f0ad a3ba feb1 fcbd 285d a93d
000001f0: 41f4 743d d430 983d aee9 2abe 0cbc c0bd
00000200: 9508 573d d3a2 f5bd 7d78 1bbd dbdf 933d
00000210: 71ce 9d3d 719a 813c 51f2 263c 584c e23d
00000220: de43 30be eeaf 953d 5104 033d 8e71 f63d
00000230: 2ebd 0b3e 7dec b9bd b08b 80bd 96a0 193e
00000240: 307a c9bd b90b a63d 5c56 f1bd 0d95 8dbd
00000250: d95e 85bd 3efc 8fbb a7be ed3a 4fb2 f13d
00000260: 3c41 2cbd c4cf a23d 5de3 db3d f90b f33d
00000270: 7a66 b13c a664 b0bd bc99 cebc 0e96 ce3b
00000280: 589f bd3d 17eb f1bd 1e7f 68bc f34d f83d
00000290: 79fd a6bd aa6c 193e 55f0 a5bd 9e02 df3d
000002a0: 750a d93c 3f8b 59bb 5e87 a0bd 8676 143d
000002b0: 0b16 71bd 5e4d 23be 4772 cd3d ffd5 cb3c
000002c0: b67c 0a3c e756 b83d 4240 b6bb a3e3 b5bd
000002d0: d69b 333d 8f01 7ebc 486a 00be 53c1 963d
000002e0: 80c3 ddbd d714 a23d 594d aa3d 8991 d13d
000002f0: 9a00 f23b f7d2 47bd 3f83 7bb9 f9b9 903d
00000300: bb89 fcbd ea34 8c39 fd78 f6bd f3c1 0cbe
00000310: 117e 123d d70e 11be 8790 91bd e8a0 14be
00000320: 0d37 b5bd 4fe0 01bd 92e0 8abd 3fa4 223d
00000330: 94cb c1bd 8f5f 183d 7f27 db3b db11 ae3d
00000340: 00d8 a13d 4cb3 813c c824 0c3e 7826 033e
00000350: b077 b23b 7083 ebbd d2b2 903d 329e a43d
00000360: 7e1d 05be 492d 083e c7d5 8d3d adf3 53bc
00000370: 033a ec3c ced4 5fbd d81a e43d b092 ecbc
00000380: cbb6 e93d fd94 cbbd 9cdb 99bd bfd8 1b3e
00000390: a3b5 44bd 3103 893d 9e0b 88bc 9f79 15be
000003a0: 81a4 473d c64b 213d 8459 aa3d 65f0 edbd
000003b0: 2137 ee3a 8aa8 103e 2c65 75bd 8c07 e4bd
000003c0: 9a51 3abb 62eb 19bd de94 bab9 557e fabd
000003d0: 392d 15be 0b56 1e3e debd 283e 1a80 483d
000003e0: cf83 cd3b 14be bd3d 59fb dabd cb30 8abd
000003f0: 4005 1b3e f9b4 29be 93d1 173d 246f bcbb

linear2.bias f4 [8]
-0.008099298 0.017646667 0.012565066 0.0027206985 0.008839042 0.016855244 0.018363416 0.0026914882
00000000: ebb2 04bc be8f 903c b5dd 4d3c bf4d 323b
00000010: a1d1 103c 0214 8a3c e06e 963c ae63 303b

linear3.weight f4 [5, 8]
0.7430229 -0.6199236 0.40156338 0.35387146 0.6178134 -0.49279967 -1.1094227 0.31560242
0.14969783 -0.4082686 -1.2873836 0.906359 -0.07346594 -0.9570641 0.80110186 0.37679154
0.37299174 -0.78772366 -0.64076984 -0.69139516 -0.09311258 -0.23517899 -0.5379809 -0.9980336
0.46488273 0.7658721 0.13440624 -0.85009843 0.44170454 -0.3147185 0.99262846 0.4357346
-0.52638423 -0.30259258 0.16704619 0.5460144 -0.64738995 0.13727231 0.72442055 -0.63184595
00000000: c036 3e3f 50b3 1ebf b799 cd3e a42e b53e
00000010: 0529 1e3f 3d50 fcbe 9001 8ebf a496 a13e
00000020: 634a 193e 9508 d1be fcc8 a4bf 2507 683f
00000030: 5075 96bd 2702 75bf 0315 4d3f d2ea c03e
00000040: c6f8 be3e 42a8 49bf 7e09 24bf 46ff 30bf
00000050: cfb1 bebd c3d2 70be 1eb9 09bf 217f 7fbf
00000060: 1c05 ee3e 3210 443f caa1 093e 0da0 59bf
00000070: 1927 e23e c922 a1be e61c 7e3f 9b18 df3e
00000080: 1ec1 06bf 6aed 9abe 280e 2b3e 9ac7 0b3f
00000090: 59bb 25bf 1d91 0c3e a073 393f a8c0 21bf

linear3.bias f4 [5]
0.010719222 0.055433195 0.13042197 -0.08179742 -0.11478072
00000000: ad9f 2f3c eb0d 633d 568d 053e 6885 a7bd
00000010: 2712 ebbd
