Assignment_1/Task_2b/model_weights_generalized_delta.pth (torch, 72855 bytes, 6 tensors)

linear1.weight f4 [256, 60]
0.12877889 -0.09614476 -0.08601904 -0.035928544 -0.010729091 -0.17167479 -0.15459281 -0.042212766
0.003053939 0.016932124 -0.1548154 0.13410445 0.02331701 -0.17982052 0.19413126 0.049010817
0.027580926 -0.05272726 -0.017759994 -0.11949996 -0.0541361 -0.052926376 -0.056823973 -0.15626891
0.115049265 0.028611975 -0.04535392 -0.08557181 0.08045474 -0.080418274 0.10305143 0.10657551
-0.050626483 -0.054663304 -0.08490641 0.11544397 -0.18035066 -0.028862007 0.12065779 -0.08357797
0.17155853 0.07987492 -0.114106424 -0.08181713 0.084452406 -0.08931507 0.003361569 0.040352266
-0.059172347 0.12813911 0.016538627 0.03898946 0.063933596 -0.04941685 0.111859515 0.017036717
-0.19297534 -0.08306458 0.014834327 0.052641094 -0.027638987 -0.07677123 -0.006144534 -0.04094243
-0.15374808 0.14432243 0.21516329 -0.15864691 -0.08545782 0.14251395 -0.12067114 -0.08386788
-0.07259993 -0.057253752 -0.23860615 -0.08083321 -0.14338581 0.010868917 -0.12634486 0.051741473
-0.10244952 -0.18615583 0.15712146 -0.048107136 0.08316402 0.06157223 -0.028741494 -0.1506091
-0.11752248 0.124013186 0.087640546 0.021560688 -0.14375608 0.06739871 0.18860021 -0.16721529
-0.062181015 0.12384078 -0.110000774 0.12366473 0.06786979 0.09448677 -0.10786391 -0.06699739
-0.05501646 -0.12160196 -0.11183882 0.112767495 0.08721074 0.0022195037 -0.11837938 -0.07716886
-0.12279012 -0.07331017 -0.06639497 -0.1591495 0.110518634 0.13214669 -0.1041051 0.05945763
-0.07411347 0.10514254 -0.05713598 0.051851872 0.000846574 0.09219072 -0.23391218 -0.073113814
0.11793631 -0.14409971 -0.01834713 0.0828239 0.14019383 0.10194415 -0.0795988 0.07484682
-0.16195829 0.0454012 0.025169902 0.018831411 0.14070767 -0.08647019 -0.1398708 0.10255651
-0.12684447 0.13337447 -0.08133327 -0.016430054 0.04069109 0.0032483048 -0.046660904 0.11631583
-0.027249143 0.045581583 0.120365836 0.08181191 -0.047934577 0.008579485 -0.024434596 -0.07923694
0.084026836 -0.08370949 -0.035120055 0.09993183 -0.026229164 0.19389716 -0.040096894 0.117366895
0.06487683 0.049343064 -0.10312748 0.029136822 -0.04132698 -0.13918182 0.0029865575 -0.06536211
0.0371339 0.07229759 -0.057041593 -0.13497743 -0.08382048 0.070576005 -0.023999559 0.06838332
-0.094831705 0.19035546 0.09610453 0.05054327 0.09069731 -0.058044724 -0.024025777 0.057969328
-0.15287971 -0.029664997 -0.15723723 -0.19015305 0.011219531 -0.1791471 -0.15272155 -0.111190505
-0.07528229 -0.016922038 0.024794802 0.07287758 -0.06350189 0.085608535 0.023587747 0.059097845
0.059751008 -0.02805335 0.16471721 0.11010049 0.09910507 -0.08004986 0.04609243 -0.018935537
-0.07081293 0.070656374 0.0770154 -0.014939793 0.0320342 -0.008131259 0.10995274 -0.02370605
0.07381674 -0.12746722 -0.09100208 0.15696794 -0.047279466 0.052090295 -0.03577763 -0.11282143
0.10491753 0.054857396 0.08575695 -0.17876126 0.010364458 0.10438673 -0.036163907 -0.10536582
0.06635596 -0.07543642 -0.0028772077 -0.08934739 -0.057873357 0.21835113 0.10964608 -0.008157096
-0.06524659 0.021854894 0.047531553 -0.053097293 0.1172199 -0.12520847 0.09819243 -0.021170447
00000000: 9dde 033e 8be7 c4bd c02a b0bd cf29 13bd
00000010: 12c9 2fbc 84cb 2fbe 944d 1ebe 4be7 2cbd
00000020: 9824 483b 3db5 8a3c ee87 1ebe ad52 093e
00000030: 5003 bf3c df22 38be 58ca 463e 91bf 483d
00000040: 65f1 e13c 8af8 57bd 687d 91bc 65bc f4bd
00000050: d1bd 5dbd 54c9 58bd 41c0 68bd f504 20be
00000060: f39e eb3d a963 ea3c 08c5 39bd 4640 afbd
00000070: 74c5 a43d 56b2 a4bd a10c d33d 4344 da3d
00000080: b75d 4fbd a1e6 5fbd 69e3 adbd e36d ec3d
00000090: d8ad 38be 0470 ecbc 6e1b f73d ed2a abbd
000000a0: 0aad 2f3e 7695 a33d a1b0 e9bd bd8f a7bd
000000b0: 62f5 ac3d d2ea b6bd c54d 5c3b 6b48 253d
000000c0: b45e 72bd e636 033e 047c 873c 69b3 1f3d
000000d0: 9eef 823d 5369 4abd 9a16 e53d 9690 8b3c
000000e0: 549b 45be c31d aabd ad0b 733c 309e 573d
000000f0: 286b e2bc 3c3a 9dbd 1658 c9bb 40b3 27bd
00000100: 2370 1dbe 42c9 133e c453 5c3e 5674 22be
00000110: 8204 afbd 2def 113e 6e22 f7bd ecc2 abbd
00000120: 46af 94bd e982 6abd 2c55 74be e28b a5bd
00000130: bbd3 12be 8b13 323c 8c60 01be deee 533d
00000140: 0ed1 d1bd a29f 3ebe 73e4 203e fd0b 45bd
00000150: e651 aa3d 2a33 7c3d 4873 ebbc 4639 1abe
00000160: a0af f0bd a0fa fd3d e37c b33d 0aa0 b03c
00000170: cb34 13be 5608 8a3d 6a20 413e 7c3a 2bbe
00000180: 85b1 7ebd 3ca0 fd3d 1648 e1bd ef43 fd3d
00000190: 51ff 8a3d 4882 c13d c1e7 dcbd ed35 89bd
000001a0: f158 61bd 730a f9bd c00b e5bd a5f2 e63d
000001b0: 8b9b b23d 1875 113b e370 f2bd b50a 9ebd
000001c0: 6379 fbbd a423 96bd 16fa 87bd 16f8 22be
000001d0: 9857 e23d 7651 073e 0e35 d5bd d889 733d
000001e0: cec8 97bd f954 d73d 6b07 6abd a162 543d
000001f0: 9fec 5d3a 7dce bc3d ad86 6fbe b2bc 95bd
00000200: 9888 f13d e08e 13be b84c 96bc 949f a93d
00000210: f98e 0f3e 18c8 d03d b204 a3bd 4a49 993d
00000220: 65d8 25be 9cf6 393d 1c31 ce3c 5544 9a3c
00000230: ac15 103e 4817 b1bd 4a3a 0fbe 2609 d23d
00000240: 84e3 01be 5193 083e 0f92 a6bd 5298 86bc
00000250: b3ab 263d 83e1 543b 811f 3fbd fe36 ee3d
00000260: 9839 dfbc c1b3 3a3d 5d82 f63d 018d a73d
00000270: 0c57 44bd f890 0c3c 102b c8bc fa46 a2bd
00000280: 4316 ac3d e26f abbd 0cda 0fbd 0fa9 cc3d
00000290: 8bde d6bc fa8c 463e a43c 24bd 0e5e f03d
000002a0: 25de 843d f41b 4a3d 8034 d3bd 58b0 ee3c
000002b0: 7b46 29bd ae85 0ebe 1fba 433b 92dc 85bd
000002c0: b719 183d c210 943d 72a4 69bd 8637 0abe
000002d0: 12aa abbd 278a 903d b99a c4bc 8e0c 8c3d
000002e0: 2037 c2bd 8bec 423e 74d2 c43d 7606 4f3d
000002f0: 83bf b93d 4ec0 6dbd b5d1 c4bc 3f71 6d3d
00000300: 808c 1cbe 0204 f3bc cc02 21be 7bb7 42be
00000310: 20d2 373c 5672 37be 0a63 1cbe d9b7 e3bd
00000320: 9a2d 9abd 16a0 8abc 781e cb3c d740 953d
00000330: 470d 82bd 8753 af3d 173b c13c 9510 723d
00000340: 79bd 743d 24d0 e5bc a1ab 283e 5e7c e13d
00000350: 99f7 ca3d 2ef1 a3bd 6acb 3c3d b31e 9bbc
00000360: 5f06 91bd 4ab4 903d 40ba 9d3d 09c6 74bc
00000370: 4b36 033d f938 05bc e72e e13d 3133 c2bc
00000380: 3b2d 973d c486 02be 4c5f babd 34bc 203e
00000390: 1da8 41bd a25c 553d 908b 12bd ec0e e7bd
000003a0: 01df d63d 26b2 603d 57a1 af3d 310d 37be
000003b0: b0cf 293c b6c8 d53d 9b20 14bd 09ca d7bd
000003c0: a2e5 873d 697e 9abd 898f 3cbb c4fb b6bd
000003d0: 9d0c 6dbd 7097 5f3e 208e e03d 57a5 05bc
000003e0: 01a0 85bd 0909 b33c 72b0 423d 8c7c 59bd
000003f0: fd10 f03d a636 00be 1d19 c93d a56d adbc

linear1.bias f4 [256]
-0.03248131 0.025001097 0.019462943 0.000685812 -0.008359944 0.011993925 -0.00070098456 0.011894558
0.030041447 -0.02242117 0.00891082 -0.024421474 -0.00078533735 0.019750988 -0.0063575334 -0.0023903097
-0.018042969 0.024944704 0.00065629923 0.024248231 -8.176204e-06 -3.3255797e-05 -0.0039430223 -0.0015237062
0.00093509676 1.7436369e-05 4.444469e-05 0.00036524714 -0.00040545216 -0.0015866898 -0.059818108 -8.925266e-06
0.00013344282 0.0021370656 0.007001525 -0.059824295 0.044708326 0.02034672 -0.032114934 0.024117509
0.00016603699 0.0065108775 -0.0006073636 -0.0026562156 -0.003738802 -5.6361074e-05 -0.009416727 0.0015805537
-2.056752e-05 -0.021432731 0.017091243 0.0003479138 -0.010360086 0.004575955 6.82486e-05 -0.021401517
0.0035735376 -0.020151522 0.022393875 -0.0017339814 0.02516031 -0.010826747 0.011009956 0.0012057272
-0.0051475023 0.02256224 0.015728045 2.6194924e-05 0.021676712 -0.015983678 0.0005191846 -3.0606683e-05
0.004371708 -0.0010974441 0.047697153 0.0016497925 0.013477579 0.0007786855 -0.00011987262 -0.000203053
-0.006907977 0.0014975078 0.0005328736 -0.0003352513 -0.021604089 0.0007603648 -0.00020420642 0.000860564
0.00070202455 0.016291669 -0.008680471 0.021404589 0.04959765 -0.0017148175 -0.009177882 -0.004704645
0.0039183553 -0.005721935 0.003423932 6.086689e-05 -0.050317444 -0.012744423 -0.0013469666 3.1707666e-05
-0.0011434068 0.008456522 0.0026357556 0.013374388 -0.004194203 0.0017259255 0.0029441002 0.00020209012
0.0071602636 0.014030442 0.0029979134 0.0029896176 -0.010466598 -6.82754e-05 0.0058947755 -0.0019360041
0.00530634 -0.0018505098 -0.00052255107 0.026599985 0.04747807 -0.029037708 0.015504703 1.751916e-05
0.025192732 -0.0025363036 0.03989787 -0.010610922 0.01741634 -0.022500508 0.0072287144 -0.035678916
0.01269122 -0.02395248 0.00041929947 0.00888568 0.0010347508 -7.580438e-05 0.0316701 -0.015904024
0.0029834493 -0.00028563198 -0.0013011753 0.0015230883 0.010855256 0.01747415 -0.00066840067 0.008788181
0.0021325748 0.00010513358 0.007829294 1.8750437e-05 -0.0046708635 0.02000601 0.0033562283 -0.0018408828
0.0008198932 0.0001397738 1.145571e-05 0.0010400803 0.0022417342 -0.00017347134 0.0018941374 0.00020598687
-0.0052071465 -0.0034770193 0.033035953 0.0021532392 0.039462995 -0.0005102816 -0.021656342 -0.007981651
0.0013417132 0.0034676103 -0.0017319334 0.00032771227 0.020171246 0.041771345 0.0003266265 7.775959e-05
-0.00038202698 -0.004934808 -0.0020044115 -0.00018840238 0.00014726854 -0.011701979 0.0058881617 0.00018698572
-5.4290027e-05 0.02659748 0.014242259 0.016769148 0.007280256 -0.0093822945 0.005932138 0.017474025
0.04073459 0.026966384 0.045997012 -0.008993134 0.0016956016 -0.013692473 -0.00057037163 -0.00036127417
-0.0017050606 -1.0008632e-05 0.0031359293 -0.028439289 0.0018220355 0.0018510259 0.0033227582 0.0026573983
0.011904876 -0.027407996 -0.0002102718 0.00012670792 -0.00011266021 0.04401111 0.024990967 -0.031393457
-0.00448228 -0.011274923 0.0033364675 -0.0045455047 -0.0026356035 -0.0006577259 -0.0022837317 8.75468e-05
-0.00066712167 -0.00235716 0.00010729225 -0.0022998932 -0.006749632 0.0374363 0.011947252 0.022290116
0.020599656 -1.2654322e-05 -0.0011453644 0.031629227 0.033271488 -0.002031085 -0.010248283 4.3628956e-05
-0.006758984 -0.0018541403 0.024894897 0.024845207 -0.003313235 -0.011956843 0.0032969313 0.00054126536
00000000: 1f0b 05bd 1acf cc3c c070 9f3c 10c8 333a
00000010: 26f8 08bc 2b82 443c 47c2 37ba 64e1 423c
00000020: 7b19 f63c 9aac b7bc b0fe 113c 8b0f c8bc
00000030: 19df 4dba d3cc a13c db52 d0bb bea6 1cbb
00000040: d9ce 93bc d658 cc3c 7f0b 2c3a 3aa4 c63c
00000050: 872c 09b7 247c 0bb8 7834 81bb 19b7 c7ba
00000060: 4821 753a 5144 9237 1f6a 3a38 a47e bf39
00000070: de92 d4b9 7af8 cfba d503 75bd babd 15b7
00000080: c9ec 0b39 030e 0c3b 0c6d e53b 520a 75bd
00000090: 1420 373d 2aae a63c f38a 03bd 1592 c53c
000000a0: 371a 2e39 3359 d53b 7b37 1fba e713 2ebb
000000b0: b006 75bb 3e65 6cb8 9e48 1abc 952a cf3a
000000c0: 6a88 acb7 b293 afbc ef02 8c3c 3368 b639
000000d0: 5abd 29bc e5f1 953b b020 8f38 3c52 afbc
000000e0: 0332 6a3b ce14 a5bc 5c73 b73c c346 e3ba
000000f0: ff1c ce3c ab62 31bc 1a63 343c 7e09 9e3a
00000100: 61ac a8bb 72d4 b83c 1ad8 803c 2cbd db37
00000110: 5c93 b13c 34f0 82bc e419 083a ad5f 00b8
00000120: 8b40 8f3b 1dd8 8fba 175e 433d da3d d83a
00000130: 10d1 5c3c b320 4c3a 1f64 fbb8 a0ea 54b9
00000140: 505c e2bb 0648 c43a 8bb0 0b3a abc4 afb9
00000150: 0ffb b0bc 3853 473a 3e20 56b9 7997 613a
00000160: 1208 383a 1b76 853c 8938 0ebc ad58 af3c
00000170: e826 4b3d bac3 e0ba d45e 16bc 6c29 9abb
00000180: 8c65 803b 127f bbbb 0c64 603b 534b 7f38
00000190: aa19 4ebd fccd 50bc b38c b0ba d9fd 0438
000001a0: 5ede 95ba 398d 0a3c a4bc 2c3b 4020 5b3c
000001b0: 866f 89bb 7338 e23a cef1 403b 27e8 5339
000001c0: a5a0 ea3b f0df 653c a478 443b 76ed 433b
000001d0: 187c 2bbc 142f 8fb8 f628 c13b 85c1 fdba
000001e0: cee0 ad3b ce8c f2ba cffb 08ba 36e8 d93c
000001f0: 5d78 423d 7de0 edbc 7007 7e3c 1cf6 9237
00000200: fd60 ce3c 1d38 26bb f36b 233d 6fd9 2dbc
00000210: b6ac 8e3c fc52 b8bc dade ec3b 0e24 12bd
00000220: d6ee 4f3c fe37 c4bc 6cd5 db39 3e95 113c
00000230: 7aa0 873a 2bf9 9eb8 82b8 013d 2849 82bc
00000240: f985 433b e0c0 95b9 338c aaba 5da2 c73a
00000250: 3eda 313c f325 8f3c 9c37 2fba 4dfc 0f3c
00000260: abc2 0b3b 297b dc38 7046 003c 424a 9d37
00000270: 0b0e 99bb a5e3 a33c 2bf4 5b3b c749 f1ba
00000280: 1aee 563a 3e90 1239 e631 4037 4e53 883a
00000290: 0fea 123b dce5 35b9 b444 f83a 2efe 5739
000002a0: b6a0 aabb b4de 63bb b550 073d 5c1d 0d3b
000002b0: f3a3 213d 6bc4 05ba a468 b1bc 79c5 02bc
000002c0: 6ddc af3a d940 633b 0b02 e3ba ccd0 ab39
000002d0: 2b3e a53c 6e18 2b3d 113f ab39 dd12 a338
000002e0: cb4a c8b9 2bb4 a1bb 725c 03bb e18d 45b9
000002f0: 196c 1a39 a8b9 3fbc 7bf1 c03b 9911 4439
00000300: 79b5 63b8 f5e2 d93c 5d58 693c 745f 893c
00000310: 378f ee3b 32b8 19bc 6162 c23b b025 8f3c
00000320: 50d9 263d 9be8 dc3c 5d67 3c3d f057 13bc
00000330: f33e de3a 6556 60bc fe84 15ba 6669 bdb9
00000340: 577c dfba bfea 27b7 2a84 4d3b 83f9 e8bc
00000350: 5ed1 ee3a 1f9e f23a a2c2 593b bf27 2e3b
00000360: ab0c 433c bc86 e0bc 687c 5cb9 e6dc 0439
00000370: fd43 ecb8 fe44 343d dbb9 cc3c 6d96 00bd
00000380: 17e0 92bb 74ba 38bc a3a8 5a3b 75f2 94bb
00000390: 17ba 2cbb 3d6b 2cba a9aa 15bb 5599 b738
000003a0: c7e1 2eba 957a 1abb 1702 e138 ceb9 16bb
000003b0: 042c ddbb ce56 193d 68be 433c c399 b63c
000003c0: 9cc0 a83c e64d 54b7 0d20 96ba a68d 013d
000003d0: af47 083d f41b 05bb 6ae8 27bc 3cfe 3638
000003e0: 787a ddbb a006 f3ba 62f0 cb3c 2d88 cb3c
000003f0: dc22 59bb a2e6 43bc 5411 583b b4e3 0d3a

linear2.weight f4 [8, 256]
0.050267316 -0.1405865 -0.06777547 0.13181528 0.22258793 -0.28585956 -0.10885386 0.020298377
-0.14468324 -0.112596445 -0.10210649 0.036663484 0.033617936 -0.15789661 0.12740596 0.045944944
-0.03238295 -0.09882259 -0.074123226 -0.011929444 -0.018472154 -0.07014992 -0.09272117 -0.13065249
0.15817375 0.0464478 -0.045050796 -0.10314965 0.24718273 -0.06369306 0.2596856 0.061842564
-0.08347879 -0.06722043 -0.13832878 0.16342326 -0.12151389 -0.012209855 0.19125865 -0.14967512
0.16464858 0.12282053 -0.08167827 -0.011036351 0.03711854 -0.1178519 -0.014616723 0.076070696
-0.042307287 0.21337584 -0.005499789 0.09790839 0.24448696 -0.026563011 0.19220552 0.043158654
-0.16144305 -0.06742173 -0.089764856 -0.005253103 0.045684844 -0.09256015 0.045637082 -0.10998735
-0.098092414 0.19400793 0.009554204 -0.06398005 -0.24484605 0.17064281 -0.13553219 0.05244928
-0.108809106 -0.09567298 -0.15677929 -0.075858064 -0.23979636 0.021751001 -0.08185181 0.0010733904
-0.22248915 -0.122995436 0.10010662 -0.010359688 0.1070416 0.07829153 -0.032129407 -0.11517686
-0.16969591 0.08176605 0.06308625 -0.104336254 -0.19659941 0.12070127 0.20121507 -0.051361896
-0.12978274 0.16124488 -0.14006977 0.073543616 0.06269945 0.0058785602 -0.01579962 -0.02738171
-0.07163021 -0.1216491 -0.0724914 0.3064359 -0.02041158 0.04252192 -0.033210713 -0.145325
-0.13840526 -0.2048882 -0.117232844 -0.16268998 0.19079895 0.1528509 -0.16815367 -0.013044728
0.03596612 -0.010404387 -0.11464153 0.08291516 0.029427988 0.05995128 -0.20166674 -0.103399575
0.038716283 -0.15796882 -0.03895783 0.042562198 0.076874994 -0.036959182 0.036863897 0.11858141
-0.16393752 0.068869166 0.024318011 0.17014237 0.13468124 -0.09984399 -0.010177608 0.17320555
-0.07066655 0.09038754 -0.10858799 -0.07794362 -0.16600963 -0.0095832255 -0.016877871 0.13265403
-0.04077298 0.07020678 0.09418926 0.12806341 0.06300757 -0.16250405 0.017316597 0.02190278
0.08667449 -0.12730995 -0.023525126 0.11771713 -0.09039889 0.15874144 -0.091060944 0.10012784
-0.005543586 -0.022979278 -0.094177894 0.026814401 -0.07469799 -0.17906444 0.12825814 0.057283375
-0.0023956702 0.044101648 0.020569338 -0.07974016 0.060437247 0.013245302 -0.13488705 0.08284001
-0.10208172 0.10822742 0.06096606 0.09299309 0.017673586 -0.08516845 0.0040459237 0.07819165
-0.13239148 0.048484147 -0.13344197 -0.16101009 0.08715125 -0.14737286 -0.02582513 -0.21193103
-0.037189312 -0.023266548 -0.15693991 0.029189618 -0.09833374 0.07423018 0.007058969 0.076913655
0.08939731 0.02517495 0.12787437 0.11237796 -0.0025034775 -0.089970335 0.061126743 0.13154803
-0.13971661 0.15778862 0.0785884 -0.0057131383 0.038114317 -0.14790267 0.1080995 -0.030513626
0.0882627 -0.047494136 -0.09033281 0.17397723 -0.048929263 0.07574958 -0.008000472 -0.18098547
0.042055346 0.047798984 0.07382897 -0.115326576 0.063603766 0.14722548 -0.0619714 -0.07661054
-0.09597554 -0.026359526 -0.0061267843 -0.1289449 -0.24263225 0.16427329 0.23272614 0.037840124
0.04445934 0.10092659 -0.18280585 -0.0926208 0.15842654 -0.14896423 0.027938401 -0.01315971
00000000: 1ae5 4d3d e8f5 0fbe decd 8abd 96fa 063e
00000010: 17ee 633e 2f5c 92be c6ee debd c848 a63c
00000020: d827 14be f798 e6bd 351d d1bd 732c 163d
00000030: f6b2 093d a6af 21be b576 023e c430 3c3d
00000040: fca3 04bd 8063 cabd ebcd 97bd b773 43bc
00000050: ea52 97bc c3aa 8fbd 99e4 bdbd c4c9 05be
00000060: 4df8 213e 0c40 3e3d 2f87 38bd 2040 d3bd
00000070: 781d 7d3e 8271 82bd 83f5 843e a14e 7d3d
00000080: eef6 aabd ddaa 89bd 0fa6 0dbe 6d58 273e
00000090: 46dc f8bd d80b 48bc 4fd9 433e 6f44 19be
000000a0: a399 283e 5489 fb3d f046 a7bd d0d1 34bc
000000b0: 9c09 183d 565c f1bd fb7a 6fbc f4ca 9b3d
000000c0: 684a 2dbd 327f 5a3e 9337 b4bb 3284 c83d
000000d0: ca5a 7a3e ac9a d9bc 86d1 443e 21c7 303d
000000e0: 5451 25be 6714 8abd a3d6 b7bd 3922 acbb
000000f0: 0820 3b3d 2d90 bdbd f3ed 3a3d 0c41 e1bd
00000100: ade4 c8bd 04aa 463e 3c89 1c3c f907 83bd
00000110: ecb8 7abe fdbc 2e3e f3c8 0abe 0ed5 563d
00000120: 4fd7 debd 32f0 c3bd c08a 20be 795b 9bbd
00000130: 2d8d 75be 282f b23c eca1 a7bd 01b1 8c3a
00000140: 32d4 63be 08e5 fbbd b304 cd3d aebb 29bc
00000150: a038 db3d 4f57 a03d 209a 03bd d8e1 ebbd
00000160: c4c4 2dbe f574 a73d 5d33 813d 3fae d5bd
00000170: 5b51 49be 3a32 f73d 530b 4e3e da60 52bd
00000180: c4e5 04be 611d 253e 736e 0fbe 099e 963d
00000190: 9268 803d f0a0 c03b 346e 81bc 9c4f e0bc
000001a0: dcb2 92bd 2a23 f9bd 5f76 94bd 2be5 9c3e
000001b0: 3036 a7bc 772b 2e3d f507 08bd 14d0 14be
000001c0: 1cba 0dbe 36ce 51be c617 f0bd 3498 26be
000001d0: cd60 433e f284 1c3e 7a30 2cbe 8eb9 55bc
000001e0: 3651 133d 2977 2abc 2ec9 eabd 6ccf a93d
000001f0: f712 f13c 798f 753d ba81 4ebe 28c3 d3bd
00000200: f794 1e3d 94c2 21be 3f92 1fbd b355 2e3d
00000210: a370 9d3d 8362 17bd 99fe 163d cfda f23d
00000220: 3ddf 27be 470b 8d3d 9136 c73c cd39 2e3e
00000230: e1e9 093e 017b ccbd fbbf 26bc cc5c 313e
00000240: a0b9 90bd 1a1d b93d 6163 debd e8a0 9fbd
00000250: 6efe 29be f602 1dbc 7643 8abc 75d6 073e
00000260: 9101 27bd 93c8 8f3d 4ce6 c03d 0e23 033e
00000270: 1d0a 813d 7667 26be 89db 8d3c 756d b33c
00000280: 6582 b13d 8a5d 02be c4b7 c0bc ae15 f13d
00000290: 0e23 b9bd 1e8d 223e 297e babd d30f cd3d
000002a0: f8a6 b5bb 0a3f bcbc 57e0 c0bd e0a9 db3c
000002b0: 43fb 98bd ab5c 37be 1a56 033e f9a1 6a3d
000002c0: ad00 1dbb eea3 343d 0781 a83c cf4e a3bd
000002d0: 0c8d 773d d302 593c d51f 0abe 06a8 a93d
000002e0: 3910 d1bd 56a6 dd3d 8cb7 793d 2973 be3d
000002f0: 32c8 903c cc6c aebd ab93 843b f222 a03d
00000300: a291 07be 5097 463d 03a5 08be d4df 24be
00000310: 5b7c b23d e9e8 16be 398f d3bc 7304 59be
00000320: d253 18bd 7d99 bebc dbb4 20be 111f ef3c
00000330: 3363 c9bd fe05 983d ec4e e73b e884 9d3d
00000340: f015 b73d b23b ce3c 80f1 023e 6a26 e63d
00000350: 6211 24bb 5e42 b8bd 0960 7a3d 87b4 063e
00000360: df11 0fbe 5793 213e f4f2 a03d 4735 bbbb
00000370: c21d 1c3d cc73 17be 4563 dd3d b6f7 f9bc
00000380: 13c3 b43d 3689 42bd 6900 b9bd 1627 323e
00000390: 0d6a 48bd 9922 9b3d 6914 03bc 4154 39be
000003a0: 3a42 2c3d dec8 433d a533 973d 5730 ecbd
000003b0: b142 823d 47c2 163e b9d5 7dbd fde5 9cbd
000003c0: d38e c4bd efef d7bc 31c3 c8bb 220a 04be
000003d0: 9774 78be 4237 283e c34f 6e3e 3ffe 1a3d
000003e0: ff1a 363d 9ab2 ce3d 7531 3bbe f9af bdbd
000003f0: 913a 223e 148a 18be 13df e43c d39b 57bc

linear2.bias f4 [8]
-0.017441118 0.027343005 0.033960048 0.009441863 0.0062863594 0.030837934 0.033836346 0.0028863363
00000000: ade0 8ebc 70fe df3c b119 0b3d 0bb2 1a3c
00000010: cefd cd3b d69f fc3c fb97 0a3d b028 3d3b

linear3.weight f4 [5, 8]
0.9185113 -0.8111993 0.7399075 0.6417967 0.83071715 -0.46544945 -1.6194174 0.5224228
0.19246827 -0.5381736 -1.8387923 1.0432655 -0.13395268 -1.3088005 1.104218 0.5074129
0.77088946 -1.0509322 -1.0299399 -1.1326965 -0.15273093 -0.2527725 -0.97678524 -1.342799
0.37865508 1.2952474 0.42625248 -1.1258222 0.5880053 -0.21575195 1.2882476 0.6128206
-1.0563347 -0.2475859 0.47738725 0.8382543 -0.886495 0.38030568 1.0744376 -0.8016097
00000000: 8e23 6b3f c2aa 4fbf 946a 3d3f ca4c 243f
00000010: e1a9 543f 644f eebe 1249 cfbf 80bd 053f
00000020: 6716 453e bfc5 09bf 8c5d ebbf b989 853f
00000030: e42a 09be c686 a7bf 0457 8d3f d0e5 013f
00000040: 0359 453f f284 86bf 12d5 83bf 33fc 90bf
00000050: 7f65 1cbe 666b 81be 990e 7abf d6e0 abbf
00000060: 14df c13e abca a53f c43d da3e f11a 90bf
00000070: 8487 163f 14ee 5cbe 4ce5 a43f d0e1 1c3f
00000080: fa35 87bf 2887 7dbe 1a6c f43e d597 563f
00000090: 56f1 62bf 6db7 c23e 2c87 893f 4b36 4dbf

linear3.bias f4 [5]
0.0075826473 0.064520955 0.24365069 -0.11467502 -0.20107892
00000000: db77 f83b 9023 843d 917f 793e bdda eabd
00000010: a2e7 4dbe
