Assignment_1/Task_2b/model_weights_delta.pth (torch, 72855 bytes, 6 tensors)

linear1.weight f4 [256, 60]
0	0x3dccbc6c	0.09996876
1	0xbda95472	-0.0826806
2	0xbd7f0bb1	-0.06226701
3	0x3c19ad29	0.0093796635
4	0x3d480e56	0.048841797
5	0xbe16f977	-0.14743601
6	0xbe0754ab	-0.13215892
7	0xbb9f769e	-0.004866435
8	0xbb63056f	-0.003464069
9	0xbc8c9da9	-0.017165022
10	0xbe0912b3	-0.1338604
11	0x3dfa42d8	0.12219781
12	0x3c9f80ce	0.019470599
13	0xbe11ab2d	-0.14225455
14	0x3e20fb46	0.15720853
15	0x3d59b81b	0.053154092
16	0x3d5ed68c	0.054403827
17	0xbd9f3d61	-0.07775379
18	0xbd1d904f	-0.0384677
19	0xbdc9f8d0	-0.0986191
20	0xbcfa78d9	-0.030575203
21	0xbd2f21cc	-0.04275684
22	0xbd516a24	-0.051126614
23	0xbe104e35	-0.14092334
24	0x3dd448e9	0.10365469
25	0x3cb1034e	0.021608021
26	0xbcc9badd	-0.024625236
27	0xbda9effc	-0.082977265
28	0x3d85203b	0.06500288
29	0xbd91cb56	-0.071188614
30	0x3dea9a65	0.1145523
31	0x3d9926d6	0.074781105
32	0xbcfa99ad	-0.030590856
33	0xbd7ed725	-0.062216897
34	0xbd8d2e24	-0.06893566
35	0x3dbec916	0.09315698
36	0xbe299c55	-0.16563542
37	0xbc92a441	-0.017900588
38	0x3ded6322	0.11591174
39	0xbda8830d	-0.08228121
40	0x3e05169c	0.12996906
41	0x3d8a74a5	0.067605294
42	0xbdc6e596	-0.09711759
43	0xbdbbe40e	-0.09174357
44	0x3d850752	0.06495537
45	0xbdb1f253	-0.08688798
46	0x3c3de935	0.011591245
47	0x3d48cfeb	0.04902641
48	0xbd5fe087	-0.054657485
49	0x3e105be0	0.14097548
50	0x3c6ba9a8	0.014383711
51	0x3da5941c	0.0808489
52	0x3d8a211a	0.06744595
53	0xbcd476dd	-0.025935585
54	0x3df8670d	0.121290304
55	0x3c63b52a	0.013898173
56	0xbe123899	-0.14279403
57	0xbda44edf	-0.08022856
58	0x3cdc40da	0.026886392
59	0x3c813572	0.015772555
60	0xbca1ee36	-0.019766908
61	0xbdad3813	-0.08457961
62	0x3c5f24ba	0.013619596
63	0xbd45d192	-0.048295565
64	0xbdd87716	-0.10569589
65	0x3dffd56a	0.124918774
66	0x3e1ad94a	0.15121952
67	0xbdbd69e4	-0.09248713
68	0xbdd51544	-0.10404447
69	0x3dac7fbd	0.08422802
70	0xbde021d0	-0.10943949
71	0xbcd0e0a2	-0.025497738
72	0xbd94b7f9	-0.072616525
73	0xbd8cc08e	-0.068726644
74	0xbe56014f	-0.20898937
75	0xbdc6f947	-0.09715515
76	0xbde6ed5b	-0.11275741
77	0x3ce665b6	0.028124671
78	0xbdd1efb0	-0.10250795
79	0x3c3f7007	0.011684424
80	0xbdc37873	-0.09544458
81	0xbdf78374	-0.120856196
82	0x3e102bcb	0.14079206
83	0xbce8d3f4	-0.02842138
84	0x3d389339	0.045062277
85	0x3d477a61	0.048700694
86	0xbca81463	-0.020517534
87	0xbdea3d44	-0.11437467
88	0xbdeac8a8	-0.114640534
89	0x3dbb4f1e	0.0914595
90	0x3d871124	0.06595066
91	0x3d851a0a	0.06499107
92	0xbe0b155c	-0.13582367
93	0x3d988000	0.07446289
94	0x3dfa3606	0.122173354
95	0xbdd56913	-0.10420432
96	0xbdb23209	-0.0870095
97	0x3dd1bc4b	0.10240992
98	0xbdeff6fa	-0.11717029
99	0x3d8b3b99	0.06798477
100	0x3cf50feb	0.029914817
101	0x3dcf7178	0.10129064
102	0xbd53a5f3	-0.051671933
103	0xbd6af357	-0.057360973
104	0xbd3f71c8	-0.04673937
105	0xbdf242aa	-0.118291214
106	0xbdd532eb	-0.104101025
107	0x3dff9efd	0.124814965
108	0x3cd25053	0.025673067
109	0x3c0b83e2	0.00851533
110	0xbd4908be	-0.049080603
111	0xbdc79eb8	-0.0974707
112	0xbdd7432b	-0.10510858
113	0xbdc9ee54	-0.098599106
114	0xbdb657af	-0.08903443
115	0xbe1567d0	-0.14590383
116	0x3e16ec99	0.14738692
117	0x3df2c023	0.118530534
118	0xbde87957	-0.11351269
119	0x3d29888b	0.041389983
120	0xbd08fe23	-0.03344549
121	0x3d773aad	0.060358692
122	0xbdba32c2	-0.090917125
123	0x3d77f649	0.06053761
124	0x3c7fdd93	0.015616792
125	0x3d5081a0	0.05090487
126	0xbe3569ce	-0.17716143
127	0xbda5c92d	-0.08095012
128	0x3dac9264	0.08426359
129	0xbdecc0ed	-0.11560235
130	0xbd05df89	-0.032683883
131	0x3d44a1a2	0.048005708
132	0x3e0b0315	0.13575394
133	0x3d90b834	0.07066384
134	0xbcb74557	-0.022371931
135	0x3db7be78	0.08971876
136	0xbe16cfb9	-0.14727677
137	0x3d5c71cd	0.053819466
138	0x3cdfeddc	0.0273351
139	0x3d2485da	0.040166713
140	0x3dfa48cf	0.122209184
141	0xbdad2b5c	-0.08455536
142	0xbdbd5f8d	-0.092467405
143	0x3de676ec	0.11253151
144	0xbe031064	-0.12799221
145	0x3dcd9445	0.10038046
146	0xbdc2b334	-0.095068365
147	0xbd0fde06	-0.035123847
148	0xbb61f8d4	-0.0034480589
149	0xbcbadb0d	-0.02280953
150	0xbcd1be89	-0.02560355
151	0x3de1fbff	0.110343926
152	0xbd2973dc	-0.041370258
153	0x3d914398	0.070929706
154	0x3db2385c	0.08702156
155	0x3dd6f93d	0.10496757
156	0x3a79ee6c	0.0009534124
157	0xbcb4ccfe	-0.022070404
158	0xbd2734c7	-0.040821817
159	0xbd1ab23e	-0.03776764
160	0x3daf2b68	0.08553201
161	0xbdbdeba5	-0.09273461
162	0xbc7755f5	-0.015096177
163	0x3db2d2c8	0.087316096
164	0xbd1c7cb4	-0.038204864
165	0x3e198cc3	0.14995103
166	0xbd08ce03	-0.033399593
167	0x3dc4eec7	0.09615856
168	0x3d959b32	0.07304992
169	0x3d291302	0.041277893
170	0xbdd8d7ab	-0.105880104
171	0x3d310fae	0.043227844
172	0xbd078893	-0.03308923
173	0xbe065de5	-0.13121755
174	0x3c80815b	0.015686681
175	0xbc2ec510	-0.010667101
176	0x3d0086cf	0.031378563
177	0x3d8f3938	0.069933355
178	0xbccd8783	-0.025089031
179	0xbdea0176	-0.1142606
180	0xbd6cfb5a	-0.057856895
181	0x3cce80cb	0.025207898
182	0xbd430320	-0.047610402
183	0x3d8b0de8	0.06789762
184	0xbdd1000a	-0.102050856
185	0x3df638ea	0.12022574
186	0x3dcdcff7	0.10049432
187	0x3d995c2b	0.07488283
188	0x3d31e2a9	0.04342905
189	0xbd2e0e92	-0.042494364
190	0xbc97efea	-0.018547017
191	0x3d876ac0	0.06612158
192	0xbe076dbd	-0.13225456
193	0xbc5a0577	-0.013306967
194	0xbe037e6c	-0.12841195
195	0xbe1d9ba1	-0.15391399
196	0xbc08fd91	-0.008361236
197	0xbe0ac39a	-0.13551179
198	0xbe0460fa	-0.12927619
199	0xbde5ab4d	-0.11214314
200	0xbd90ed64	-0.07076529
201	0xbd257686	-0.040396236
202	0x3bfb7ff9	0.0076751676
203	0x3d90b84c	0.07066402
204	0xbd7fb301	-0.06242657
205	0x3d24b0d0	0.040207684
206	0xbab68258	-0.0013924344
207	0x3d79bb8c	0.060969874
208	0x3d5ce12c	0.053925678
209	0xbbe23e52	-0.006904402
210	0x3e268950	0.16263318
211	0x3dbbb365	0.09165076
212	0x3d2c9c45	0.042141218
213	0xbdc8f1be	-0.09811734
214	0x3d825edc	0.06365749
215	0x3ce2bfab	0.027679285
216	0xbdc12a19	-0.094318576
217	0x3d7dbded	0.061948705
218	0x3d886823	0.066604875
219	0xbc69fa22	-0.014280828
220	0x3bf60caf	0.007508836
221	0xbc933a23	-0.017972058
222	0x3dfca7a6	0.12336664
223	0xbd16bf16	-0.036803328
224	0x3dab3013	0.08358779
225	0xbdce6b20	-0.10079026
226	0xbdc1716b	-0.09445461
227	0x3e0f368f	0.13985656
228	0xbd199f56	-0.03750547
229	0x3d1f8c40	0.038952112
230	0xbc54d9c6	-0.012991374
231	0xbdebd580	-0.11515331
232	0x3d9706b8	0.073743284
233	0x3d3621e8	0.04446593
234	0x3dbb27d6	0.091384575
235	0xbdf8de51	-0.121517785
236	0xbb4b690f	-0.0031037962
237	0x3dce1f29	0.10064537
238	0xbcfbbd22	-0.030729834
239	0xbde00096	-0.10937612
240	0x3d259c6b	0.040432375
241	0xbd2f2124	-0.042756215
242	0x3c85cb59	0.016332315
243	0xbdb14bf1	-0.08657063
244	0xbdabcf91	-0.083891995
245	0x3e3a331d	0.1818356
246	0x3e09805d	0.13427873
247	0x3cec258a	0.028826494
248	0xbd051d1d	-0.032498468
249	0x3d6396e6	0.05556383
250	0xbb7aea9d	-0.0038286813
251	0xbd77bbea	-0.060481943
252	0x3dccd950	0.100023866
253	0xbe0a21c0	-0.13489437
254	0x3d8bf35d	0.06833527
255	0xbc5e9f27	-0.01358775

linear1.bias f4 [256]
0	0xbc722c43	-0.014781061
1	0x3c42fbc3	0.011900845
2	0x3c1cea5f	0.009577363
3	0xbb010881	-0.0019688907
4	0xbad497cb	-0.0016219554
5	0x3b8a7b2b	0.0042261085
6	0xba7447d8	-0.0009318567
7	0x3bf10e21	0.0073564206
8	0x3c6bd3a5	0.014393722
9	0xbc36c789	-0.011155971
10	0x3b832660	0.0040023774
11	0xbc7526dd	-0.014962879
12	0x380223a6	3.1027615e-05
13	0x3c0d6eb9	0.008632355
14	0xba2f5fe8	-0.00066900114
15	0xb9a9a629	-0.0003235799
16	0xbc0efb68	-0.008726932
17	0x3c3aec62	0.011408897
18	0x3a072f7e	0.0005156918
19	0x3c2e4dbb	0.01063865
20	0x3a5e4807	0.0008479361
21	0xb99a9ce7	-0.0002949007
22	0xbb8cde60	-0.00429897
23	0xba9a031a	-0.0011750192
24	0x3a0117e5	0.000492452
25	0x3735120c	1.0792643e-05
26	0x382ca858	4.1164778e-05
27	0xba7ec7e2	-0.0009719116
28	0xba55a786	-0.0008150268
29	0xbaabf564	-0.0013119397
30	0xbced252d	-0.02894839
31	0xb658f59e	-3.2329476e-06
32	0xba00d28f	-0.0004914188
33	0x3a83c341	0.0010052697
34	0x3b586109	0.0033016822
35	0xbce42df2	-0.02785394
36	0x3ccd74b0	0.025080055
37	0x3c3fb6d6	0.011701306
38	0xbc6fd799	-0.014638805
39	0x3c111016	0.008853933
40	0x390623ea	0.00012792615
41	0x3b38520f	0.0028125083
42	0xba28d181	-0.000643991
43	0xbaef22d2	-0.001824463
44	0xbb893b68	-0.00418799
45	0xb7da9205	-2.605562e-05
46	0xbb767c67	-0.003761077
47	0x3a306cff	0.0006730109
48	0xb7ffe71c	-3.0505988e-05
49	0xbc2b6658	-0.010461412
50	0x3bf6bfc1	0.007530183
51	0x39f76e6c	0.00047193782
52	0xbb8c1940	-0.004275471
53	0x3ab5031f	0.0013810134
54	0x3aecc79c	0.0018064859
55	0xbc193655	-0.009351333
56	0x3ac0d9f9	0.0014713398
57	0xbc21928c	-0.0098616
58	0x3c20af6b	0.009807448
59	0xba9f7d3e	-0.0012168062
60	0x3c6122ad	0.0137411775
61	0xbbab6db7	-0.005231585
62	0x3bb70dce	0.0055863624
63	0xb9b568d0	-0.00034601102
64	0xbaf1e132	-0.0018453954
65	0x3c4a175c	0.012334671
66	0x3bb99d54	0.005664507
67	0xb7f95a6b	-2.9725217e-05
68	0x3c339d35	0.010962774
69	0xbbd2085a	-0.006409687
70	0x3a1321f7	0.0005612666
71	0xb91651c7	-0.00014335579
72	0x3a476349	0.0007606042
73	0xba158ca6	-0.0005704857
74	0x3ca7ebcc	0.020498179
75	0x3a28a6ea	0.00064335635
76	0x3b9dd4e2	0.0048166374
77	0x3a617a29	0.0008601272
78	0xb9055666	-0.00012716054
79	0xb8ff61a2	-0.00012177533
80	0xbbbdf9c9	-0.005797599
81	0x3a6d1dc9	0.0009045271
82	0x3a5930d4	0.0008285169
83	0xb8f77e65	-0.000118014206
84	0xbc107642	-0.008817257
85	0x39d3770d	0.00040333756
86	0xb910be5a	-0.00013803822
87	0x3a22f314	0.0006216031
88	0xb8ac4fd3	-8.2164675e-05
89	0x3bf3e257	0.0074427533
90	0xbba2c374	-0.0049671475
91	0x3c14de01	0.009086133
92	0x3cce4fc6	0.025184523
93	0xbaba43e4	-0.0014210907
94	0xbb1b05aa	-0.00236545
95	0xba848762	-0.0010111148
96	0x3b6f26b9	0.0036491586
97	0xbb9537b8	-0.0045537613
98	0x38e8f36a	0.000111079615
99	0x37e69669	2.7488177e-05
100	0xbccbd112	-0.024879966
101	0xbc041395	-0.008061309
102	0xbab2ab92	-0.0013631454
103	0x3803a685	3.1387917e-05
104	0x3a5dc4d6	0.0008459812
105	0x3b967542	0.004591615
106	0x3afa7768	0.0019109072
107	0x3ba80a2b	0.0051281652
108	0xbb27b4a8	-0.0025589857
109	0x3a725f80	0.0009245798
110	0x3b2541e4	0.0025216276
111	0xb6d15cab	-6.2394734e-06
112	0x3b3e91bf	0.002907857
113	0x3baf3efc	0.0053480845
114	0x3b1e634e	0.0024168077
115	0x3b40f69e	0.002944387
116	0xbb333bb2	-0.0027348814
117	0x347d5210	2.3592315e-07
118	0x3ae6d330	0.0017610546
119	0xba372eac	-0.00069878506
120	0x3b25c9ee	0.0025297361
121	0xba8354b6	-0.0010019753
122	0xb91a46bd	-0.00014712937
123	0x3c5176cb	0.01278467
124	0x3ccb6e37	0.024832828
125	0xbc6de9b2	-0.014521049
126	0x3bcf4a88	0.0063260235
127	0x36af7825	5.229393e-06
128	0x3c5eac73	0.01359092
129	0xbb3709c5	-0.0027929407
130	0x3c92ea6b	0.017934045
131	0xbbc6c0fc	-0.006065486
132	0x3c093fb0	0.008377001
133	0xbc3131f9	-0.010815137
134	0x3b8f2d76	0.004369433
135	0xbca74971	-0.020420762
136	0x3a754d7c	0.00093575544
137	0xbc4003f1	-0.01171969
138	0x35d6410b	1.5963172e-06
139	0x3b42e8be	0.0029740776
140	0x3af524f5	0.0018703031
141	0xb8eff780	-0.000114425085
142	0x3c70ade8	0.0146899
143	0xbbea5606	-0.007151368
144	0x3a6e9c13	0.00091022364
145	0xb94207c2	-0.00018504172
146	0xba947567	-0.0011326493
147	0x3a92e723	0.00112078
148	0x3b90a505	0.004414203
149	0x3c199021	0.009372742
150	0xb935a48d	-0.00017322805
151	0x3ba85d93	0.005138108
152	0x3a25aeab	0.0006320278
153	0x388ed770	6.811216e-05
154	0x3b8990ea	0.0041981833
155	0xb78c3a33	-1.6716402e-05
156	0xbb836c99	-0.0040107486
157	0x3c175fe3	0.00923917
158	0x3b01f5fd	0.0019830458
159	0xba1b431b	-0.000592278
160	0x3a444117	0.0007486506
161	0x386a188a	5.58128e-05
162	0x36ab840a	5.1115685e-06
163	0xb9ce1519	-0.000393071
164	0x3b045158	0.0020190086
165	0xb89e9169	-7.561112e-05
166	0x3b0b582f	0.0021262278
167	0x391177be	0.00013872885
168	0xbb480003	-0.0030517585
169	0xbabe320a	-0.0014510762
170	0x3c8672c6	0.01641215
171	0x3b2687de	0.0025410573
172	0x3c9ba05a	0.01899736
173	0xba5345a1	-0.0008059387
174	0xbc40a736	-0.011758616
175	0xbb3d6be6	-0.0028903424
176	0x3a30c5bf	0.00067433337
177	0x3a1c7c4d	0.000596945
178	0x3a4f9fb8	0.0007920223
179	0x37b71de0	2.1829212e-05
180	0x3c1e64d1	0.009667591
181	0x3c957cd0	0.018247992
182	0x397310cf	0.00023180548
183	0x3895bcb7	7.1400245e-05
184	0xba4f01eb	-0.0007896709
185	0x39a6630c	0.00031735783
186	0xba07e350	-0.00051837135
187	0xb8d4e477	-0.00010151503
188	0xba170d62	-0.0005762187
189	0xbbbf70fb	-0.0058423257
190	0x3acc1307	0.0015569635
191	0xb8f40493	-0.00011635679
192	0xb8611cdd	-5.367106e-05
193	0x3c600092	0.013672011
194	0x3bd8af10	0.006612666
195	0x3c0f0c2b	0.008730928
196	0x3b61b531	0.0034440274
197	0xbc1fe4b2	-0.009759115
198	0x3b3becc5	0.0028675061
199	0x3b89e8bf	0.0042086537
200	0x3ca98319	0.020692395
201	0x3c65bed9	0.014022552
202	0x3cb2494a	0.021763463
203	0xbbba0dbe	-0.0056779077
204	0x3aec9367	0.00180493
205	0xbb93c50a	-0.004509573
206	0x36ea92b2	6.990821e-06
207	0xb9909ffb	-0.00027585015
208	0xbada8611	-0.0016672035
209	0xb6d11c69	-6.2319928e-06
210	0x3b47cd55	0.0030487378
211	0xbc5dade6	-0.01353023
212	0x3ac9b0d3	0.0015387781
213	0x3a994930	0.0011694785
214	0x3b44c888	0.0030026753
215	0x3aca7e30	0.0015448984
216	0x3b77e111	0.003782336
217	0xbc7aabec	-0.015299778
218	0xb91480ed	-0.00014162408
219	0x3a1dae00	0.0006015003
220	0xb82e6017	-4.1574323e-05
221	0x3cb68677	0.022280915
222	0x3c5180ad	0.012787026
223	0xbc70ee31	-0.014705227
224	0xbb37a6ec	-0.0028023077
225	0xbbb6da58	-0.005580228
226	0x3ad994cb	0.001660013
227	0x398ba9f7	0.0002663878
228	0xbaa0366c	-0.001222325
229	0xb9ebd2df	-0.00044979804
230	0xbb106f8c	-0.0022039143
231	0xbb962910	-0.0045825318
232	0xba03fa40	-0.00050345436
233	0xbafcf391	-0.0019298663
234	0x385f5053	5.324215e-05
235	0xba9cfdcc	-0.0011977493
236	0xbafe76a4	-0.001941402
237	0x3c980f79	0.018562065
238	0x3bc4f552	0.00601069
239	0x3c235971	0.009970055
240	0x3c125625	0.008931671
241	0xb9d19c4e	-0.00039980042
242	0xb96a82cc	-0.00022364705
243	0x3c77922a	0.015110532
244	0x3c7cd01c	0.0154304765
245	0xbaff7338	-0.0019489294
246	0xbb58194f	-0.003297407
247	0xb9f5f8d9	-0.00046915447
248	0xbb2dfd3b	-0.0026548642
249	0x391ee8e2	0.0001515481
250	0x3c5b561b	0.013387228
251	0x3c33a023	0.010963473
252	0x3ae3b6de	0.0017373224
253	0xbbc84b16	-0.0061124666
254	0x3b45368a	0.0030092322
255	0x39311e42	0.00016891307

linear2.weight f4 [8, 256]
0	0x3dacc7a0	0.08436513
1	0xbdcbaecf	-0.099454515
2	0xbd62c189	-0.05536035
3	0x3dc1ab09	0.094564505
4	0x3e2c20ad	0.1680934
5	0xbe716326	-0.23572978
6	0xbded5029	-0.11587555
7	0x3cf92458	0.030412838
8	0xbd9e5ba5	-0.077323236
9	0xbda07cb1	-0.07836283
10	0xbdca750a	-0.09885605
11	0x3d3f9d61	0.046780948
12	0x3d0fb175	0.035081346
13	0xbe34ebd9	-0.17668094
14	0x3dd5fcf3	0.10448637
15	0x3d39dc8b	0.04537634
16	0xbc47ccff	-0.012194871
17	0xbdb482c2	-0.088140026
18	0xbd8a1086	-0.06741433
19	0xbd852ba2	-0.06502463
20	0xbc251e75	-0.010078062
21	0xbd74aa9a	-0.05973301
22	0xbd57f120	-0.05272019
23	0xbe0c8e2b	-0.13726108
24	0x3e10a90f	0.1412699
25	0x3d222dd5	0.03959449
26	0xbd1c66c7	-0.038183954
27	0xbdcd2009	-0.10015876
28	0x3e2f5cde	0.1712527
29	0xbd8f9b25	-0.07012013
30	0x3e674d8e	0.22588179
31	0x3d60e7e5	0.05490865
32	0xbd4edef5	-0.050505597
33	0xbd82a869	-0.06379778
34	0xbdbff7e2	-0.09373452
35	0x3e061e8c	0.1309759
36	0xbe002645	-0.12514599
37	0xbd180d29	-0.037121926
38	0x3df5c300	0.12000084
39	0xbdcf186d	-0.10112081
40	0x3e2177f8	0.1576842
41	0x3dda9570	0.10673034
42	0xbda95e82	-0.08269979
43	0xbd863e70	-0.06554878
44	0x3da69e74	0.08135691
45	0xbde34b38	-0.11098331
46	0xbce7933c	-0.028268449
47	0x3d7a856f	0.06116241
48	0xbd48146f	-0.048847612
49	0x3e21a5d2	0.15785912
50	0x3cad4b86	0.021154176
51	0x3dd12299	0.10211677
52	0x3e115154	0.1419118
53	0xbc9b829e	-0.018983182
54	0x3e16caa3	0.14725737
55	0x3cc3acbe	0.02388608
56	0xbe2a4589	-0.16628088
57	0xbd9814d6	-0.07425849
58	0x3bb0429c	0.005379034
59	0xbc3d3b93	-0.011549848
60	0x3d609346	0.05482795
61	0xbd95bb99	-0.07311172
62	0x3c8eb547	0.017420424
63	0xbdbfb2c2	-0.09360267
64	0xbdccf08b	-0.100068174
65	0x3e30d21b	0.17267649
66	0x3d3e6a71	0.04648823
67	0xbd6a5c0b	-0.057216685
68	0xbe44c24b	-0.19214742
69	0x3ddd82c2	0.10815956
70	0xbe034026	-0.1281744
71	0x3d2e93e9	0.042621527
72	0xbdb7a9b0	-0.08967912
73	0xbdcf6fa3	-0.10128715
74	0xbe205f67	-0.15661393
75	0xbdaa16ee	-0.08305155
76	0xbe0f7b0d	-0.14011784
77	0x3cdd59bb	0.027020326
78	0xbdb5abd6	-0.08870666
79	0xbbc01bae	-0.0058626747
80	0xbe40c567	-0.18825303
81	0xbdf163a2	-0.117865816
82	0x3dd83b2e	0.10558163
83	0xbc800468	-0.015627101
84	0x3ceec6f4	0.029147603
85	0x3d989d3a	0.074518636
86	0xbcd0375e	-0.025417026
87	0xbdde9063	-0.10867383
88	0xbe17cea1	-0.14824916
89	0x3dc802e7	0.097661786
90	0x3d32d432	0.043659396
91	0x3c979db2	0.018507812
92	0xbe36909a	-0.17828599
93	0x3de96261	0.113957174
94	0x3e11dacb	0.14243619
95	0xbda2a99d	-0.079425074
96	0xbdfbdb87	-0.12297731
97	0x3e0efe01	0.13964082
98	0xbe0654b5	-0.1311825
99	0x3d889116	0.06668298
100	0x3d07784e	0.033073716
101	0x3d184955	0.03717931
102	0xbcb41ceb	-0.021986445
103	0xbd0c05bc	-0.034185156
104	0xbd7e462c	-0.06207864
105	0xbdf9a53e	-0.121897206
106	0xbda4be18	-0.0804407
107	0x3e6d5bce	0.23179552
108	0x3c5ef248	0.013607569
109	0x3d0a43a2	0.033755906
110	0xbcda04d9	-0.02661364
111	0xbe10770f	-0.14107917
112	0xbdf64770	-0.12025344
113	0xbe0d4b70	-0.13798308
114	0xbde508e7	-0.111833386
115	0xbe203345	-0.15644558
116	0x3e29e2fe	0.16590497
117	0x3e15a011	0.14611842
118	0xbe0c5e10	-0.13707757
119	0x3c915cd0	0.017744452
120	0xbbe73b4d	-0.0070566298
121	0xbbe58fba	-0.007005659
122	0xbdf815b8	-0.121135175
123	0x3daa63a5	0.08319787
124	0x3d68a95a	0.05680213
125	0x3da4d73c	0.08048865
126	0xbe342742	-0.175931
127	0xbdc5c01f	-0.09655785
128	0x3d5081d8	0.05090508
129	0xbe03a3ba	-0.12855425
130	0xbd222cec	-0.039593622
131	0x3d994a62	0.074848905
132	0x3d96072f	0.07325589
133	0x3c330f51	0.010928945
134	0x3c85217d	0.01625132
135	0x3defd2b2	0.11710109
136	0xbe35d4b2	-0.17756918
137	0x3d989b76	0.07451527
138	0x3cf5dcb0	0.030012459
139	0x3e015859	0.12631358
140	0x3e0a0d02	0.13481525
141	0xbdbef0ad	-0.09323249
142	0xbd63f7fd	-0.055656422
143	0x3e256552	0.16151932
144	0xbdc4484f	-0.09584104
145	0x3dab1347	0.08353286
146	0xbdec6f01	-0.1154461
147	0xbd924a43	-0.071430705
148	0xbda4ead9	-0.08052606
149	0xbb824059	-0.003974956
150	0xbb4bd8ad	-0.003110449
151	0x3df020b8	0.117249906
152	0xbd22e62e	-0.039770298
153	0x3d9dcd15	0.07705132
154	0x3dd7e208	0.10541159
155	0x3df81643	0.12113621
156	0x3d0a4b7f	0.033763405
157	0xbdd8e1b3	-0.10589924
158	0xbc7bca47	-0.015368051
159	0x3c2a5aed	0.010397655
160	0x3dbabc38	0.09117931
161	0xbdf6e4b2	-0.12055339
162	0xbc88627a	-0.01664852
163	0x3df4b1cf	0.11947977
164	0xbdabce36	-0.08388941
165	0x3e1bdc7f	0.15220831
166	0xbdab3f11	-0.08361638
167	0x3dda3309	0.106542654
168	0x3c9b3004	0.018943794
169	0xbbc89417	-0.0061211693
170	0xbda116ef	-0.07865702
171	0x3d0a72dc	0.033800945
172	0xbd84b9fa	-0.06480785
173	0xbe279c3e	-0.16368195
174	0x3dd91937	0.106005125
175	0x3cf0bdc0	0.029387355
176	0x3bb08322	0.005386726
177	0x3dc9c9b9	0.09852929
178	0xbbf2ab16	-0.007405649
179	0xbdb0f130	-0.08639753
180	0x3d2f7425	0.042835373
181	0xbc88042e	-0.016603556
182	0xbe02f02a	-0.12786928
183	0x3d9bbf2f	0.07604825
184	0xbdd9594f	-0.106127374
185	0x3dab35ef	0.083598964
186	0x3da4c3de	0.08045171
187	0x3dcc804e	0.0998541
188	0x3c1fbc83	0.009749535
189	0xbd64658b	-0.0557609
190	0x3b36c1f7	0.0027886608
191	0x3d94a01f	0.07257103
192	0xbe00bab2	-0.12571219
193	0x3bd7a832	0.0065813297
194	0xbdfa9a7b	-0.12236496
195	0xbe118027	-0.14209042
196	0x3d35df9c	0.044402704
197	0xbe145e4b	-0.14489095
198	0xbd5bede9	-0.053693686
199	0xbe2284b6	-0.15870938
200	0xbda06cd9	-0.07833261
201	0xbce1d4cd	-0.027567292
202	0xbdb4ce02	-0.08828355
203	0x3d2567eb	0.040382307
204	0xbdc57225	-0.09640912
205	0x3d2a5737	0.04158708
206	0x3bdba467	0.006702948
207	0x3da9a368	0.082831204
208	0x3da70aa5	0.08156327
209	0x3c95daed	0.018292869
210	0x3e09aa7f	0.13443945
211	0x3e09a2d7	0.13441025
212	0x3b606a7b	0.0034243155
213	0xbde569cb	-0.11201819
214	0x3d8bda93	0.06828799
215	0x3dbd0905	0.09230236
216	0xbe138bc0	-0.14408779
217	0x3e127d3a	0.14305583
218	0x3d92dc87	0.071709685
219	0xbc4c9f5c	-0.012489166
220	0x3d00276c	0.031287596
221	0xbd9f5479	-0.07779784
222	0x3de436c4	0.11143258
223	0xbcae2396	-0.021257203
224	0x3de6ed60	0.112757444
225	0xbdb93052	-0.090424195
226	0xbda0b5d9	-0.07847185
227	0x3e21cc1b	0.15800516
228	0xbd3f1484	-0.046650425
229	0x3d8dcf76	0.06924336
230	0xbc6ac982	-0.01433027
231	0xbe1c5e6d	-0.15270396
232	0x3d406e9b	0.04698048
233	0x3d2a4f0f	0.041579302
234	0x3da54829	0.08070404
235	0xbdf4c82e	-0.11952244
236	0x3c63b6e8	0.013898589
237	0x3e141ef1	0.14464928
238	0xbd747de6	-0.05969038
239	0xbdd3113e	-0.10306023
240	0xbcd1faa3	-0.025632208
241	0xbd0e0421	-0.034671906
242	0xbafed916	-0.0019443359
243	0xbe03f4b1	-0.12886311
244	0xbe2860ea	-0.1644322
245	0x3e2103a7	0.1572405
246	0x3e3672d5	0.17817242
247	0x3d3b96b0	0.045798004
248	0x3c268b31	0.010165022
249	0x3dc656da	0.09684534
250	0xbdf8589c	-0.12126276
251	0xbd99e613	-0.07514586
252	0x3e192c48	0.14958298
253	0xbe29968c	-0.16561335
254	0x3d0e1c7c	0.034695134
255	0xbbfcc047	-0.007713351

linear2.bias f4 [8]
0	0xbc2d016a	-0.010559419
1	0x3caa9f39	0.020827876
2	0x3c881eb6	0.016616207
3	0x3b7575d7	0.0037454271
4	0x3c0faa44	0.008768622
5	0x3ca501e7	0.020142509
6	0x3cadaa91	0.021199496
7	0x3b2d763d	0.002646818

linear3.weight f4 [5, 8]
0	0x3f485dc3	0.7826807
1	0xbf2a598e	-0.665429
2	0x3ef9c9b9	0.48786715
3	0x3ed0d801	0.40789798
4	0x3f29f345	0.66386825
5	0xbef4dc8f	-0.47824523
6	0xbf9c651f	-1.221836
7	0x3eb16e69	0.3465455
8	0x3e2f4787	0.1711713
9	0xbee161f5	-0.44020048
10	0xbfb5d3a6	-1.4205215
11	0x3f72dfb3	0.9487259
12	0xbdc6741b	-0.09690114
13	0xbf8652c1	-1.0494004
14	0x3f5cc2e1	0.8623486
15	0x3ed2e70e	0.41191906
16	0x3ee7c405	0.4526674
17	0xbf5739d9	-0.84072644
18	0xbf3c3f3a	-0.73533976
19	0xbf4a7704	-0.79087853
20	0xbdcfbadd	-0.10143063
21	0xbe77c2b7	-0.24195372
22	0xbf22ac60	-0.63544273
23	0xbf89f785	-1.0778662
24	0x3ee28884	0.44244778
25	0x3f61236a	0.8794466
26	0x3e49de80	0.19713783
27	0xbf67e885	-0.9058917
28	0x3ef17da8	0.4716618
29	0xbe95173a	-0.29119283
30	0x3f87d2e1	1.061123
31	0x3ef5298b	0.47883257
32	0xbf250b58	-0.64470434
33	0xbe924804	-0.2857057
34	0x3e7b89f3	0.24564342
35	0x3f1adc51	0.60492426
36	0xbf310e34	-0.691623
37	0x3e4afdb9	0.1982335
38	0x3f4df895	0.8045743
39	0xbf294c95	-0.6613248

linear3.bias f4 [5]
0	0x3c8d227e	0.017228361
1	0x3d6130ea	0.05497829
2	0x3e1b479d	0.15164037
3	0xbdc38751	-0.09547294
4	0xbe0374ea	-0.12837568
