Assignment_1/Task_2b/model_weights_generalized_delta.pth (torch, 11671 bytes, 6 tensors)

linear1.weight f4 [30, 60]
000000 4a b9 8f 3e 9f 19 3b bf a8 58 a9 bf a2 35 03 3c
       0.28071052 -0.7308597 -1.3230181 0.0080083925
000010 a8 9a e6 3e 74 ea 1f bf 6a 22 b2 bd c1 3e cc bd
       0.45039868 -0.6246712 -0.0869797 -0.09972907
000020 c9 f4 66 3e 76 b2 51 3f 8d 69 33 be 18 4c dd bb
       0.22554316 0.81912935 -0.17520733 -0.006753456
000030 77 17 58 bf 4c cd 04 3d cc 60 5f 3f a3 13 fa be
       -0.84410805 0.03242235 0.87257075 -0.48843107
000040 45 27 23 3f 47 ac 27 bf 0c bc a2 be e2 d4 87 3e
       0.63731796 -0.6549725 -0.31784093 0.26529604
000050 7b cc ad 3e 93 11 b8 be 41 c9 08 3e b7 95 67 3e
       0.3394507 -0.35950908 0.13358022 0.22615705
000060 44 c4 db 3e 0a f5 5f be 8b c0 f1 be 7e 39 53 be
       0.42923176 -0.21870819 -0.4721721 -0.206274
000070 f9 ac 21 be b9 d0 9b 3e 73 95 62 3c c4 24 da bc
       -0.1578864 0.3043268 0.013829577 -0.02662886
000080 3e 2e 07 be f0 36 d8 be 45 cf 32 3e 3b e1 6b be
       -0.13201234 -0.42229414 0.1746188 -0.23035137
000090 bd be 43 bf 72 42 61 3e de 25 2d 3f cf 95 8c 3d
       -0.7646292 0.21998003 0.67635906 0.06864511
0000a0 3b 94 1c be 70 d8 aa 3e 02 b2 95 be 6b 42 a6 bd
       -0.1529092 0.33368254 -0.29237372 -0.08118137
0000b0 6c 1d 50 bd 9d 9a 25 be 32 ff 24 3e fe d7 8a 3c
       -0.05080931 -0.16172262 0.16112974 0.016948696
0000c0 ec 55 27 be b2 98 ab 3d 35 75 60 3d 0e 3d c3 3e
       -0.1634137 0.08378734 0.054799277 0.3813252
0000d0 fd ad 31 be de 6f d4 bd 62 1a 82 bd 98 50 8d be
       -0.17351528 -0.103728995 -0.06352688 -0.2760055
0000e0 7c 31 5a be b7 85 d3 bd 78 7f 22 bf ba 86 5a 3b
       -0.2130794 -0.103282385 -0.6347575 0.0033344463
0000f0 94 0d 6a 3e 80 89 79 3d 3e c8 6e bd 45 7a fd bd
       0.22856742 0.060922146 -0.058296435 -0.12376837
000100 5c 41 28 be f7 66 3e 3e 2c 51 37 3e e1 30 91 bd
       -0.16431183 0.18593965 0.17902058 -0.07089401
000110 cf 27 6e be 7a bc 04 3e 95 e1 2d be 9c 2e 2e 3d
       -0.23257373 0.12962523 -0.16980584 0.04252492
000120 f3 18 0f be 86 e0 35 be 2d 1e 8e be 99 6a 25 be
       -0.13974361 -0.1776143 -0.27757397 -0.16153945
000130 12 1e 40 be 2c da 84 3d 18 ed 37 be 74 30 ff bc
       -0.18761471 0.064869255 -0.17961538 -0.031151034
000140 b3 a5 7f be ea fe 3c be 9a 13 46 3e 1c 94 1e bd
       -0.24965553 -0.18456617 0.19343415 -0.038715467
000150 d8 2c f7 3a b9 72 c1 3d ea e0 ac bc 19 cb 2a be
       0.0018857969 0.0944571 -0.021103341 -0.16679038
000160 15 2e 63 be 3a 7d 17 3e a1 31 78 3d c0 5d 27 3e
       -0.22185548 0.14793864 0.060594205 0.16344357
000170 37 12 72 be e8 f9 2f 3e af 48 38 3e a3 d5 2a be
       -0.23639761 0.17185175 0.17996477 -0.16683058
000180 ef cb 4c be d6 d0 50 3e 6a 88 75 be a3 ba be 3d
       -0.1999967 0.20392165 -0.23977819 0.09312942
000190 81 07 4a 3d 14 ee 2d 3e d2 27 75 bd 08 9a 97 bd
       0.049323563 0.16985351 -0.05985243 -0.07402426
0001a0 8b 52 dc bd d5 36 76 be 52 b2 12 be 50 b7 7d 3e
       -0.10757931 -0.24044354 -0.14325836 0.2477696
0001b0 81 ff ca 3c a7 40 f4 3c e8 91 00 bd a3 cf 68 be
       0.024780037 0.029815985 -0.031389147 -0.22735457
0001c0 5b 64 3d be 84 84 72 be b1 58 35 be ad f0 81 be
       -0.18495314 -0.23683363 -0.17709614 -0.25378934
0001d0 57 22 82 3e a7 a6 71 3e f3 e2 71 be 05 1a ae 3d
       0.25416824 0.23598729 -0.2362173 0.085010566
0001e0 9f c5 53 be 85 82 0b bd 9f ec 4a be 06 2e 06 3e
       -0.20680855 -0.03406002 -0.19816826 0.13103494
0001f0 f2 a3 ac 3d 34 36 7b 3d 11 99 83 be f2 03 1a be
       0.084297076 0.06133099 -0.25702718 -0.15040568
000200 9b e1 e1 3d a6 0d 2d be 94 38 e5 bd 2f 7a e5 3d
       0.11029359 -0.16899738 -0.11192432 0.11204945
000210 45 72 21 3e 74 fe 42 3d 38 4d 5a 3c bb 90 28 3e
       0.15766247 0.047605947 0.013324074 0.1646146
000220 ee c1 66 be ac 58 81 3d 35 f8 99 3d 05 5d 02 3e
       -0.22534916 0.06315741 0.07518045 0.12730797
000230 1e 48 80 3e bd 04 16 be 41 2b fa bd 4a ae 75 3e
       0.2505502 -0.14650245 -0.12215281 0.23992267
000240 50 a1 45 be b0 40 03 3e af b2 57 be 65 84 d4 bd
       -0.19299817 0.12817645 -0.21064256 -0.10376815
000250 f1 a1 ba bd d4 7b 7d bd d8 da fd 3c 81 c9 41 3e
       -0.09112919 -0.06188567 0.030988142 0.18924524
000260 3e af b5 bd 39 f0 1d 3e 8d 48 1c 3e a1 8c 3d 3e
       -0.088713154 0.15423669 0.15262051 0.18510677
000270 ea a7 7a 3d bd dd a0 bd ae 86 c3 bd 1d f6 fb bb
       0.06119529 -0.07854793 -0.095471725 -0.007689251
000280 57 f5 20 3e a5 6f 42 be c7 0f 12 bc c5 e4 42 3e
       0.1571859 -0.18987902 -0.008914894 0.19032581
000290 b6 cc 01 be 44 9a 77 3e 3b b4 fb bd c1 f5 4b 3e
       -0.12675747 0.24179941 -0.122902356 0.19917966
0002a0 09 8a 17 3e 86 54 05 3d 3b 4a 22 be b5 6d ad 3d
       0.1479875 0.03255131 -0.15848629 0.084681906
0002b0 56 16 87 bd 69 b8 81 be b8 06 8b 3d f9 70 29 3d
       -0.06596057 -0.25336006 0.06788391 0.041367505
0002c0 c1 8f f0 3c 6e 25 cb 3d 08 83 50 3b 5e fe 24 be
       0.029365422 0.099192485 0.0031816382 -0.16112658
0002d0 81 da 99 3b bc f0 63 3c c8 1c 5b be 38 0c 7f 3c
       0.004695237 0.013912376 -0.21397698 0.015566878
0002e0 af 55 89 be d1 2e 2a 3e 6b c2 49 3e 79 4a 6f 3e
       -0.26823184 0.16619422 0.19703071 0.23368253
0002f0 0b 33 40 3e e6 85 df bc b3 d4 83 bb c4 33 18 3d
       0.18769471 -0.027285527 -0.0040231585 0.037158743
000300 eb b8 4d be 59 83 bd 3a 0e 4f 83 be 89 38 88 be
       -0.20090072 0.00144587 -0.2564625 -0.26605633
000310 99 54 32 bd ae bb 65 be 93 7c 87 be 5b 36 9c be
       -0.04353771 -0.22434875 -0.2646223 -0.3051022
000320 83 0a 8b be 0e 89 cb bc df e0 a3 bd 79 7e 1c 3e
       -0.27156457 -0.024845626 -0.08001875 0.1528262
000330 a2 df 33 be f7 d9 0c 3c 06 be fa 3d 65 22 2d 3e
       -0.17565778 0.008596889 0.12243275 0.16907652
000340 22 c4 24 3e cf 9e cc bb f7 7b 38 3e 55 2f 80 3e
       0.16090444 -0.0062445174 0.18016039 0.2503611
000350 75 e8 c8 3d 26 64 47 be 42 ed 1a 3e 6c 8b bd 3d
       0.09809963 -0.19471797 0.15129569 0.09255108
000360 7e b8 ab bd b9 e0 48 3e cf fc d2 3d a3 10 29 3c
       -0.083847985 0.19616975 0.10302126 0.010318908
000370 b7 47 8f 3d be 3f e8 bd 8a 99 4a 3e 82 fa a6 bc
       0.069961004 -0.11340283 0.19785133 -0.020383123
000380 63 29 f9 3d 13 ef 76 be 51 a6 ea bc 2c 99 5f 3e
       0.12166097 -0.24114637 -0.028643759 0.21835774
000390 16 4a a2 3c 70 1e 88 3e 69 59 c6 bc 85 f9 51 be
       0.019810718 0.26585722 -0.024212556 -0.2050534
0003a0 ea 50 07 3e ce 74 93 bb 22 c4 97 3d 71 18 6b be
       0.1321446 -0.004500008 0.07410456 -0.22958542
0003b0 d7 1b 76 3d 81 79 24 3e 1b a9 3d bd 1d 3f 72 be
       0.060085144 0.16061975 -0.04630385 -0.23656888
0003c0 b9 a4 e1 bd 1b 9c 89 be b0 d4 d2 be 5f e4 9d be
       -0.110177465 -0.26876912 -0.41177893 -0.30838296
0003d0 0b 5a 15 3e 74 2d 92 3f 5b e8 35 3f 46 75 1a be
       0.1458513 1.1420121 0.7105767 -0.15083799
0003e0 4a 17 af 3d 10 07 a0 3e 3d 65 75 be f4 5b 0f be
       0.08549364 0.31255388 -0.239644 -0.13999921
0003f0 18 5d 3b 3d 9b 9a 17 3f a5 8f f2 3e ab 53 6a bc
       0.045743078 0.59220284 0.47375217 -0.014302175

linear1.bias f4 [30]
000000 94 be 23 3e 37 31 00 3c 6c fe 99 bb 95 95 a5 bb
       0.15990669 0.007824234 -0.004699519 -0.005053232
000010 dd 75 d2 3e e5 5e 22 3c 9f 28 bf bb 8d 96 e4 be
       0.41105548 0.00991032 -0.0058337 -0.4464611
000020 f8 b0 03 3f 2d 1c c5 be cf 20 e3 3c ee 80 ce 3b
       0.5144191 -0.3849806 0.027725605 0.0063019907
000030 9b 19 b4 3e a8 4d 90 3e e2 32 06 bf 50 cf b1 3a
       0.35175785 0.28184247 -0.5242139 0.0013565812
000040 89 7c e3 be 41 a2 85 3e 83 6b be 3b 4a 5c 6a 3f
       -0.4443095 0.26100352 0.0058111562 0.9154707
000050 d0 89 62 be 95 c0 c7 3a 1a a5 13 bf 8e aa 93 bb
       -0.22122884 0.0015239889 -0.576738 -0.0045064157
000060 40 14 ae bd ff a4 f7 34 9a 60 b5 b7 07 6c 11 bc
       -0.08499956 4.6127386e-07 -2.1621865e-05 -0.008875853
000070 56 cb df 3a a0 ee 70 bb
       0.0017074149 -0.0036763325

linear2.weight f4 [15, 30]
000000 34 3f 7d 3e 68 fd ae be 95 13 9c 3d db 15 c7 bd
       0.24731141 -0.3417771 0.076209225 -0.097209655
000010 f8 20 25 3e f5 c0 cd be d6 46 8f be 62 ba fb 3d
       0.16125858 -0.40186277 -0.2798373 0.12291409
000020 b8 35 30 be b3 b1 0b be 64 a8 c9 bd 82 5b 54 3e
       -0.17207992 -0.13642006 -0.09846571 0.20738032
000030 03 57 77 3e 19 b0 25 bf 6d bb 6d 3f e2 af 31 3d
       0.24154286 -0.6472183 0.92864114 0.043380626
000040 0b 4b 24 bd 73 d8 e1 be 04 9a 65 be f2 f4 26 bf
       -0.04011063 -0.4411045 -0.22422034 -0.65217507
000050 ee 53 05 3e 31 11 60 be 97 2d e5 3e 5a de 82 be
       0.13020298 -0.21881558 0.44761345 -0.25560266
000060 02 51 34 3f 3e cf 2e 3e 69 28 2b be 23 c8 90 be
       0.7043611 0.17071244 -0.16714634 -0.28277692
000070 8e ed b7 3d 4c b0 bb bd 15 84 87 3f 5c c1 66 3e
       0.08980857 -0.09164485 1.0587183 0.22534698
000080 6b b4 3e be 93 39 79 3d c2 79 97 3e 4c d2 b5 3e
       -0.18623511 0.060845923 0.2958508 0.35512006
000090 45 7a 1b bf 03 58 63 be 7e bf 9b 3e ed f5 84 be
       -0.60733443 -0.22201543 0.30419534 -0.25968876
0000a0 42 09 22 3f b1 20 ad 3e 71 37 b2 be ad 39 97 be
       0.63295376 0.33814004 -0.34807923 -0.2953619
0000b0 f1 69 ee bd ea da ef bd 41 c8 37 be 63 3c 9e 3e
       -0.116413005 -0.117116764 -0.17947485 0.30905446
0000c0 d5 85 0b bb fd 34 68 3f 1d b9 ce be 1d c0 c7 3e
       -0.0021289487 0.90705854 -0.40375605 0.39013758
0000d0 c6 37 d0 3d 4c 82 13 be c8 b3 55 be 7c 16 bd bd
       0.10166888 -0.14405173 -0.20869362 -0.09232804
0000e0 21 44 51 be 27 b2 a3 be 35 cf 8c 3e 29 78 1f be
       -0.20436145 -0.31971857 0.27501836 -0.15573181
0000f0 7e 5c 42 3e 67 b9 e5 bd f2 0b 17 bd 8d f6 41 be
       0.18980595 -0.11217003 -0.036876626 -0.18941708
000100 6c 5c 45 be 49 e5 62 3e 4f cd 2e 3e 8c e7 cb be
       -0.19273537 0.22157778 0.17070507 -0.39825094
000110 27 a2 d7 be 14 3f 05 3f 37 ea 85 be 95 40 04 3d
       -0.421159 0.52049375 -0.26155254 0.032288153
000120 d6 a7 de be 7e 22 b9 bd aa de d5 be 87 6f 87 be
       -0.43487424 -0.09039782 -0.41771442 -0.26452276
000130 78 f4 0a bf 9d f0 71 3d 2c c8 89 be 32 61 80 be
       -0.5427928 0.059067357 -0.26910532 -0.25074154
000140 03 ec 0e bf f6 3a 98 be 68 ba ec 3e 04 52 fe bc
       -0.55828875 -0.29732484 0.46235967 -0.031044967
000150 c0 88 b8 3b e3 6c 3b 3e 61 e2 88 bd dd ed 64 be
       0.0056315362 0.18303256 -0.06683803 -0.22356363
000160 62 48 b2 be 2a 4a 75 3e 2f c1 83 3e af 44 0b 3e
       -0.3482085 0.23954073 0.25733325 0.1360042
000170 ac d4 78 be 51 8f b9 3d b0 5d 1f 3f a2 07 ac be
       -0.24299878 0.090605386 0.6225233 -0.33599573
000180 08 dc c5 be e0 c7 9d 3e 80 7f 1c bf 2b 4e 64 be
       -0.38644433 0.30816555 -0.6113205 -0.22295444
000190 7c 28 0b 3e 71 ab 07 3e 9d 25 1a be e5 95 82 bd
       0.13589662 0.13248993 -0.15053411 -0.06376246
0001a0 1c 89 82 3a 9f 55 e6 be dc af 0a 3d 9f 88 74 3e
       0.0009959075 -0.449872 0.03385912 0.23880242
0001b0 10 dd 57 3d 0a a7 d2 3e 83 6f fa bd e3 b9 d7 be
       0.052701056 0.41143066 -0.122283004 -0.42134008
0001c0 bf ba e8 be a4 bf 6f be a0 e5 3a bf b9 4f 86 be
       -0.45454976 -0.23412949 -0.7300663 -0.262327
0001d0 9a ca 86 3e d0 6a e6 3e 33 1c e2 be 52 e3 68 3e
       0.26326448 0.45003366 -0.4416214 0.22742966
0001e0 fa 71 a6 bd 4c 9e 21 3e fc 17 db be 91 6a 69 3e
       -0.08127208 0.15783042 -0.42791736 0.22794558
0001f0 64 01 09 3f 52 79 4f 3e 1a 3e 4a bf 60 32 3f bf
       0.53517747 0.20261124 -0.7900101 -0.7468624
000200 fd 2e 06 3f 6f cd 15 bf a6 5e d1 be c6 55 8e 3e
       0.5241545 -0.5851659 -0.40892524 0.27799815
000210 de cc 16 3f b1 cc 9f 3e 53 0f 9c bd 37 4b b0 3e
       0.5890635 0.31210855 -0.0762011 0.34432384
000220 4a 7b 2a be ac 40 bc 3e 2d b2 a2 3e e2 72 00 3f
       -0.16648594 0.3676809 0.31776562 0.501753
000230 a7 58 81 3d 7b 95 a9 bd f4 f4 26 bf 47 39 6e 3e
       0.06315737 -0.08280464 -0.6521752 0.23264037
000240 c0 50 c4 3e 50 40 74 3d fb 1d 3d be 85 17 88 be
       0.38342857 0.059631646 -0.18468468 -0.26580444
000250 c9 9f 9a bb 6e 9e 4c be 13 01 34 3d b7 a7 c7 3e
       -0.004718755 -0.19982311 0.043946337 0.38995144
000260 2c 91 89 be f5 8c fd 3e ef 9c 18 3f 48 dc ca 3e
       -0.2686857 0.49521604 0.5961446 0.39621186
000270 3e fd 47 be 2f 2e 99 be 0b 5e 9f 3e 23 6d 3a bf
       -0.19530198 -0.29918048 0.31126437 -0.7282278
000280 b5 16 a0 3e fa 05 01 be 3f 74 0f 3f 8c 63 2a 3e
       0.31267324 -0.12599936 0.5603675 0.16639537
000290 fe b5 26 bf 90 4c f9 3e e6 af e6 bc 4f b4 59 3e
       -0.6512145 0.48691225 -0.028160047 0.21260189
0002a0 0d 06 03 3f a6 4e 44 3f 13 32 4f bf 7b fc 83 3e
       0.5118111 0.7668251 -0.8093578 0.25778565
0002b0 47 ec b3 bd 39 9e 01 bf 9e 33 1a bc bf b6 ab bd
       -0.08785301 -0.50632054 -0.009411721 -0.083844654
0002c0 85 82 41 3e 96 ee 25 3d 14 a0 17 3e d7 62 c0 be
       0.18897445 0.040510736 0.14807159 -0.3757541
0002d0 b7 3f e9 3e 4b ef f7 3d 96 6e ac be 6a f2 d5 3e
       0.45556423 0.121061884 -0.3367812 0.4178651
0002e0 14 b3 0b 3e 38 7d 50 3e df 97 9b 3e 36 6a 10 3f
       0.13642532 0.20360267 0.30389306 0.56412065
0002f0 f0 62 e1 3d 44 89 fa 3e 77 a0 bf be ed 47 55 3e
       0.11005199 0.4893285 -0.37427112 0.20828219
000300 6f e1 b2 be fa 4c 89 bd 50 fa 12 bf 6a 6d 95 be
       -0.34937617 -0.06704135 -0.57413197 -0.2918504
000310 67 1e dc 3e 1f 41 bc be fc 0d c5 be 9a 48 2c bf
       0.42991945 -0.36768433 -0.38487232 -0.6729828
000320 d3 1f 17 3d df ee 99 bd 46 1b 1a bf 87 09 eb 3d
       0.036895584 -0.07516264 -0.60197866 0.114764266
000330 df 71 29 bf 68 50 2f 3d f3 fb 5c 3d ca 29 49 3e
       -0.6618938 0.04280129 0.053951215 0.19644848
000340 a6 6c 6b 3e e4 f4 24 bd b8 1e 0a 3f 53 5c 83 3e
       0.22990665 -0.04027261 0.53953123 0.25656375
000350 b0 6b a5 3b 47 48 9c be 3d 16 99 3d 40 a3 10 3e
       0.0050482377 -0.30523893 0.07474945 0.14124775
000360 a8 49 c4 be 86 12 3a 3c 92 09 8b 3e 54 0a 49 be
       -0.38337445 0.011356955 0.2715574 -0.19632846
000370 0c f6 0f bd d8 34 95 bc 2a b6 9e 3e 62 2a 41 bf
       -0.035146758 -0.018213674 0.30998355 -0.75455296
000380 2a ff 8f 3e 8e 86 6e be 01 ef 1a bf fc 75 6c 3f
       0.28124362 -0.23293516 -0.6052094 0.9236753
000390 0f c5 c0 bd 84 19 be 3e b3 4c 43 bc 4f 64 8e be
       -0.09412586 0.37128842 -0.011920142 -0.27810904
0003a0 40 a9 8d be ef 75 56 3d da b1 d3 bd 15 51 97 be
       -0.2766819 0.052358564 -0.10336657 -0.29554048
0003b0 71 a7 0c 3d 07 f1 88 3e 8f a5 b3 bd 44 48 a8 be
       0.034339372 0.2674639 -0.08771812 -0.32867634
0003c0 e9 b7 9b bd e8 a9 31 be c7 c5 90 3d 20 9f c0 be
       -0.076034375 -0.1734997 0.07068973 -0.37621403
0003d0 27 c2 6c bf 06 bf 94 3e 5c 3a 83 3e d0 cd c5 be
       -0.9248375 0.2905199 0.25630462 -0.38633585
0003e0 1f 70 a2 bd ec 4d 22 3f 16 57 d6 3d e5 06 3b be
       -0.07931542 0.6340015 0.10465829 -0.18264349
0003f0 df fb 52 3f c9 b4 bd be 15 c5 26 3e d8 24 1f bd
       0.82415575 -0.3705199 0.16286118 -0.038853496

linear2.bias f4 [15]
000000 dd 7c cd bd 62 38 f4 3d 4e 99 f9 bc 40 37 ce bd
       -0.100335814 0.11924817 -0.03046861 -0.10069132
000010 76 e3 ed 3d ec 90 13 3e 15 97 63 3d 41 6b d6 3c
       0.1161565 0.14410752 0.055564005 0.02617419
000020 5b d8 5e bd 12 3a 1f 3d 57 92 93 bd a8 c2 cc bb
       -0.05440555 0.03887374 -0.072056465 -0.006248791
000030 2a 7a 41 3d b7 ca 18 bd 1d 18 38 3d
       0.047235645 -0.0373027 0.04494487

linear3.weight f4 [8, 15]
000000 00 3c 97 3f a6 c3 9e bf 9f 45 f0 be 25 a7 13 bf
       1.1815186 -1.2403457 -0.46928117 -0.5767692
000010 a3 4a b4 3e 57 6d ab bf 1b ea 04 bf 5f 91 fc 3e
       0.35213193 -1.3392743 -0.51919717 0.4932966
000020 d8 d4 48 3f e3 b5 eb bc ea 81 48 be 4a d3 e6 3e
       0.78449774 -0.028773254 -0.19580808 0.45083076
000030 61 21 c0 3e 55 02 24 bf 8e 18 71 3f 34 0d 0e 3f
       0.37525466 -0.6406606 0.9417809 0.55488896
000040 23 12 ce 3c 28 29 e3 bd bb 25 22 3d c5 ce bc bf
       0.025155133 -0.11091834 0.039586764 -1.4750601
000050 ef de 6f bf e4 ea 71 3e de 9c 6c be 55 6c 68 bf
       -0.93699545 0.2362476 -0.23106715 -0.907903
000060 a1 1a 0e 3e 1a 77 05 3f b6 5c b0 be f7 12 82 bf
       0.13877346 0.5213486 -0.34445733 -1.0162038
000070 fb 92 c4 3f 90 48 1c bf c6 bd 19 3f 50 45 3f 3f
       1.5357355 -0.6104822 0.60055196 0.7471514
000080 37 8e 7f 3e 5d a9 a7 be 9a 44 8c be b7 9a 2f 3f
       0.24956594 -0.327464 -0.2739609 0.6859545
000090 18 35 d7 bf 24 74 8b 3d b4 d5 ce 3f 39 e4 e8 be
       -1.6813078 0.068092614 1.6158967 -0.4548662
0000a0 21 d2 0f 3f 91 c4 a2 3e 4f 52 21 be a1 68 82 bf
       0.56180006 0.31790593 -0.15754054 -1.018818
0000b0 2c d5 c7 3e c2 42 35 bf 61 78 db 3e c0 32 20 be
       0.39029825 -0.7080499 0.4286528 -0.1564436
0000c0 26 f7 0f bf 66 63 bd 3f 87 f9 26 3f d9 f5 67 3f
       -0.56236494 1.4795959 0.652245 0.9060951
0000d0 2b fd d9 3e 0a 16 7f 3e 7d 54 dd 3e cf d4 ca 3e
       0.42575964 0.24910751 0.43228522 0.39615485
0000e0 36 23 22 bf 65 4d 24 3e 00 6d 65 3f 66 aa 6f be
       -0.6333498 0.16045149 0.89619446 -0.23404846
0000f0 e4 cf a1 3d b3 58 02 3e 49 dd 8e 3c 25 cc df be
       0.0790098 0.12729149 0.017439501 -0.43710437
000100 d4 97 1c bf 5f 47 21 3f fb c2 09 3f 89 3c 06 bf
       -0.6116917 0.6299953 0.5381314 -0.5243612
000110 89 89 04 bf 02 17 d4 3d 19 5e a9 bf bc 40 ae bd
       -0.5177236 0.10355951 -1.3231841 -0.08508441
000120 a9 7f d9 be 7e 30 a5 bf 3b 0c 38 bf 1a e1 cb be
       -0.4248021 -1.2905424 -0.7189366 -0.39820176
000130 fe 95 88 bf 77 10 89 bd 15 f9 e4 be df 66 07 bf
       -1.0670774 -0.066925935 -0.44721285 -0.52891344
000140 d6 7e 87 bf 3f 08 93 be 8c 81 b3 3d 33 6f 1c bf
       -1.0585582 -0.2871723 0.087649435 -0.61107177
000150 77 c7 af 3e 8e 63 9e 3f 07 ea aa 3e 11 c2 5b bf
       0.34331867 1.2374132 0.33381674 -0.85842997
000160 d5 ea 4d bf 7f 4c eb 3e c2 9a 37 be 5b 7a 42 3f
       -0.8043645 0.459568 -0.17930129 0.7596795
000170 2b 9d 28 bf d8 8d a4 3f c3 09 87 3f 4e 94 63 3e
       -0.6586482 1.2855787 1.0549854 0.22224542
000180 11 d8 bd be c6 86 95 3f 3f a3 a4 bf 8e 26 45 3e
       -0.37078908 1.1681755 -1.2862319 0.19252989
000190 f5 c2 65 be 06 df d3 3e 4b c1 20 3d 25 2a eb be
       -0.22437651 0.4138109 0.03924684 -0.4593059
0001a0 7f 39 81 bf 0a 33 80 bf ab 8d ae be 39 69 69 3f
       -1.0095671 -1.0015576 -0.3409246 0.9117618
0001b0 50 ae c2 3e 53 f9 83 3e 61 8f 07 3f 12 2e c8 be
       0.38023615 0.25776157 0.52953154 -0.3909765
0001c0 38 85 87 bf c7 35 83 bf 0b cf 61 be 97 bc a6 bf
       -1.058753 -1.0250787 -0.22051637 -1.3026303
0001d0 fd 33 19 3f 84 57 3c 3f 31 87 29 3d 9c f9 47 3f
       0.5984495 0.7357104 0.041388694 0.7811525

linear3.bias f4 [8]
000000 22 22 d1 3d af 49 ad be 86 96 1e be d1 7b 88 3d
       0.102115884 -0.3384528 -0.15487108 0.06664241
000010 a8 84 3b be ce 92 a7 3e e3 35 28 3d 64 ac 0e 3e
       -0.18312323 0.3272919 0.041067015 0.1393295
