Assignment_1/Task_2b/model_weights.pth (torch, 11735 bytes, 6 tensors)

linear1.weight f4 [30, 60]
0.30877337 -0.7338932 -0.70200837 0.28210458 0.40905383 0.32518536 0.8393289 0.123754166
0.3352306 0.07380927 1.4687555 -0.13285673 -1.2085899 0.55524147 -0.9638324 -0.3287932
0.33657014 -0.37158304 -0.32873437 -0.23459575 -0.21248823 -0.2537199 0.07112146 -0.0002479921
0.3359266 -0.39383042 0.06999617 -0.12615943 -0.22086617 -0.30225214 -0.024935594 0.19864546
0.09612551 -0.12113697 -0.02042528 -0.18517627 0.004429878 -0.003255666 0.24386692 -0.034657434
0.17863141 0.19208485 -0.16668686 -0.14177385 0.14939344 0.1302405 -0.25745305 0.05463709
0.08170546 -0.19946116 -0.118447244 -0.2583952 -0.03164218 0.039562028 -0.024915159 -0.12630843
0.15564924 0.10254901 0.004447881 0.107494324 0.37051725 -1.1826339 -0.8875071 0.26427227
0.76601833 0.48623475 0.4118083 0.06229101 -0.011059043 0.14305231 0.84128606 0.1917316
-1.2179356 -0.14741868 -0.26573983 -0.23716371 0.6525514 -0.18670525 -0.31827587 0.14878641
-0.016029585 0.025594532 -0.058970973 0.13215739 0.5585614 -0.431957 0.18967758 -0.18751767
-0.24526031 -0.055262253 0.1649921 0.23835288 0.13394132 -0.012006213 -0.010659613 -0.042074848
-0.0052717417 -0.23075223 0.3367007 0.09859582 0.034850262 -0.02778954 -0.32319036 0.19214493
-0.15277624 0.11908654 -0.38170126 0.32019404 -0.32540053 -0.233325 -0.13373902 -0.14845715
-0.060654923 -0.07820942 0.039832667 -0.013141064 0.016540136 -0.15082805 -0.10935083 -0.018655611
0.2412221 0.29161343 0.11470111 0.05208186 -0.08509368 -0.13797387 -0.2400369 -0.03348801
0.12996073 -0.029442014 -0.20338066 -0.13160925 0.14523049 0.00277448 0.18391506 0.08318348
0.028379692 0.018998161 0.079095356 0.08289162 -0.09554823 -0.029323472 -0.10146924 -0.08217539
-0.15310931 0.1295598 0.029247971 0.0126454495 -0.14193138 -0.028606039 -0.114145964 0.1166775
-0.06652259 0.06987663 0.1120084 -0.13642974 -0.10151336 0.055102162 -0.080958314 -0.0849009
-0.10355961 0.010196473 -0.051449157 -0.10679751 -0.101608306 -0.049175963 -0.08460867 0.08614738
0.112832494 -0.07184465 -0.001191664 -0.0127266 -0.015167918 -0.019850392 0.055441134 -0.05076759
0.034105696 -0.06426981 0.09652573 -0.099548124 0.16778713 -0.012068348 0.011033533 -0.13090356
-0.15680924 -0.059376344 0.01419936 -0.044434506 -0.028631644 -0.1360029 0.19328174 -0.00025569045
-0.020867448 -0.094186135 -0.07216631 -0.15580301 0.1020769 -0.071948506 -0.080528304 0.08293514
0.0033015625 0.05356765 -0.07065119 0.11681993 0.082221396 0.14482997 0.053199932 0.06578355
-0.1119509 -0.014491158 0.10827648 -0.05465293 0.005854493 0.122875944 0.017334867 -0.070859216
0.060879283 -0.0889894 0.09720095 -0.12757407 -0.07666616 0.16176546 -0.0011456504 -0.13674879
-0.09204036 0.09778726 -0.11454795 0.08503043 -0.10065314 -0.005973297 -0.028360397 -0.11846765
0.022025835 0.02705438 0.1135653 -0.02260636 0.10662645 -0.09885181 0.12230863 -0.07882973
0.61815727 -1.161966 -4.111009 -1.0691574 -0.34026104 -0.4204857 -0.5371937 -0.3888923
1.7076321 -0.02566203 -1.4096837 -0.5016503 -0.016222356 0.8427547 2.1666093 0.5148938
00000000: 8b17 9e3e 6de0 3bbf d2b6 33bf 0370 903e
00000010: 816f d13e b27e a63e 42de 563f d372 fd3d
00000020: 58a3 ab3e 5129 973d 2e00 bc3f 980b 08be
00000030: 13b3 9abf 4e24 0e3f b8bd 76bf 9557 a8be
00000040: ec52 ac3e 2240 bebe df4f a8be de39 70be
00000050: 8496 59be 93e7 81be 21a8 913d f004 82b9
00000060: 92fe ab3e 24a4 c9be 275a 8f3d f02f 01be
00000070: be2a 62be cbc0 9abe bb45 ccbc b769 4b3e
00000080: 74dd c43d a916 f8bd eb52 a7bc d99e 3dbe
00000090: 8328 913b 035d 55bb 40b8 793e f4f4 0dbd
000000a0: 27eb 363e e4b1 443e f6af 2abe 2a2d 11be
000000b0: 98fa 183e c45d 053e e3d0 83be 24cb 5f3d
000000c0: 3155 a73d 8c3f 4cbe 7894 f2bd 604c 84be
000000d0: 3b9b 01bd cb0b 223d e01a ccbc ff56 01be
000000e0: 8462 1f3e 3705 d23d 88bf 913b fc25 dc3d
000000f0: 70b4 bd3e 8c60 97bf aa33 63bf b24e 873e
00000100: c719 443f c3f3 f83e 8ad8 d23e dc24 7f3d
00000110: fd30 35bc 4e7c 123e 865e 573f 4a55 443e
00000120: 50e5 9bbf ecf4 16be 0d0f 88be 0bdb 72be
00000130: 9c0d 273f a92f 3fbe 0ef5 a2be 775b 183e
00000140: 7a50 83bc a0ab d13c 8c8b 71bd 4454 073e
00000150: e1fd 0e3f 7829 ddbe d73a 423e a204 40be
00000160: 8525 7bbe ac5a 62bd b0f3 283e c712 743e
00000170: ea27 093e b5b5 44bc a8a5 2ebc ad56 2cbd
00000180: 93be acbb 504a 6cbe 0964 ac3e 9bec c93d
00000190: 26bf 0e3d e4a6 e3bc 3579 a5be a4c1 443e
000001a0: 6071 1cbe a5e3 f33d 596e c3be 79f0 a33e
000001b0: e69a a6be c0ec 6ebe e2f2 08be 2705 18be
000001c0: 4c71 78bd 432c a0bd 9427 233d 9e4d 57bc
000001d0: 2e7f 873c ab72 1abe 54f3 dfbd a7d3 98bc
000001e0: ed02 773e 5b4e 953e 6ae8 ea3d ca53 553d
000001f0: 9845 aebd 0649 0dbe 3ccc 75be b92a 09bd
00000200: 6d14 053e 6130 f1bc 0543 50be 93c4 06be
00000210: 4db7 143e 0dd4 353b 3b54 3c3e 1a5c aa3d
00000220: 877c e83c 08a2 9b3c bffc a13d 15c3 a93d
00000230: caae c3bd c737 f0bc 1bcf cfbd 924b a8bd
00000240: b0c8 1cbe 53ab 043e 7199 ef3c dc2e 4f3c
00000250: 7656 11be 3657 eabc 5cc5 e9bd 9df4 ee3d
00000260: ff3c 88bd 7b1b 8f3d a964 e53d 3db4 0bbe
00000270: 3de6 cfbd ceb2 613d 79cd a5bd 86e0 adbd
00000280: 1017 d4bd 1c0f 273c 5abc 52bd a7b8 dabd
00000290: 0418 d0bd bc6c 49bd 4f47 adbd 0a6e b03d
000002a0: b914 e73d 4a23 93bd 9c31 9cba 3b83 50bc
000002b0: dc82 78bc 4a9d a2bc 3e16 633d adf1 4fbd
000002c0: 6ab2 0b3d e49f 83bd 48af c53d e3df cbbd
000002d0: 64d0 2b3e 52ba 45bc fec5 343c 950b 06be
000002e0: 9a92 20be 9c34 73bd 6fa4 683c f500 36bd
000002f0: e98c eabc 5844 0bbe a6eb 453e 310e 86b9
00000300: 36f2 aabc a9e4 c0bd eecb 93bd d38a 1fbe
00000310: b20d d13d bd59 93bd 06ec a4bd e6d9 a93d
00000320: 075f 583b c169 5b3d 92b1 90bd 4a3f ef3d
00000330: b163 a83d 4f4e 143e 2ce8 593d 87b9 863d
00000340: 8346 e5bd 526c 6dbc 0fc0 dd3d c0db 5fbd
00000350: 0cd7 bf3b 62a6 fb3d da01 8e3c a31e 91bd
00000360: 8e5c 793d 1340 b6bd 4b11 c73d c7a2 02be
00000370: 2603 9dbd d8a5 253e a629 96ba e007 0cbe
00000380: a87f bcbd b044 c83d 1e98 eabd 6f24 ae3d
00000390: 3c23 cebd a6bb c3bb 1054 e8bc 2b9f f2bd
000003a0: 866f b43c 26a1 dd3c ed94 e83d f930 b9bc
000003b0: f85e da3d d172 cabd f27c fa3d 7b71 a1bd
000003c0: 8e3f 1e3f 4dbb 94bf 638d 83c0 26da 88bf
000003d0: b236 aebe e749 d7be 8785 09bf e41c c7be
000003e0: b093 da3f 2d39 d2bc 8470 b4bf 276c 00bf
000003f0: bfe4 84bc c6be 573f baa9 0a40 14d0 033f

linear1.bias f4 [30]
0.08048698 0.051345963 -0.123924896 0.094597235 0.024073988 -0.022476513 0.05060553 -0.031755313
-0.2621202 0.18010342 -0.277596 -0.059139926 -0.27365702 -0.092845574 0.01752271 0.7581852
0.11982946 0.10942209 0.012792206 0.048408743 0.24871895 1.0318756 -0.23960201 0.0015509531
0.015985884 0.11718375 0.06455341 0.19344352 -0.08909778 0.083569184
00000000: 5cd6 a43d 2550 523d 56cc fdbd 32bc c13d
00000010: d036 c53c aa20 b8bc bf47 4f3d dc11 02bd
00000020: 9e34 86be 086d 383e 1021 8ebe b53c 72bd
00000030: c61c 8cbe d225 bebd c98b 8f3c 6d18 423f
00000040: 2669 f53d b018 e03d 6796 513c 3f48 463d
00000050: 2eb0 7e3e 8014 843f 3b5a 75be 5a49 cb3a
00000060: d4f4 823c 09fe ef3d 9434 843d 0f16 463e
00000070: e678 b6bd 5226 ab3d

linear2.weight f4 [15, 30]
0.14096576 0.21746531 0.13394214 0.003910965 0.6729402 -0.07118202 -0.30980247 0.11309259
0.058159325 -0.1235984 0.62603015 -0.19485173 -0.106667645 -0.06933873 0.85658556 -0.09696852
-0.11962843 -0.3341695 -0.5542372 -0.033623286 0.15409628 0.6749883 -0.31397924 0.106631115
-0.37299934 0.40103826 -0.15120713 -0.41739509 -0.016416827 -0.16870584 -0.31329247 -0.39267528
0.18472134 -0.20732993 0.9021519 -0.011697014 -0.9023597 0.19931775 0.14169537 -0.47368404
0.49201813 -0.11246227 -0.3506468 0.46583214 0.94305104 -0.3661883 -0.1263391 -0.8698438
-0.60354185 -0.29803202 0.16573945 -0.06816363 0.37700978 0.29323134 -0.73716235 0.75335085
-0.15995023 -0.9433313 -0.3256167 -0.68628645 0.2676513 0.10774643 0.27692235 0.27505976
0.2581491 -0.21537879 0.17473072 0.021060897 -0.7544121 0.01678215 0.10294522 0.23528497
-0.31563705 -0.3815933 0.2745177 0.95270485 0.15358283 0.110190935 -0.17755675 0.08962224
0.2834107 1.174759 -0.10752078 -0.2365805 -0.28814054 -0.2642626 -0.3481407 -0.3330319
0.4023764 0.27431795 -0.023005163 -0.062752664 -0.0950596 -0.12657218 0.41471153 0.08791238
0.25279033 -0.109899335 -0.66950285 -0.29093683 0.3529244 0.12030029 -0.45123172 0.15041302
0.46128124 0.8132692 -0.08497949 -0.7359348 -0.21062748 0.41561916 0.33990714 0.9131097
0.14588922 -0.17479515 -0.82563996 -0.09199942 -0.38028285 -0.6112547 0.3847366 0.1876114
0.2904367 0.5196519 -0.17124417 -0.14147712 0.634399 0.21807854 -0.34599555 0.09411766
0.26646417 -0.120567836 1.1022713 -0.2062894 -0.05692654 0.14427705 0.850205 -0.019695455
-0.21364318 -0.540987 -0.6433075 0.29242706 0.18187758 -0.27145973 -1.1083016 0.4533134
-0.4061235 0.2637255 0.090306856 -0.10369984 0.28286475 -0.13056651 0.073839344 -0.37245968
0.056809347 0.24486218 0.30459696 -0.0010113106 0.14860079 -0.11364117 -0.6337266 -0.14613035
0.07321221 0.21206954 -0.28311774 -0.18325903 0.34897664 0.6595226 0.112087645 0.0064370064
-0.09539655 -0.12857696 0.20284685 1.3855914 0.16403414 -0.2896376 -0.22765316 -0.25265598
-0.2639643 -0.39383915 0.18765123 0.07796555 0.07486288 -0.022054221 0.00765578 0.20024474
-0.6379773 -0.17266783 0.32734585 0.040970344 0.1485051 0.3457308 -0.52399063 0.12793882
0.15691313 0.04847031 -0.7672477 -0.059032556 0.22238086 0.6536355 0.6134215 -0.15601857
-0.28302196 -0.4476538 0.2961266 -0.25636077 0.6989573 -0.23920017 0.11424878 0.52277946
-0.30723867 -0.00632559 0.025477491 -0.12555262 -0.074538544 0.09084333 -0.85318154 -0.16998795
0.69367737 -0.23323122 0.04119262 0.42146978 -0.6202596 0.10132735 0.38118604 -0.37089986
-0.5948657 -0.33301628 0.23893027 0.585278 0.6139668 0.08132377 -0.19226743 0.17698412
0.04425437 -0.3465348 0.5241403 -0.52337396 -0.03545468 0.66021556 0.09122501 0.45037198
-0.4613553 -0.5086997 -0.04643107 -0.053050514 0.51556253 -0.057181057 -0.42281798 0.18256633
0.28525835 -0.20666021 0.09812534 0.042837795 0.09072134 0.34874284 0.35719416 -0.67907345
00000000: 5459 103e 3aaf 5e3e 2128 093e 8d27 803b
00000010: cf45 2c3f e1c7 91bd 6e9e 9ebe 169d e73d
00000020: 7938 6e3d 2821 fdbd 8343 203f 3687 47be
00000030: 9174 dabd 7701 8ebd 3149 5b3f 6e97 c6bd
00000040: c0ff f4bd 4418 abbe 7de2 0dbf 92b8 09bd
00000050: 6acb 1d3e 09cc 2c3f e3c1 a0be 6a61 da3d
00000060: c5f9 bebe e354 cd3e 0bd6 1abe cfb4 d5be
00000070: 957c 86bc 39c1 2cbe df67 a0be bc0c c9be
00000080: 9727 3d3e 4c4e 54be 6df3 663f d5a4 3fbc
00000090: 0c01 67bf f419 4c3e 9718 113e b786 f2be
000000a0: cde9 fb3e 9e52 e6bd fa87 b3be 8d81 ee3e
000000b0: cb6b 713f 087d bbbe 095f 01be 15ae 5ebf
000000c0: b881 1abf a797 98be 9ab7 293e 6099 8bbd
000000d0: 6d07 c13e 6b22 963e acb6 3cbf 9adb 403f
000000e0: fec9 23be 297e 71bf 3bb7 a6be 78b0 2fbf
000000f0: 9709 893e 29aa dc3d c4c8 8d3e a2d4 8c3e
00000100: 1e2c 843e 428c 5cbe 9cec 323e e787 ac3c
00000110: 2721 41bf b87a 893c f2d4 d23d 8bee 703e
00000120: 2e9b a1be 3260 c3be 958d 8c3e 77e4 733f
00000130: d144 1d3e c9ab e13d 70d1 35be dd8b b73d
00000140: 351b 913e 815e 963f db33 dcbd 2942 72be
00000150: 2887 93be 6d4d 87be 7f3f b2be 2883 aabe
00000160: 4804 ce3e 6773 8c3e 5375 bcbc 7884 80bd
00000170: 9cae c2bd 239c 01be 1255 d43e 680b b43d
00000180: bc6d 813e e712 e1bd 8a64 2bbf acf5 94be
00000190: 82b2 b43e 0060 f63d d807 e7be df05 1a3e
000001a0: 0e2d ec3e 6932 503f ba09 aebd 3966 3cbf
000001b0: bbae 57be 09cc d43e 4f08 ae3e 8fc1 693f
000001c0: fc63 153e 80fd 32be 245d 53bf 316a bcbd
000001d0: 6fb4 c2be 307b 1cbf 32fc c43e 341d 403e
000001e0: 1fb4 943e e807 053f a25a 2fbe 61df 10be
000001f0: f967 223f fb4f 5f3e 5426 b1be c2c0 c03d
00000200: fe6d 883e 45ec f6bd 3a17 8d3f 873d 53be
00000210: ce2b 69bd 5dbd 133e 09a7 593f 5d58 a1bc
00000220: 47c5 5abe 207e 0abf cdaf 24bf 00b9 953e
00000230: 1e3e 3a3e c5fc 8abe d4dc 8dbf b218 e83e
00000240: 6bef cfbe 0707 873e cdf2 b83d 9560 d4bd
00000250: a6d3 903e 3ab3 05be 1539 973d 09b3 bebe
00000260: ebb0 683d 27bd 7a3e 22f4 9b3e f48d 84ba
00000270: ce2a 183e b4bc e8bd e83b 22bf 32a3 15be
00000280: 48f0 953d c228 593e cff4 90be 41a8 3bbe
00000290: 11ad b23e 79d6 283f 358e e53d 86ed d23b
000002a0: 445f c3bd aea9 03be 16b7 4f3e 0f5b b13f
000002b0: 91f8 273e 614b 94be e91d 69be 205c 81be
000002c0: 5426 87be 49a5 c9be a527 403e 67ac 9f3d
000002d0: b651 993d 0eab b4bc 56dd fa3b f50c 4d3e
000002e0: 7b52 23bf d6cf 30be e099 a73e 85d0 273d
000002f0: b911 183e a103 b13e 4024 06bf 6502 033e
00000300: d6ad 203e ce88 463d 586a 44bf 1fcc 71bd
00000310: cfb7 633e a854 273f 3109 1d3f 55c3 1fbe
00000320: 41e8 90be e132 e5be e89d 973e b841 83be
00000330: deee 323f e4f0 74be 44fb e93d e0d4 053f
00000340: 634e 9dbe e546 cfbb 2cb6 d03c de90 00be
00000350: aaa7 98bd 110c ba3d 1b6a 5abf 5211 2ebe
00000360: d794 313f 2ad4 6ebe 98b9 283d e3ca d73e
00000370: 55c9 1ebf b784 cf3d d12a c33e 96e6 bdbe
00000380: 1e49 18bf 1c81 aabe 23aa 743e c7d4 153f
00000390: ee2c 1d3f 148d a63d c1e1 44be 533b 353e
000003a0: 1244 353d 026d b1be 0f2e 063f d6fb 05bf
000003b0: ed38 11bd e303 293f 2ed4 ba3d 2897 e63e
000003c0: c336 ecbe 253a 02bf 812e 3ebd 7f4b 59bd
000003d0: e8fb 033f af36 6abd 997b d8be abf2 3a3e
000003e0: 620d 923e bc9e 53be f0f5 c83d af76 2f3d
000003f0: 1ccc b93d 6c8e b23e 27e2 b63e c2d7 2dbf

linear2.bias f4 [15]
0.11759168 0.8793044 -0.55841106 -0.60705477 0.23136184 -0.471898 -0.018627472 -0.5944809
0.7258873 -0.15153532 1.062869 -0.09975195 0.6048366 -0.54859316 0.75676125
00000000: e8d3 f03d 181a 613f 07f4 0ebf f167 1bbf
00000010: 1eea 6c3e 9d9c f1be a498 98bc e62f 18bf
00000020: c0d3 393f 132c 1bbe 170c 883f c04a ccbd
00000030: 92d6 1a3f 9a70 0cbf 1bbb 413f

linear3.weight f4 [8, 15]
-0.5715305 -1.568454 -0.89431673 -0.3281525 -0.2406337 -0.9311091 0.8168359 1.3122685
-0.32502213 -0.29518738 0.15010479 -0.61997527 0.5942431 0.54740655 -0.68808067 0.57728153
0.80887645 -0.932884 -0.6287871 1.5096928 -1.2597044 -0.5255966 -1.0657934 0.17237054
-1.2982929 1.06431 0.666765 0.40221357 -0.29574838 0.9735472 -0.9742841 -1.9535002
0.7954225 0.20286436 -0.44849873 0.46810433 0.79244447 1.4670722 -1.1382681 0.17384124
-1.2309452 -0.17954424 -0.5201294 1.1144569 -1.0785078 0.6307031 0.37058955 0.4032222
-0.4797228 0.71927464 0.38933378 -0.053651277 -0.6459114 -0.47734526 -0.37128574 -0.86764276
0.77290916 0.07026997 0.59714365 -0.5195353 0.069642715 0.6492623 -0.06285775 -0.40667439
-0.73723835 0.49372807 0.22253415 0.19923109 0.3891643 0.51908135 0.3587091 -0.04355322
0.31011638 -0.49772644 0.30275574 -0.5407908 0.20693007 -0.96229804 -0.19991806 -0.789865
-0.6520926 0.9402471 0.14043975 0.64761025 0.28430843 0.65761334 -0.7133825 0.66967386
-0.24913324 0.587701 0.9467119 0.709208 0.8685018 2.0573077 1.0138855 0.5698123
-1.6553395 -1.1253128 -0.3404264 0.29455212 -1.1684686 0.5226072 -1.3065386 0.12625524
0.2990117 0.77035064 0.71526116 0.13542204 0.071934834 -0.35529912 0.7806959 -0.14903855
0.1261246 0.5301481 0.7292584 0.6231027 -0.3581005 0.52197224 -0.6858252 0.3128045
00000000: d34f 12bf 1ac3 c8bf f1f1 64bf 9b03 a8be
00000010: ae68 76be 2a5d 6ebf 281c 513f 6af8 a73f
00000020: 4d69 a6be cd22 97be 12b5 193e b3b6 1ebf
00000030: 5120 183f d622 0c3f 0e26 30bf b9c8 133f
00000040: 8712 4f3f 7cd1 6ebf 31f8 20bf 9d3d c13f
00000050: fe3d a1bf 808d 06bf eb6b 88bf e781 303e
00000060: 762e a6bf 4f3b 883f 1cb1 2a3f f0ee cd3e
00000070: 556c 97be 643a 793f af6a 79bf 4b0c fabf
00000080: cfa0 4b3f adbb 4f3e a0a1 e5be 5fab ef3e
00000090: a4dd 4a3f 06c9 bb3f c5b2 91bf 7003 323e
000000a0: 9d8f 9dbf 72da 37be 3327 05bf 86a6 8e3f
000000b0: 8b0c 8abf c275 213f eabd bd3e 2473 ce3e
000000c0: 3a9e f5be 6222 383f c256 c73e 71c1 5bbd
000000d0: 735a 25bf 9966 f4be 2a19 bebe d61d 5ebf
000000e0: 60dd 453f b4e9 8f3d 68de 183f 4400 05bf
000000f0: d7a0 8e3d 0e36 263f 90bb 80bd a037 d0be
00000100: a7bb 3cbf edc9 fc3e fedf 633e 3c03 4c3e
00000110: 8b40 c73e 84e2 043f b8a8 b73e dc64 32bd
00000120: 93c7 9e3e 00d6 febe cd02 9b3e 4471 0abf
00000130: 7ae5 533e 2a59 76bf 52b7 4cbe 9834 4abf
00000140: 8aef 26bf 09b4 703f 70cf 0f3e c9c9 253f
00000150: e090 913e 5959 283f 3ca0 36bf bf6f 2b3f
00000160: c91c 7fbe 9373 163f b65b 723f a88e 353f
00000170: 2256 5e3f eeaa 0340 00c7 813f 38df 113f
00000180: 2ae2 d3bf 400a 90bf 5e4c aebe 89cf 963e
00000190: 6190 95bf 96c9 053f a83c a7bf 0e49 013e
000001a0: 1018 993e b335 453f 5b1b 373f 13ac 0a3e
000001b0: 9252 933d c4e9 b5be b0db 473f 909d 18be
000001c0: cf26 013e c9b7 073f aeb0 3a3f a983 1f3f
000001d0: f358 b7be f99f 053f 3e92 2fbf e927 a03e

linear3.bias f4 [8]
0.06594801 -0.00586757 -0.41882706 0.10440008 0.23961999 0.34241828 -0.18642357 0.3135329
00000000: c00f 873d bf44 c0bb 8070 d6be b6cf d53d
00000010: f15e 753e 7351 af3e d2e5 3ebe 6287 a03e
