Assignment_1/Task_2b/model_weights.pth (torch, 11671 bytes, 6 tensors)

linear1.weight f4 [30, 60]
00000000: 0107 24be 81e4 a13e d36e 623d 4b04 d93c
00000010: 65d9 b93d 95ee 8b3e 9a24 4bbe cdcc a9be
00000020: d19a f93e 30ab 25bf 5109 86be 5e3a fb3d
00000030: 18a0 293f 7474 423f a09a 2d3e e892 2f3e
00000040: 1670 87bf 33fc f0bd e14f d7bc 0c36 cdbe
00000050: 8957 053e 4cd3 293e c9db 30bf d85b 88be
00000060: 065f 85bf ce7d 603f 1e29 b7be ab49 0e3f
00000070: 63e5 df3c 63b2 d6bd cd12 e83d db2a 313e
00000080: 4923 053e 01aa 02bf 3530 313f 421e f53e
00000090: af2d 2e3d c2f9 94bd 523b c83c d9b3 bd3e
000000a0: c45d 2bbc bdc1 26bd 1301 fe3e 7281 9bbf
000000b0: bc76 da3e 956b 473e ef4a 6cbe 26bf 2e3e
000000c0: ee22 94bc 375a 8b3f c6f0 54bc 5bff 673f
000000d0: 4baa fa3d bf79 603d 81be 2dbe 5fe7 ebbe
000000e0: bcde 0a3f 1f01 b43e d006 813e 86ae 08bf
000000f0: 5206 57bd 1596 61be 27d3 073e 1b4e 883d
00000100: 68b1 73bf 3065 8c3e 9b34 acbe e31d cbbe
00000110: 88e6 053f 4c23 4ebf 51af edbc cac6 bf3e
00000120: 812c 10bf c7be 0cbe d615 a93d 2bed ff3e
00000130: de1d 3f3e 520b 38be 8ce9 f2bd 0c60 203f
00000140: 877d bdbe 3543 333f 221d 5a3f 21b8 b03e
00000150: be0f 153f 3190 753d d328 7f3c c913 25bf
00000160: da36 89bd 770c 93bc 8561 ba3e 7cc0 a0bf
00000170: f5b6 a7be e633 bd3e 6397 e5bd ac72 7ebf
00000180: 1c9f e23e 12a7 cebe 0716 9f3e 036a a2bf
00000190: 6fe5 133e abab c4bd 7732 a13d 6dad 3bbe
000001a0: 37a5 cbbe 6092 33be c76d 97be ebe7 0a3f
000001b0: 3d2a e63e 09ee a9be f120 84bd 2604 78bc
000001c0: 2b2f 86bf bb80 153f c7dd 94be 6910 9ebe
000001d0: f147 cd3d 2409 92bb eb09 8c3e 3a7c b8be
000001e0: 0651 34be 1c69 99be 5ecf d1be de19 d63e
000001f0: d124 883e 4309 86bb e174 1d3f cfc8 f43e
00000200: 11a8 ddbd bf5b 45bf 1ec0 77bd 7969 54bf
00000210: c882 8b3e 3af6 4e3f 9095 a4bd 3f9a 97be
00000220: 8f8e d63e 25b7 6f3e 53a3 0dbd e490 a23e
00000230: 0457 3a3e 108f fcbe a38d 153e 8722 133f
00000240: ef3f 26be 3cd3 933e 5214 bc3e 75c4 c03d
00000250: ce3d 0c3f dd3a abbe b0f6 f0be 2ee8 1ebf
00000260: e7ab 2fbe 0ccf ab3e 53c0 a23c f157 e0be
00000270: de19 cfbe 5037 253f 0afc 3dbf 493b fc3e
00000280: 4df4 383b ff6c a8be 182c 093e e772 d23e
00000290: b396 813f bbfb d63e ee8b ea3d 8720 9abe
000002a0: f6e5 293f ed75 2b3d 92be 023c ea03 9e3e
000002b0: 3b7b fbbc 9fb2 0ebf 719e 0bbf e1c6 6bbf
000002c0: b22f 233f 41d5 c33e 9502 39bf 77ce c1be
000002d0: cbcb b93d 4940 96be e8bd 43bf 115b a73e
000002e0: 23be 953e ed29 9c3d e03e dcbe 6bde ba3d
000002f0: 2958 2c3f 72e6 263f be99 dcbe dd18 35be
00000300: e92c 0abf 1014 103d 6d48 4e3f f730 c0be
00000310: 1705 ca3d b430 25bc a878 e7be e97e 0d3f
00000320: 7546 bd3e 62d5 2e3f b758 01be 1634 263f
00000330: 1f9c 1f3d 5ce9 22bf 6aab 86bd 8b4b 60be
00000340: 260a d73e d699 193f ccb8 b93e 2a29 e13e
00000350: 0374 ccbd bdbd 8cbe 89c1 18be 41be 94be
00000360: 6d24 63be d2a0 53be e40d 0e3f 02fa ee3c
00000370: cc09 be3a 0f4f 293f 26a1 f73e 0003 ba3e
00000380: d825 dc3e 6a36 b63e c55e aabe 2479 223e
00000390: 13e6 35bd 489a 183f 5830 ccbe e507 a13e
000003a0: 1b5d 72be 5425 adbd fbd3 953e eaa1 0abf
000003b0: 3485 7dbe 3724 f9be 83c8 37bf 42fc 12bf
000003c0: 212a 26be 54ac cebe dfed 863e 2b02 3f3f
000003d0: de1f 9f3e 7415 9c3e 1946 f33e c42b 853f
000003e0: a7af 843e 84ee 383e db99 123f 1588 743e
000003f0: e6a5 43be 2e63 80be 14a9 b7be 4b29 8c3d
-0.16018297 0.31619647 0.05528147 0.026491305 0.09074668 0.2733046 -0.19838181 -0.33164063
0.48750928 -0.64714336 -0.26178983 0.12266992 0.6625991 0.75958943 0.16953516 0.17145884
-1.0581081 -0.11766853 -0.026283206 -0.40080297 0.13021673 0.1658451 -0.69085366 -0.2663257
-1.0419624 0.8769196 -0.35773557 0.5558116 0.02733106 -0.10483243 0.11331711 0.17301504
0.13001741 -0.51040655 0.69214183 0.47874647 0.042524036 -0.072742 0.024442349 0.37051275
-0.010459367 -0.040712107 0.49610195 -1.2148879 0.42668712 0.19474633 -0.2307546 0.17065105
-0.018083062 1.0886906 -0.012996858 0.90624017 0.12239512 0.054803606 -0.16967203 -0.4607496
0.54246116 0.35157105 0.2520051 -0.533913 -0.052496262 -0.22029908 0.13264142 0.066555224
-0.95192575 0.2742095 -0.33633885 -0.3967124 0.5230489 -0.8052261 -0.029014261 0.37456352
-0.5631791 -0.13744651 0.08256118 0.49985632 0.18663737 -0.17973068 -0.11860952 0.62646556
-0.37009832 0.70024425 0.85200703 0.3451548 0.58227146 0.059951965 0.015573698 -0.64483315
-0.06699915 -0.01795028 0.36402526 -1.2558742 -0.32756773 0.36953658 -0.11210515 -0.99393725
0.44262016 -0.4036184 0.31071493 -1.2688602 0.1444299 -0.096030556 0.078709535 -0.18327875
-0.39774486 -0.17536306 -0.2957594 0.5426013 0.449541 -0.3318942 -0.064515956 -0.015137708
-1.0483145 0.5839955 -0.29075453 -0.30871895 0.10023487 -0.004456656 0.27351317 -0.36032277
-0.17609033 -0.29963005 -0.4097852 0.4181661 0.2659059 -0.0040904596 0.6150647 0.47809455
-0.10823072 -0.7709312 -0.06048595 -0.8297344 0.27248216 0.8084446 -0.08036339 -0.29609868
0.4190564 0.23409708 -0.034579586 0.31751168 0.18197256 -0.49327898 0.14604811 0.5747456
-0.16235326 0.28872097 0.36734253 0.09412471 0.54781806 -0.33443347 -0.47063208 -0.6207303
-0.1715542 0.33556402 0.019867098 -0.43817094 -0.40449423 0.64537525 -0.74212706 0.4926398
0.0028221786 -0.32895657 0.13395727 0.4110329 1.0124115 0.4198893 0.11452471 -0.3010294
0.6636652 0.04186051 0.007980006 0.3086236 -0.03069841 -0.55741304 -0.5453864 -0.9210034
0.6374465 0.38248637 -0.72269565 -0.37852833 0.090720735 -0.2934592 -0.7646165 0.32686666
0.29246625 0.07625184 -0.4301672 0.09124454 0.6732202 0.6519538 -0.43086046 -0.17685266
-0.5397478 0.035175383 0.8057926 -0.37537357 0.09864252 -0.0100824125 -0.4520924 0.55271775
0.36967817 0.68294346 -0.12631498 0.64923227 0.038967248 -0.6363733 -0.065756634 -0.21903817
0.4199993 0.6000036 0.362738 0.43976718 -0.09983065 -0.2748851 -0.14917578 -0.29051402
-0.22181864 -0.20666817 0.55489945 0.029171947 0.0014498769 0.6613626 0.48365134 0.36330414
0.42997622 0.3558839 -0.33275428 0.15866524 -0.04440887 0.59610415 -0.39880633 0.31451336
-0.2366833 -0.084543854 0.2926329 -0.5415331 -0.24757844 -0.48660442 -0.7179033 -0.57416165
-0.16227008 -0.4036585 0.26353356 0.74612683 0.31079 0.30485117 0.47514418 1.0403981
0.25915262 0.18059736 0.57266015 0.23880036 -0.19106254 -0.25075668 -0.35871184 0.068438135

linear1.bias f4 [30]
00000000: 11d4 a43e 8c1f 273f 3428 3d3f 02f0 443c
00000010: 0d46 523f 7358 5cbf ad46 a8bd 0346 b7be
00000020: 7286 853c b940 c2be 6b15 afbd deb8 11bf
00000030: d43f 5f3f 1815 583e 4700 1bbf 5dec 45bf
00000040: 466a 273f b111 893e 0d57 243f 8634 d33e
00000050: 5f8a 923e ca96 5e3f 3af8 063e f990 983e
00000060: 8d44 d0bd a035 cb3e 0e17 68be 8e09 5bbe
00000070: a789 8d3f 07ee 7fbe
0.32193044 0.6528251 0.7388947 0.012020113 0.8213814 -0.8607246 -0.08216605 -0.35795602
0.01629946 -0.37940004 -0.08549007 -0.5692271 0.8720677 0.21101797 -0.605473 -0.77313787
0.65396535 0.2677131 0.6419533 0.4125101 0.28621194 0.86948836 0.13180628 0.29798105
-0.10169325 0.3968935 -0.22665045 -0.21390364 1.1057633 -0.24993144

linear2.weight f4 [15, 30]
00000000: 8d9b bd3e 5f4b 273d baa6 573e 24a1 34be
00000010: d159 183f 7e69 67bf f8db 41bf 7726 28bf
00000020: 99df 843e 5a9b 1a3e 3ac0 40be c243 8a3e
00000030: 59e7 e83e c4e6 aa3e 1152 8bbf 51ba 59bf
00000040: 367f a8be ccf2 203f 54a7 b93c f87a 053f
00000050: a07d c83e b94b 883f e536 323f b6f4 c0bd
00000060: 846a 54bf 6f16 db3e 58d2 413d 099c f1be
00000070: 9fbd aa3e d0ec e9be f0e0 3cbe fbe5 633e
00000080: 269b f4be f03d 153f c0af 263d 35bd 85bd
00000090: af6a 043e dd3b 913f d65f 87be 617b 8f3e
000000a0: fd9f 55bf c4f0 523e fddc 74bd f512 ecbe
000000b0: 350f 9cbb 5d39 44bd 9a08 7dbf 8ffd 1abe
000000c0: 3771 3b3f 5bc3 31bf 6b5c 153f b708 c33d
000000d0: 3af5 a6be 9b68 77be 36d3 b9bd be49 22bf
000000e0: fa40 1a3f 32f3 4cbd e249 17bf ee39 033f
000000f0: 370f 593f dfdc 45bd c8fe 09be f6df 4cbd
00000100: e7bc 5bbf 7af4 a13e a5da 1b3e 676b c7be
00000110: 4e65 433e c923 933e 3275 8b3f e977 723e
00000120: 6c23 49bf c119 42bf 0854 213f edf1 e73d
00000130: ba63 83be 304d 7bbf 0337 33bf 5c4a dbbe
00000140: f385 cebe 22a4 4c3e bf04 81bd 5a63 4f3f
00000150: ceb6 023f bb22 1dbf b133 a6be 93a1 55be
00000160: e56b 543d 24ce 003e eabf 2d3f ade8 a8be
00000170: da47 223f 33d4 f1be 9ed7 1ebe 4566 303f
00000180: 25b5 053e 1447 02bf 3657 483f 8596 cabe
00000190: 6b55 173f b7cb 00bf d1c5 1a3e af43 333e
000001a0: 7b42 0f3f cdac 45bf bf5d 423f ef54 0ebf
000001b0: 7245 3dbf ffc9 a13e 58ad 09bf 91df 13bf
000001c0: 8c7c b93d b82c 0f3f 1b3b 393f 372b 923e
000001d0: b12a 0dbf 997e e13c 1560 e93e fe7f 3bbe
000001e0: 1c49 46bf f0e5 383f 8ec0 5c3e 91ea 183f
000001f0: 6b49 4b3e a9bc 753d 8de3 03bd bb31 063f
00000200: eec4 8b3e ab08 48bd 632f 74bf 7371 e5be
00000210: 3640 133f 8239 31bf 2b52 35be 4074 25bf
00000220: 43ce 983e 390d 983d 772a 833f 4993 f43e
00000230: 683e 233f d45d 1e3f 599d 9a3d 0006 40bf
00000240: 8474 10bd cad7 5ebf 9517 8fbe 454a 863e
00000250: 976a e13e 8634 a53e 12eb 1e3f d56a f0be
00000260: a5d1 99be b193 253f 3290 673d be69 363f
00000270: 2a32 ef3d 56b1 2d3f 8fee 8d3e d7c6 f0be
00000280: 2da8 9c3e 8c5d c8bd 2b80 06bf 5358 5d3e
00000290: d089 ac3f c4d1 ac3e f3eb 4c3d e88a 57bf
000002a0: ac9e 0bbe 4451 0a3e 73d1 2abf 6b9c 613d
000002b0: 82dc 90be a469 c23e 9d4e 833f b200 09bf
000002c0: 3cb7 52bb 0ef4 02bf c65b c83d 2ae7 dcbd
000002d0: 8af5 5cbe 3902 e1be ea54 403e 7c35 233e
000002e0: 4a72 8a3e 79d5 40be 3a44 0fbf 8b6b 2cbe
000002f0: e51d 47bf 389d 32be 2216 19bf 8995 453f
00000300: d920 433f 141a 073f 5bb8 58be 3cb2 e6be
00000310: 3ed4 4cbf 2ab6 fe3e 9263 3bbe b208 8cbd
00000320: ce4a 7f3f 43c3 17be 0d74 a83e 5312 cdbe
00000330: 232e 02bf a667 c13e 8d5c 4bbe 91ae 043e
00000340: 4e9c 1bbe 2f2d 9e3d 4cc8 53be 0f18 76bf
00000350: 5a30 2bbf 1424 bd3e 0a1a 1fbe 8326 723f
00000360: c324 243f 6d31 3a3f 0649 2a3f caa9 233f
00000370: 3ad7 0cbf ead2 d43e 6bdb 1fbf 5086 44bf
00000380: dda9 cd3d dd39 e03d b8af c9be ceb4 24bf
00000390: 4364 2f3e 72c9 8d3e 60c9 e3be 33b1 94bd
000003a0: 0f12 32bf 5103 99be a606 0dbc 5185 41bf
000003b0: 10d7 113e 65c0 febd c561 11bf 4be2 1c3f
000003c0: 6fd9 d7be 44ff af3e 10c4 083f 0795 debe
000003d0: ea01 953e f7ce 5fbe 3ece 5fbe 864e 81bf
000003e0: a605 29be 277c 72bf 53d9 5ebe 981e d6bd
000003f0: 9d73 813f f09a 3f3e 293b 15be 4795 31be
0.37032738 0.040843364 0.21059695 -0.17639595 0.5951205 -0.90395343 -0.7572627 -0.6568369
0.2595184 0.15098324 -0.18823329 0.2700482 0.45489004 0.33379185 -1.088442 -0.8504992
-0.32909554 0.6287048 0.022662796 0.5214076 0.39158344 1.0648109 0.6961501 -0.09421675
-0.8297503 0.42790553 0.04731974 -0.47189358 0.33347794 -0.45688486 -0.18445182 0.222557
-0.4777462 0.58297634 0.040694952 -0.06530229 0.12931322 1.1346394 -0.26440305 0.28023818
-0.8344725 0.20599657 -0.059781063 -0.46108213 -0.004762555 -0.04790627 -0.9884125 -0.15135787
0.7321963 -0.69438714 0.58344144 0.095231466 -0.32608968 -0.24160998 -0.090734884 -0.6339377
0.60255396 -0.050036617 -0.5909711 0.5126027 0.8478884 -0.048306342 -0.13476098 -0.050018273
-0.8583512 0.31631833 0.15220125 -0.3894913 0.19081613 0.2873824 1.089514 0.23678555
-0.78569674 -0.7582055 0.63018847 0.113254406 -0.25662023 -0.98164654 -0.70005816 -0.4283017
-0.4033657 0.19984487 -0.06299733 0.81010973 0.5106019 -0.6138112 -0.32461312 -0.20862417
0.05186071 0.12578636 0.6787096 -0.32990018 0.63390887 -0.47232208 -0.15511939 0.6890605
0.13057382 -0.50889707 0.78258073 -0.39567962 0.5911471 -0.50310844 0.15114523 0.17506288
0.55960816 -0.772168 0.75924295 -0.5559835 -0.7393409 0.31599423 -0.53780127 -0.5776301
0.090569586 0.5592761 0.7235581 0.28548595 -0.55143267 0.027526187 0.45581117 -0.18310544
-0.77455306 0.72225857 0.21557829 0.5973292 0.19852225 0.059994373 -0.03219943 0.5241963
0.27298683 -0.04883639 -0.95384806 -0.44813117 0.57519853 -0.69228375 -0.17707126 -0.6463051
0.29844865 0.07424397 1.0247334 0.4776862 0.637671 0.6186192 0.07549543 -0.75009155
-0.035267368 -0.8704802 -0.2794768 0.26228538 0.44026634 0.32266635 0.6207744 -0.46956506
-0.3004276 0.64678484 0.056534 0.712551 0.1167949 0.6784872 0.27721068 -0.47026703
0.30597058 -0.09783468 -0.5253932 0.21615724 1.3479557 0.33753788 0.050029706 -0.8419633
-0.13634747 0.13507563 -0.66725844 0.055080812 -0.28293234 0.37971222 1.0258366 -0.53516686
-0.0032152673 -0.5115365 0.097831294 -0.107862785 -0.2157804 -0.43947008 0.18782392 0.15938371
0.2704032 -0.18831433 -0.5596348 -0.168379 -0.7777999 -0.17442787 -0.59799397 0.771813
0.76221997 0.5277417 -0.21164076 -0.45057857 -0.80011356 0.49748355 -0.18299702 -0.06837596
0.9972352 -0.1482058 0.3290104 -0.40053043 -0.5085165 0.3777439 -0.19859524 0.12957217
-0.15196344 0.07723462 -0.20681876 -0.9613046 -0.66870654 0.36941588 -0.15537277 0.94590014
0.64118594 0.7273167 0.66517675 0.6393095 -0.5501591 0.41567165 -0.6244418 -0.76767445
0.100421645 0.109485365 -0.39391875 -0.64338386 0.1712809 0.27692753 -0.44489574 -0.072603606
-0.69558805 -0.29885343 -0.008607542 -0.7559405 0.14242196 -0.1243904 -0.5678981 0.61282796
-0.42158076 0.3437444 0.5342417 -0.43473074 0.29103023 -0.21856295 -0.21856019 -1.0102088
-0.16506061 -0.9472069 -0.2176259 -0.10455054 1.0113407 0.18711448 -0.14573349 -0.17342101

linear2.bias f4 [15]
00000000: d7b8 473f 3e56 c5be 5070 81bd 634b 933e
00000010: 0c6f 22be f780 073e ddff 233e e01b 15bf
00000020: 0c02 db3e 06ff ac3d 50b4 0d3f 0126 ddbe
00000030: 56ba 983d 9238 14bf 63c0 83be
0.7801642 -0.3854236 -0.0632025 0.28768453 -0.15862674 0.1323279 0.16015573 -0.5824566
0.42775 0.08447079 0.5535326 -0.43193057 0.07457416 -0.5789882 -0.25732717

linear3.weight f4 [8, 15]
00000000: 79e4 493f 8cd5 d5bd 95f1 d0bf d78e d3bf
00000010: 9c7c 7b3d 5ce2 11c0 c104 473f 6d6e babe
00000020: d91d a93f 1c49 903f 61c0 3fbf 453a ce3e
00000030: f12a b8bf 902c dc3f bec6 3b40 89ac 15c0
00000040: f06c 3040 af0f f23d 912a bbbf e034 f3be
00000050: 7b5f 943f 0e05 613f e1fb 0440 ade4 58bf
00000060: a946 b4bc 8d8a 86bf c3ce 4d3f 7da7 1a40
00000070: e51d fabe b0f6 d43e 3e65 9c3f b21e 313d
00000080: 3953 04bf 12a3 033e c4bf 08c0 694e d6bf
00000090: 6260 903f b5b4 c2bf 9455 3b3f 0bc9 36c0
000000a0: 8555 31bf 02d6 4bbe 1e25 cfbe 08b1 fe3f
000000b0: 1796 5cc0 d7e6 1f40 154c 9e3f dce5 abbf
000000c0: 5000 e4bf fa77 2140 8044 f6be 8f6d c43e
000000d0: f90a a33f c8bc d7be b35f aebf e571 be3f
000000e0: 7193 fe3f 0cfd ddbf 7944 01c0 a9dc b9bf
000000f0: 597b fbbf 9c3a c4be f9c4 493f ebca 323f
00000100: fde3 5bbe a6a5 fa3e 3662 f4bf 8b29 d3bf
00000110: c30b a93f 4774 433f 58ca cdbf d933 febf
00000120: 0256 723f 3170 70bf 38d4 aa3d 634c c3bf
00000130: cd2d 76bf 065d cc3f cc8c fd3f 6418 3fbd
00000140: c13e a43f ef75 64bf 8562 1c40 470c eabf
00000150: d2a5 9f3e 4d6c 05bf 7a9d 0f40 c0b1 ebbf
00000160: 4963 d73f 0428 de3e 37d7 8f3d 4251 b5bc
00000170: 30e2 4cbf 8758 ab3e 04cb 7340 cad5 c33f
00000180: ff2c fe3e db5c 86bf 4458 0340 7d23 f3bf
00000190: 69bf 923f d1a3 14c0 8287 0a3f 2d6b 97bf
000001a0: d486 bfbf 0ba9 2040 443c 34bf 03d3 a43f
000001b0: 0e72 873f 9c2b dbbf c09f ddbc 212f 223e
000001c0: 4191 c1bf 4a81 95bf 1832 9a3f 4fb7 6e40
000001d0: c206 cdbf ac7d bc3f 6db5 c9bf c702 3b3f
0.78864247 -0.104411215 -1.6323725 -1.6527966 0.061398134 -2.2794409 0.7774163 -0.36412373
1.3212234 1.1272311 -0.7490292 0.4027883 -1.4388105 1.7201099 2.9340053 -2.3386557
2.756649 0.11819398 -1.4622365 -0.47501278 1.1591638 0.8789834 2.0778735 -0.8472393
-0.02200635 -1.0511032 0.8039362 2.4164727 -0.48850933 0.41594458 1.2218397 0.043242164
-0.5168949 0.12855175 -2.1367044 -1.6742679 1.1279414 -1.5211397 0.73177457 -2.8560207
-0.6927112 -0.19905856 -0.40458006 1.9897776 -3.4466608 2.4984643 1.2366968 -1.3429523
-1.7812595 2.5229478 -0.48099136 0.38364837 1.2737724 -0.42136216 -1.3622955 1.4878508
1.9888746 -1.7342849 -2.0198042 -1.4520465 -1.9647018 -0.38325965 0.7881618 0.6984088
-0.2147369 0.48954505 -1.9092472 -1.6497053 1.3206714 0.763493 -1.6077375 -1.9859573
0.9466249 -0.9392119 0.08341259 -1.5257686 -0.96163636 1.5965889 1.9808593 -0.04665412
1.2831651 -0.8924245 2.4435132 -1.8284997 0.31181198 -0.5211838 2.2439866 -1.841362
1.6827174 0.43389904 0.07023471 -0.022133473 -0.80032635 0.33465979 3.809266 1.5299618
0.49643704 -1.0497087 2.0522623 -1.8995205 1.1464664 -2.3224986 0.5411302 -1.1829582
-1.4963021 2.5103176 -0.7040446 1.2876896 1.0581682 -1.7122684 -0.027053714 0.15838291
-1.5122453 -1.1680081 1.2046537 3.7299383 -1.6017687 1.4725852 -1.5758492 0.7305111

linear3.bias f4 [8]
00000000: 6182 3abc 0dc3 52bf fe6f 00bf a527 843f
00000010: e38e 8b3e 7d5a 573c a4f5 f7be 9ac1 0d3e
-0.011383624 -0.82328874 -0.50170887 1.0324599 0.2725745 0.013144133 -0.48429596 0.13843384
