Assignment_1/Task_2a/epoch1.pt (torch, 2391 bytes, 5 tensors)

hidden1.0.weight f4 [4, 2]
00000000: c06b 87be a430 43be a34f b0bd 233c d23e
00000010: 14aa 1f3f ef85 65be fd17 8fbe c0d7 463e
-0.26449394 -0.19061524 -0.086089395 0.41061506 0.62368894 -0.22414373 -0.2794799 0.1941824

hidden1.0.bias f4 [4]
00000000: 5459 f93e d850 2d3c aa5b 383e 702d 65be
0.48700964 0.010578357 0.18003717 -0.22380614

hidden2.0.weight f4 [2, 4]
00000000: 4894 b7be c872 b2be 888d 9ebc e23c 893d
00000010: 45a2 b93e 2b69 c43e f7d0 9f3e 1f67 df3e
-0.35855317 -0.34853196 -0.019354597 0.067010656 0.36256614 0.38361487 0.31214115 0.43633363

hidden2.0.bias f4 [2]
00000000: 5d57 c5be 0590 e43d
-0.38543215 0.11160282

output.0.weight f4 [1, 2]
00000000: ee38 4b3e f274 2dbd
0.19845936 -0.042347856
