Assignment_1/Task_2a/epoch10.pt (torch, 2391 bytes, 5 tensors)

hidden1.0.weight f4 [4, 2]
-0.18507771 -0.25492927 -0.111422606 0.40317765 0.62681824 -0.21626703 -0.21474707 0.25027603
00000000: 0385 3dbe 1786 82be 8931 e4bd 4d6d ce3e
00000010: 2977 203f 1b75 5dbe a8e6 5bbe 2e24 803e

hidden1.0.bias f4 [4]
0.49215665 0.010793869 0.17972858 -0.22518827
00000000: f5fb fb3e c5d8 303c c50a 383e c197 66be

hidden2.0.weight f4 [2, 4]
-0.43058336 -0.2014252 -0.052350435 0.14452629 0.33133516 0.4246405 0.3061511 0.45720676
00000000: 6c75 dcbe 6842 4ebe 696d 56bd b3fe 133e
00000010: c3a4 a93e 7b6a d93e d6bf 9c3e 0117 ea3e

hidden2.0.bias f4 [2]
-0.43020868 0.09990122
00000000: 5044 dcbe 0399 cc3d

output.0.weight f4 [1, 2]
0.28424966 0.18477473
00000000: 2c89 913e 9635 3d3e
