Assignment_1/Task_2a/epoch2.pt (torch, 2391 bytes, 5 tensors)

hidden1.0.weight f4 [4, 2]
-0.2548533 -0.20133045 -0.092380255 0.40872383 0.6231974 -0.22534244 -0.27941823 0.19431071
00000000: 227c 82be 9229 4ebe dc31 bdbd 4044 d13e
00000010: dd89 1f3f 2bc0 66be e80f 8fbe 63f9 463e

hidden1.0.bias f4 [4]
0.48771024 0.010743395 0.18009026 -0.22380356
00000000: 28b5 f93e 1105 303c 9569 383e c32c 65be

hidden2.0.weight f4 [2, 4]
-0.36455834 -0.3323731 -0.023568336 0.074960046 0.3638912 0.381359 0.3124827 0.43541858
00000000: 64a7 babe cf2c aabe 6212 c1bc a784 993d
00000010: f34f ba3e 7d41 c33e bcfd 9f3e 2fef de3e

hidden2.0.bias f4 [2]
-0.39338505 0.11261429
00000000: c469 c9be 52a2 e63d

output.0.weight f4 [1, 2]
0.20039414 -0.016145539
00000000: 1f34 4d3e a643 84bc
