Assignment_1/Task_2a/epoch360.pt (torch, 2391 bytes, 5 tensors)

hidden1.0.weight f4 [4, 2]
0	0x3e14c8ce	0.14529726
1	0xbe862414	-0.261994
2	0xbe05f155	-0.13080342
3	0x3e7a663f	0.24453066
4	0x3e2e869a	0.17043534
5	0xbd58ffe0	-0.052978396
6	0xbe20bf15	-0.15697892
7	0xbedf2cd4	-0.4358889

hidden1.0.bias f4 [4]
0	0x401f98b0	2.4936943
1	0x4009b411	2.1516154
2	0x3e357a5f	0.17722462
3	0x3e1f91c9	0.15582956

hidden2.0.weight f4 [2, 4]
0	0xbff20d11	-1.8910238
1	0x3f91bbf3	1.1385483
2	0x3fcf19ba	1.6179726
3	0x3f2b4e9b	0.6691682
4	0xbfc3f7e4	-1.5310025
5	0x400856b2	2.1302915
6	0x3ff91627	1.9459885
7	0x3f80f77e	1.0075529

hidden2.0.bias f4 [2]
0	0x3e56d51e	0.20979735
1	0xbecc886b	-0.3994783

output.0.weight f4 [1, 2]
0	0x4049fa5b	3.1559055
1	0x406cf150	3.7022285
