Assignment_1/Task_2a/epoch50.pt (torch, 2391 bytes, 5 tensors)

hidden1.0.weight f4 [4, 2]
000000 76 4c 75 3c 40 0b 0d be 51 c6 fc bc c0 ec ba 3e
       0.014971843 -0.13773823 -0.030856283 0.3650875
000010 5e a2 25 3f 8b 9a 7b be 55 94 10 bd 92 41 a2 3d
       0.6470088 -0.24570672 -0.03529771 0.07922663

hidden1.0.bias f4 [4]
000000 86 d3 0a 3f ab 44 94 3c 00 62 37 3e 83 62 5c be
       0.5422901 0.01809915 0.17908478 -0.21521954

hidden2.0.weight f4 [2, 4]
000000 c6 d1 3a bf 28 f0 ba 3d 3b ca 56 3e 98 0b ea 3e
       -0.7297634 0.091278374 0.20975582 0.4571197
000010 a1 d7 c5 3d 7d d5 1a 3f 52 fd f5 3e 41 45 38 3f
       0.096602686 0.6048201 0.4804483 0.71980673

hidden2.0.bias f4 [2]
000000 aa b0 9b be 33 89 d1 3d
       -0.3040822 0.10231247

output.0.weight f4 [1, 2]
000000 45 b0 70 3f 2d ae 86 3f
       0.94018966 1.0521904
