Assignment_1/Task_2a/weights.pt (torch, 2463 bytes, 5 tensors)

hidden1.0.weight f4 [4, 2]
000000 a4 6a 7f 3e 87 ff 83 be a1 4d 4b 3e ed 62 6e bf
       0.24943024 -0.2578089 0.19853832 -0.931197
000010 c3 76 60 be b7 a6 9c bc 81 6a 97 3e 9d b8 93 be
       -0.21920304 -0.019122465 0.29573444 -0.28851786

hidden1.0.bias f4 [4]
000000 b6 84 44 c0 50 e7 28 3f c2 9d ed bd 87 fd 5d 40
       -3.0706 0.65977955 -0.116023555 3.468599

hidden2.0.weight f4 [2, 4]
000000 27 26 22 c0 0e c1 d9 3f 8d 3a 16 c0 ac b1 21 c0
       -2.5335786 1.7012041 -2.3473237 -2.5264692
000010 e7 0c 55 3f fe 4e 72 be dc 46 27 3f d0 7c 78 3f
       0.8322281 -0.23662946 0.653425 0.9706545

hidden2.0.bias f4 [2]
000000 7b 1e a7 3c 20 b7 da 3d
       0.020400276 0.106794596

output.0.weight f4 [1, 2]
000000 7d b7 a1 40 1f 93 dc bf
       5.0536485 -1.7232398
