Assignment_1/Task_2a/weights.pt (torch, 2391 bytes, 5 tensors)

hidden1.0.weight f4 [4, 2]
000000 0f 15 1b 3d 15 27 04 be b4 c0 0b bf 99 09 3c 3f
       0.03786188 -0.12905534 -0.54590917 0.73452145
000010 a1 ee 4b 3e 0c dc 37 3f f6 b3 c2 3e 1e bf 1d be
       0.19915248 0.7182014 0.38027924 -0.15404937

hidden1.0.bias f4 [4]
000000 e1 21 c1 3c 94 9b eb be 5e a9 35 bd 4f 82 45 3e
       0.023575725 -0.46017134 -0.044350974 0.1928799

hidden2.0.weight f4 [2, 4]
000000 58 00 02 40 5b ef 4a 3f 8d 20 74 3e 4e d5 cc be
       2.031271 0.7927148 0.23840542 -0.4000649
000010 bc ce 67 c0 e9 4a ac bf ea cd 11 bf 80 da 56 3f
       -3.621993 -1.3460361 -0.56954825 0.83927155

hidden2.0.bias f4 [2]
000000 ee 56 84 3c 1c 4a 9c 3c
       0.016154733 0.019078307

output.0.weight f4 [1, 2]
000000 fb 69 13 c0 d3 49 8b 40
       -2.3033435 4.3527617
