Assignment_1/Task_1/epoch2.pt (torch, 2263 bytes, 5 tensors)

linear1.weight f4 [8, 2]
00000000: 4de7 c53d bbb8 153f 6032 0b3f ef8b a23d
00000010: 03ab bfba 1187 ea3d 9442 16bf ce3c 28bf
00000020: 19cf 093e ff00 b33e 28c8 8d3e a1ec 81be
00000030: e9f0 13bf c4c1 343d 2913 193f bce8 40be
0.09663258 0.58485 0.5437374 0.079368465 -0.0014623109 0.11451543 -0.5869534 -0.6571778
0.13457908 0.34961697 0.2769177 -0.25375846 -0.57789475 0.0441301 0.5979486 -0.18838781

linear1.bias f4 [8]
00000000: e9e1 f6be 1441 14be b4cd 013f f55a 0bbf
00000010: 1f9c 803e f6fe 68bd 12c9 62bd 8647 50be
-0.4821923 -0.1447795 0.50704503 -0.54435664 0.2511911 -0.056883775 -0.055367537 -0.20339784

linear2.weight f4 [4, 8]
00000000: 01d1 2f3e 1694 e03e 6098 813e c0eb 68bd
00000010: ad55 363e 31c3 2e3e 8c23 12bf 7d5f 9e3e
00000020: d8e7 97bd ad99 82be eb43 823e 8077 b73e
00000030: cf67 ffbe 1e10 143e 587c ac3e 72fd ae3d
00000040: 499c 27be 2101 bbbe 5ed2 99be 8ac5 a53e
00000050: ffed ebbd c1e7 c33b b43b 92be c376 0dbe
00000060: f240 6e3e b7e2 cebe f19c 54be d8b7 4b3e
00000070: cbec a8be 0ed0 42be fece d13e 1fa4 74be
0.17169572 0.4386298 0.25311565 -0.056865454 0.1780612 0.17066647 -0.5708549 0.30932227
-0.074172676 -0.2550787 0.25442442 0.3583336 -0.49883887 0.14459273 0.33688617 0.085444346
-0.16368212 -0.365243 -0.3004331 0.32377273 -0.115200035 0.005978555 -0.28561175 -0.13814835
0.23266962 -0.40407345 -0.20762993 0.1989435 -0.3299316 -0.19024679 0.40978235 -0.23890732

linear2.bias f4 [4]
00000000: a0e1 653e 2349 16bf ecc5 cfbd 64f2 88be
0.2244935 -0.5870535 -0.101451725 -0.2674743

linear3.weight f4 [1, 4]
00000000: 4077 bc3f 86f8 94bf a23c e0be 85fc 7dbf
1.4723892 -1.1638343 -0.4379626 -0.9921344
