Assignment_1/Task_1/epoch350.pt (torch, 2263 bytes, 5 tensors)

linear1.weight f4 [8, 2]
0	0xbe59328c	-0.21210688
1	0xbed0e1c0	-0.40797234
2	0x3f89c423	1.0762981
3	0xbf6daf44	-0.9284556
4	0x3dd2fb21	0.10301805
5	0xbedf71e1	-0.4364157
6	0xbee22a7c	-0.44173038
7	0xbf3c3262	-0.7351438
8	0xbec1cb8c	-0.37850606
9	0xbf342cc4	-0.70380807
10	0x3fc579df	1.5427817
11	0x3b8ba5aa	0.004261692
12	0xc0064777	-2.0981119
13	0x3c603f07	0.013686902
14	0x3fe124f2	1.75894
15	0x3d25611b	0.04037581

linear1.bias f4 [8]
0	0xbfe7b5af	-1.810232
1	0xc1143378	-9.262566
2	0xc021fc27	-2.5310152
3	0xbfc3ea35	-1.5305849
4	0xbf9351bb	-1.1509317
5	0xc0a782b5	-5.2347054
6	0x411cdabc	9.803402
7	0xc12137a8	-10.076088

linear2.weight f4 [4, 8]
0	0xbe9cd902	-0.30634314
1	0x3fa5b64e	1.294626
2	0x3fe682bc	1.8008647
3	0xbef0bb25	-0.4701778
4	0xbe15b24f	-0.146188
5	0x3fdf2569	1.7433292
6	0xbfd02236	-1.626044
7	0x3ff1e373	1.8897537
8	0x3e94466a	0.28959972
9	0x3ce581a8	0.028015926
10	0xbf00b81f	-0.50280946
11	0x3ff1a57a	1.8878624
12	0xbf13755e	-0.57600963
13	0xbd21a190	-0.03946072
14	0x3ec8b172	0.3919788
15	0xbe14ec97	-0.14543377
16	0x3f1a11fb	0.60183686
17	0xbea684c3	-0.32523164
18	0xbee1b3e3	-0.44082555
19	0x3ff21e9d	1.8915592
20	0x3ebf41e5	0.3735496
21	0xbfff023a	-1.9922554
22	0x3f8b1329	1.0865222
23	0xbf8d041b	-1.1016878
24	0x3f10d6d4	0.565778
25	0xbeba8788	-0.36431527
26	0xbfb75ed4	-1.4325814
27	0x3fac2bac	1.3450828
28	0x3e400d69	0.18755116
29	0xbfa9de88	-1.3271036
30	0x3fa23d1f	1.2674903
31	0xbfe215e2	-1.7662928

linear2.bias f4 [4]
0	0x3f114658	0.5674796
1	0xc00f1b6c	-2.2360487
2	0xc0092fcf	-2.143543
3	0xbfab5330	-1.3384762

linear3.weight f4 [1, 4]
0	0x420a9225	34.64272
1	0xc20e7ef6	-35.623985
2	0xc20aa535	-34.661335
3	0xc20c0928	-35.00894
