Assignment_1/Task_1/epoch50.pt (torch, 2263 bytes, 5 tensors)

linear1.weight f4 [8, 2]
0	0x3dc19894	0.0945293
1	0x3ebac1b1	0.364759
2	0x3f1a5e2e	0.60299957
3	0xbd896113	-0.067079686
4	0x3e10bcd4	0.14134532
5	0xbda0ecc2	-0.07857658
6	0xbf1864fe	-0.595291
7	0xbf474761	-0.7784329
8	0x3e138feb	0.14410369
9	0x3daca14d	0.08429203
10	0x3eaf2b00	0.34212494
11	0xbbf55d4f	-0.00748793
12	0xbee95ba7	-0.45577738
13	0xbcc6649f	-0.024217902
14	0x3f0689f7	0.5255427
15	0xbd69b12c	-0.05705373

linear1.bias f4 [8]
0	0xbec1ed15	-0.37876192
1	0xc014c9dd	-2.3248208
2	0x3ed83544	0.42228138
3	0xbf541173	-0.82839125
4	0x3e973f4d	0.29540482
5	0xbf897c8e	-1.0741136
6	0x3fed5853	1.854258
7	0xbffbfd8c	-1.9686751

linear2.weight f4 [4, 8]
0	0x3e8895c4	0.26676762
1	0x3ff20acb	1.8909544
2	0x3e1f541b	0.15559427
3	0x3f0c21c3	0.54739016
4	0x3e443d54	0.1916402
5	0x3f74dd88	0.9565053
6	0xbfd64fbb	-1.6743082
7	0x3fce23ab	1.6104635
8	0xbeacfc67	-0.33786318
9	0xbed6c238	-0.41945052
10	0xbe558410	-0.20851159
11	0x3f83560f	1.0260638
12	0xbf6b246d	-0.91852456
13	0xbc71700a	-0.014736185
14	0x3efa9088	0.48938394
15	0xbdaf1a1a	-0.085499
16	0xbdea4384	-0.11438659
17	0xbf693394	-0.91094327
18	0xbf2eb546	-0.6824535
19	0x3f466347	0.77495235
20	0xbecb2085	-0.39673248
21	0xbe8daea5	-0.27672306
22	0x3e13c409	0.1443025
23	0xbf246aff	-0.64225763
24	0xbe4a11a6	-0.19733295
25	0xbf9a9771	-1.2077466
26	0xbeaf908f	-0.34289977
27	0x3e574213	0.21021299
28	0xbf2d7508	-0.677567
29	0xbf45589a	-0.7708832
30	0x3f8ee57b	1.1163782
31	0xbf81561c	-1.0104403

linear2.bias f4 [4]
0	0xbed6b0a6	-0.41931647
1	0xbfac4234	-1.3457704
2	0xbf2f7948	-0.68544436
3	0xbe80fa94	-0.25191176

linear3.weight f4 [1, 4]
0	0x4192a735	18.331644
1	0xc18e4dd9	-17.788012
2	0xc187b7f7	-16.964827
3	0xc18df4f7	-17.744612
