Assignment_1/Task_1/epoch10.pt (torch, 2263 bytes, 5 tensors)

linear1.weight f4 [8, 2]
0.17646432 0.53337944 0.6105423 -0.22871958 0.147271 0.0248947 -0.5755251 -0.63785034
0.1592726 0.15872905 0.48273087 -0.20222141 -0.64408314 0.3130035 0.661978 -0.29100764
00000000: 10b3 343e 8e8b 083f 804c 1c3f 7735 6abe
00000010: 36ce 163e f8ef cb3c 9d55 13bf 294a 23bf
00000020: 5b18 233e de89 223e 8028 f73e 2113 4fbe
00000030: a2e2 24bf ff41 a03e 6477 293f f4fe 94be

linear1.bias f4 [8]
-0.52018505 -0.58825994 0.41107497 -0.5187191 0.11304081 -0.23002294 0.3641937 -0.5102237
00000000: d92a 05bf 3498 16bf 6b78 d23e c6ca 04bf
00000010: f181 e73d 228b 6bbe 9977 ba3e 059e 02bf

linear2.weight f4 [4, 8]
0.20454128 0.75917304 0.22996564 0.06323868 0.16295195 0.42173764 -0.8591538 0.6673032
-0.24668807 -0.52939606 0.10443825 0.5123428 -0.6716826 -0.055765446 0.60212475 -0.19344033
-0.36476466 -0.6952302 -0.4704293 0.4937858 -0.31362808 -0.22977017 0.031071542 -0.47248226
0.16354184 -0.7399702 -0.23878583 0.15791586 -0.37006965 -0.44396424 0.7222985 -0.6043717
00000000: 4573 513e 2a59 423f 1d7c 6b3e 4883 813d
00000010: e0dc 263e ffed d73e 81f1 5bbf 62d4 2a3f
00000020: cc9b 7cbe 8086 07bf b9e3 d53d e628 033f
00000030: 64f3 2bbf 4f6a 64bd d924 1a3f 3915 46be
00000040: 6fc2 babe 9bfa 31bf 1cdc f0be 7ed1 fc3e
00000050: dc93 a0be df48 6bbe bf89 fe3c 32e9 f1be
00000060: 8377 273e b06e 3dbf 4684 74be b2b4 213e
00000070: c579 bdbe 484f e3be 8ee8 383f 1bb8 1abf

linear2.bias f4 [4]
0.081881784 -0.7327409 -0.26033813 -0.2090489
00000000: a3b1 a73d e894 3bbf 0a4b 85be ea10 56be

linear3.weight f4 [1, 4]
5.9461236 -5.528631 -4.7451863 -5.427444
00000000: a546 be40 8cea b0c0 91d8 97c0 9fad adc0
