Assignment_1/Task_1/epoch_600_50.pt (torch, 2263 bytes, 5 tensors)

linear1.weight f4 [8, 2]
000000 2c 97 c7 be 96 a2 29 bf f8 d9 24 3f be 5a 1e bc
       -0.38982522 -0.6626371 0.64395094 -0.009665189
000010 b9 0b 4a 3e f1 6f c0 3d 42 3f 49 3e 1c 21 17 3f
       0.19731034 0.09396351 0.19653037 0.59034896
000020 c7 70 c6 be 3e 6b ee 3d fe f1 b6 3e 62 c5 54 be
       -0.38757917 0.116415486 0.357315 -0.2077842
000030 40 58 fb 3e 1a 3f 9e 3c 47 be d3 3e 97 96 57 be
       0.49090767 0.019317199 0.41356108 -0.21053539

linear1.bias f4 [8]
000000 05 db 51 bf 50 ca 36 c0 b7 85 b3 be 0e 1c 32 3f
       -0.8197482 -2.8560982 -0.35062954 0.6957406
000010 69 df 87 3f 74 33 75 bf f1 c3 f6 bf 4f 89 15 bf
       1.0615054 -0.95781636 -1.9278547 -0.5841264

linear2.weight f4 [4, 8]
000000 d0 63 21 3f 7b a0 83 bf 15 fc 8e 3c 10 50 2e bf
       0.63042927 -1.028335 0.017454186 -0.68090916
000010 8e a4 14 3f 34 ce 37 3e e4 b6 2c bf cd 61 4b be
       0.5806359 0.17949754 -0.6746657 -0.19861527
000020 fe 1c a4 3e 8b 80 c7 bf ae fd 24 bf fd a0 1e bf
       0.3205337 -1.5586103 -0.64449584 -0.619644
000030 6d 9b f2 3e 32 d3 82 be f6 04 a5 bf b6 0d 08 bf
       0.47384205 -0.25551754 -1.2892139 -0.5314592
000040 af a4 0b 3f 3a 4c 10 40 6c e6 54 3f a7 b3 7c be
       0.5454816 2.2546525 0.83164096 -0.24677907
000050 9d c6 99 bf c2 f5 ce 3e 17 38 c4 3f 98 9c 59 3f
       -1.2013737 0.40421873 1.5329617 0.8500457
000060 60 39 74 3f 65 1e 86 be 73 17 e4 be a6 47 93 bf
       0.9540005 -0.26195064 -0.4454914 -1.150624
000070 cd 07 09 3f ea 4d 95 3e ee d8 de bd 80 48 d8 be
       0.5352753 0.29161006 -0.1088122 -0.42242813

linear2.bias f4 [4]
000000 00 1e 5d bf c8 d1 73 bd d2 fc 97 be c3 e7 6a bf
       -0.863739 -0.059526235 -0.29685074 -0.9175989

linear3.weight f4 [1, 4]
000000 7e b3 8b c1 b3 14 8c c1 83 64 8e 41 0c 95 89 c1
       -17.462643 -17.510107 17.799078 -17.197777
