Assignment_1/Task_1/epoch_600_600.pt (torch, 2263 bytes, 5 tensors)

linear1.weight f4 [8, 2]
0.47837463 1.9765799 2.9292445 2.9543364e-05 -0.88633466 0.01133737 0.48289126 -1.1028031
-0.1446803 1.1507204 -0.16067152 -0.51303184 2.2864895 -0.00057692 3.1781497 -0.011779012
00000000: 85ed f43e 9200 fd3f be78 3b40 e4d3 f737
00000010: d4e6 62bf 60c0 393c 863d f73e a728 8dbf
00000020: 1327 14be ce4a 933f 1387 24be 0e56 03bf
00000030: d855 1240 723c 17ba ce66 4b40 c2fc 40bc

linear1.bias f4 [8]
0.29466102 -14.5630455 2.4995627 -5.450715 4.806865 -3.0502958 -13.848803 -11.712985
00000000: cfdd 963e 3c02 69c1 d6f8 1f40 426c aec0
00000010: d7d1 9940 0c38 43c0 b294 5dc1 6368 3bc1

linear2.weight f4 [4, 8]
-0.010206392 -1.9190191 0.5686198 -0.073840976 -0.77604127 1.4301419 -1.9330969 -1.4418938
1.0058253 -1.5086677 0.43086824 -1.4882195 0.34131515 -0.01783651 -3.421017 -3.4430661
1.2489477 1.8293089 -0.91685545 2.0027273 -0.24635968 -0.7471043 3.2341146 2.2678118
0.56873155 0.13530916 0.85602736 -0.81994814 -0.96732026 1.6958265 -0.10412737 -0.010196446
00000000: b638 27bc 6ba2 f5bf 1191 113f f039 97bd
00000010: a4aa 46bf e40e b73f b86f f7bf fa8f b8bf
00000020: e2be 803f 061c c1bf c39a dc3e fa7d bebf
00000030: dcc0 ae3e df1d 92bc f1f1 5ac0 325b 5cc0
00000040: 85dd 9f3f cb26 ea3f 0ab7 6abf af2c 0040
00000050: b645 7cbe 3a42 3fbf bcfb 4e40 d423 1140
00000060: 6498 113f 7c8e 0a3e 9c24 5b3f 1fe8 51bf
00000070: 4da2 77bf d810 d93f bb40 d5bd ff0e 27bc

linear2.bias f4 [4]
-3.4034069 -0.8674554 2.0780556 -2.6717434
00000000: 6bd1 59c0 8f11 5ebf ddfe 0440 d8fd 2ac0

linear3.weight f4 [1, 4]
-40.179016 -34.05279 35.63989 -40.743248
00000000: 50b7 20c2 0f36 08c2 3f8f 0e42 16f9 22c2
