Assignment_1/Task_1/epoch600.pt (torch, 2263 bytes, 5 tensors)

linear1.weight f4 [8, 2]
0	0xc060a0e2	-3.5098195
1	0xbd8af1a2	-0.06784369
2	0x3e803f9e	0.25048536
3	0xba901b84	-0.0010994528
4	0x3f427a8d	0.7596825
5	0xbf43b7eb	-0.7645251
6	0x3ff85e67	1.9403809
7	0xbb411142	-0.002945975
8	0xbdce4f8d	-0.10073767
9	0x3f8d40b6	1.1035373
10	0xbfbe3304	-1.4859319
11	0xbddd2294	-0.10797611
12	0x3f020f92	0.5080501
13	0x3f727b29	0.9471918
14	0x3ec4da72	0.3844791
15	0x3f39c116	0.7256025

linear1.bias f4 [8]
0	0x4192d2d8	18.352951
1	0xbe85d500	-0.2613907
2	0xc0fc603f	-7.886749
3	0xc0d86c5f	-6.763229
4	0x40395da2	2.89634
5	0x411119e2	9.068819
6	0x3f9f2281	1.2432405
7	0x3fd61de2	1.672787

linear2.weight f4 [4, 8]
0	0x4087aded	4.239981
1	0xbeb5a474	-0.3547703
2	0xbff2d16f	-1.8970164
3	0xc018d181	-2.387787
4	0x3fc15293	1.5103325
5	0x3fcc6412	1.5968039
6	0x3f946af7	1.1595143
7	0x3faea6ff	1.3644713
8	0x3bb5f8af	0.005553327
9	0x3f4c7a0b	0.7987372
10	0xbf559b0b	-0.834397
11	0xbe3466c8	-0.17617333
12	0xbf8cec8e	-1.1009691
13	0x3f62b280	0.8855362
14	0x3e1582d0	0.14600682
15	0x3f863457	1.0484723
16	0x404d5607	3.2083757
17	0xbf00bb6f	-0.50286
18	0xbfc0fb47	-1.5076684
19	0xc03f0151	-2.9844553
20	0x401739c1	2.3629
21	0x3eab2b82	0.3343163
22	0xbf1b020c	-0.6055
23	0xbea8f7fe	-0.33001703
24	0xc0236d03	-2.5535285
25	0x3f18b4c8	0.5965085
26	0x3f4847a3	0.7823431
27	0x3fa8eac5	1.3196646
28	0xbdac8b61	-0.08425022
29	0x3fa8badb	1.3182024
30	0x3e9b1695	0.30290666
31	0xbe575f62	-0.2103248

linear2.bias f4 [4]
0	0xbf909da0	-1.1298103
1	0x404cae0e	3.1981235
2	0xc04ab18a	-3.1670861
3	0x404c2bb1	3.1901667

linear3.weight f4 [1, 4]
0	0xc1fb2b36	-31.3961
1	0x42200108	40.001007
2	0xc220652e	-40.09881
3	0x4218846c	38.12932
