Assignment_1/Task_1/epoch1.pt (torch, 2263 bytes, 5 tensors)

linear1.weight f4 [8, 2]
00000000: f149 ac3d 313d 153f cb35 073f 7111 943d
00000010: 94be c2bd 5c84 4d3d 692d 16bf 4e3c 28bf
00000020: 72cd 303d bde8 a33e 46b4 7f3e 5fbf 8fbe
00000030: 71be 10bf b934 523d 5ee3 133f 8efd 57be
0.08412541 0.58296496 0.52816457 0.07229889 -0.09509006 0.050175056 -0.5866304 -0.6571702
0.043164678 0.32013503 0.24971113 -0.28075692 -0.5654059 0.05131981 0.5776881 -0.21092817

linear1.bias f4 [8]
00000000: 6e2b f8be 201a 17be ef9d f93e ce59 0bbf
00000010: 3461 6d3e dfc1 80bd 23fb 5abd bb7a 55be
-0.48470634 -0.1475606 0.48753306 -0.54433906 0.23181611 -0.06286978 -0.05346216 -0.20847599

linear2.weight f4 [4, 8]
00000000: 0a1f cf3d 9669 b23e 0ee2 5f3e fbd3 093d
00000010: 2bb3 c93d f44d 153e 7b07 f6be d969 663e
00000020: 18c3 843c e694 0bbe a502 9a3e 228d 733e
00000030: 2ab5 c9be 987e 403e 2d3d 5f3e 760a 4b3e
00000040: d580 c3bd a29a 8ebe b351 85be 0f99 713e
00000050: dbe8 15bd 483f 173d 1aa3 bebe fbdf 64bd
00000060: 4f90 9b3e 868b a3be 789a 2fbe ddb6 e83d
00000070: e75f 81be a8c3 2ebe 247c a63e a645 24be
0.10113342 0.3484618 0.21863577 0.033649426 0.09848627 0.14580518 -0.48052582 0.22501315
0.01620631 -0.13631019 0.30080143 0.23784307 -0.3939603 0.18798292 0.2180068 0.1982821
-0.09546057 -0.2785235 -0.26038894 0.23593543 -0.03659902 0.036925584 -0.37233812 -0.055877667
0.30383536 -0.31942385 -0.17148769 0.113630034 -0.2526848 -0.17066824 0.32516587 -0.16042194

linear2.bias f4 [4]
00000000: 4b43 093e fcdb eebe ffb3 5ebc a78f 3abe
0.13404576 -0.4665221 -0.013592719 -0.18218862

linear3.weight f4 [1, 4]
00000000: 2aee 503f b2ec 0bbf 0624 68bd c7c5 bcbe
0.8161341 -0.54658043 -0.05667498 -0.36869642
