Assignment_1/Task_1/epoch_600_2.pt (torch, 2263 bytes, 5 tensors)

linear1.weight f4 [8, 2]
0	0xbebf0bce	-0.37313694
1	0xbf0b45c5	-0.54403335
2	0x3eceeee3	0.4041663
3	0x3eb5d708	0.35515618
4	0x3e643f9f	0.22289895
5	0xbd1bfbb4	-0.03808184
6	0x3d72b3f1	0.059253637
7	0x3ed13ab3	0.40865096
8	0xbef9701e	-0.4871835
9	0xbf13a8c8	-0.57679415
10	0x3ea1059e	0.31449598
11	0xbee2d200	-0.44300842
12	0x3f2dd316	0.67900217
13	0x3adf4f7d	0.0017037239
14	0x3f1318c1	0.57459646
15	0xbef99225	-0.48744312

linear1.bias f4 [8]
0	0xbf187af2	-0.595626
1	0xbe41790a	-0.18893829
2	0x3f1caa0c	0.6119697
3	0x3ed3589c	0.4127854
4	0x3dcb311e	0.09921478
5	0xbf258bdf	-0.6466655
6	0x3f0e43f4	0.5557244
7	0x3ed946b8	0.42436767

linear2.weight f4 [4, 8]
0	0x3da391e2	0.07986809
1	0xbf034a20	-0.5128498
2	0x3db428d7	0.08796852
3	0xbe3391d6	-0.17536101
4	0x3ea438aa	0.3207448
5	0x3e204a6d	0.15653391
6	0xbf0de38e	-0.55425346
7	0x3d414bf5	0.04719158
8	0x3e9f359c	0.31095588
9	0xbeab06d2	-0.3340364
10	0xbe4e758f	-0.20162033
11	0xbec561dd	-0.38551226
12	0xbd78728c	-0.060656115
13	0xbe1c570d	-0.15267582
14	0xbf0e171a	-0.55504
15	0xbd6b1df4	-0.057401612
16	0x3d7118bb	0.058861475
17	0x3e9ad80b	0.30242953
18	0x3ee58dd6	0.44834775
19	0xbd4c0a13	-0.049814295
20	0xbeef2882	-0.46710593
21	0xbe30b38a	-0.17255989
22	0x3eb89b74	0.360561
23	0x3e9c77c7	0.30560133
24	0x3e1f0be4	0.1553188
25	0xbe1938ad	-0.14963026
26	0xbe31643c	-0.17323393
27	0xbedae2db	-0.42751202
28	0x3e971599	0.29508665
29	0xbdfb3b60	-0.12267184
30	0xbdf6ce14	-0.12051025
31	0xbe6ed0fa	-0.23321906

linear2.bias f4 [4]
0	0xbe47c9ee	-0.19510624
1	0xbdf35a74	-0.11882487
2	0x3e928557	0.28617355
3	0xbd559d07	-0.052151706

linear3.weight f4 [1, 4]
0	0xbf86cb26	-1.0530746
1	0xbf866d72	-1.050215
2	0x3f9f89d4	1.2463937
3	0xbf3b4671	-0.7315436
