Assignment_1/Task_1/epoch_600_10.pt (torch, 2263 bytes, 5 tensors)

linear1.weight f4 [8, 2]
0	0xbebae202	-0.36500555
1	0xbf043a44	-0.51651406
2	0x3ed967e5	0.42462078
3	0xbd21d02b	-0.039505165
4	0x3f02f00a	0.5114752
5	0xbe9e3d42	-0.3090611
6	0x3e147144	0.14496332
7	0x3ea5a5f4	0.32353175
8	0xbedcacf4	-0.43100703
9	0xbed62c66	-0.41830748
10	0x3e87dbe9	0.26534966
11	0xbeea39af	-0.45747134
12	0x3f45f265	0.7732299
13	0xbf0ce1fd	-0.5503233
14	0x3f493593	0.7859737
15	0xbf0c7264	-0.54862046

linear1.bias f4 [8]
0	0xbf10e425	-0.5659812
1	0xbf04af4b	-0.51829976
2	0x3eba3ee1	0.36376098
3	0x3eafffba	0.3437479
4	0x3e71f396	0.23628077
5	0xbf2933df	-0.66094774
6	0x3e0e5916	0.13901171
7	0x3e53b7dc	0.20675606

linear2.weight f4 [4, 8]
0	0x3e4cacb8	0.19987762
1	0xbf3f734e	-0.74785316
2	0xbdbaf1d2	-0.09128155
3	0xbe9b1b3f	-0.30294225
4	0x3ef764d8	0.48319125
5	0x3dec0549	0.115244456
6	0xbf4732be	-0.778118
7	0xbe425b3e	-0.18980119
8	0x3eb3e98a	0.35139114
9	0xbf14b624	-0.58090425
10	0xbed117b6	-0.40838403
11	0xbee3d638	-0.44499373
12	0x3cfba67c	0.030719034
13	0xbe6f4a2c	-0.23368138
14	0xbf56a69e	-0.8384799
15	0xbec47c3c	-0.38376033
16	0x3d9d287e	0.07673739
17	0x3f03d2b6	0.51493394
18	0x3f21c3fc	0.63189673
19	0xbd40ad4b	-0.047040265
20	0xbf015a3d	-0.5052832
21	0xbcb3c7ea	-0.021945912
22	0x3f209c84	0.62738824
23	0x3f2414e3	0.6409437
24	0x3e8e8557	0.27836105
25	0xbeca92c5	-0.395651
26	0xbec66533	-0.38749084
27	0xbf0f8d58	-0.5607505
28	0x3eeb3157	0.4593608
29	0xbe1377e7	-0.14401208
30	0xbec7b7e5	-0.39007488
31	0xbf0c544f	-0.54816145

linear2.bias f4 [4]
0	0xbe97aca1	-0.29623893
1	0xbe0cfe36	-0.13768849
2	0x3e7a556a	0.24446645
3	0xbe208b81	-0.15678217

linear3.weight f4 [1, 4]
0	0xc0a7d780	-5.245056
1	0xc0a84495	-5.258372
2	0x40af24aa	5.4732256
3	0xc09d1968	-4.9093513
